src/saved/models/Mnist_LeNet/1014_083735/checkpoint-epoch3.pth (torch_old, 355460 bytes, 32 tensors)

conv1.weight f4 [10, 1, 5, 5]
-0.22047062 -0.18411267 -0.22484851 -0.015090486 -0.19223702 0.10513629 -0.3697159 -0.49407277
-0.4060296 -0.075589 0.058066886 0.16644372 -0.15929504 -0.14238006 -0.08030786 0.12773259
0.066197254 0.3524577 0.13706064 0.20416941 0.25653487 0.21098116 0.25722766 0.39211595
0.07815589 0.107576154 0.01606099 0.24925712 0.1996426 -0.25854218 0.18947859 0.14830782
0.17376748 0.16929753 0.14978254 -0.086362466 -0.17814961 0.014281588 -0.034010503 0.06743642
-0.12323412 -0.09902864 -0.002957205 0.24610926 0.058223408 -0.042528957 -0.026220812 0.028896164
0.22003177 0.23926681 0.23774548 0.21393049 0.17967 0.19732095 -0.005517642 0.055394284
0.047061287 0.22752905 -0.066142954 -0.3175772 0.21444805 0.30569384 -0.14832407 -0.28352398
-0.24847832 0.16300255 0.0250003 -0.14530924 -0.39771697 0.007917548 0.31635392 0.13167533
-0.31982258 -0.3361929 0.07518942 0.032935806 0.09496427 -0.12685932 0.10543654 0.24507692
-0.018647065 -0.06013608 0.109087214 0.13617715 -0.016174428 -0.26450762 -0.1642938 0.27739614
0.2405459 0.07325093 -0.27806854 0.20903192 0.1861459 0.22733553 -0.13240442 0.14213674
0.2665384 0.17421171 0.13450168 -0.11808177 0.22785388 -0.1729926 -0.029886276 -0.14730306
-0.06515943 -0.06895583 -0.053086698 0.17250694 0.11503531 -0.03321175 0.08518106 -0.22097728
0.0766413 0.0053266343 -0.027533464 -0.06439383 -0.23905814 0.00084686617 0.1409551 0.25308135
-0.023040337 0.14114785 0.2256698 -0.055084854 0.23613454 0.11504253 0.3192391 0.25807154
0.2093131 0.30560392 0.048916835 0.19040711 0.11272807 -0.050725427 0.05439737 -0.1967658
0.05361686 0.03787299 0.057400692 0.020152457 -0.2009478 -0.21280138 -0.073011525 0.14013228
0.090447724 -0.30880007 -0.37176034 -0.2526586 -0.36572143 -0.2595394 -0.26250803 -0.1557523
-0.026449678 0.12501073 0.05493354 0.028100612 -0.123511486 0.018454779 -0.17423463 0.13245109
0.024674185 0.254084 -0.09165236 0.21890198 0.26856238 0.22989704 0.1259073 0.23628032
0.2021241 0.25263658 -0.007150703 -0.14318389 -0.07783044 -0.034162715 -0.18089648 -0.25625172
-0.27510267 -0.0051092384 0.2782648 0.10193087 -0.28952977 -0.19048354 0.20210794 -0.002040814
-0.03859136 -0.2803419 -0.24362825 0.18227208 0.2934473 -0.08010305 -0.3146668 -0.2535574
0.13721035 0.3073518 -0.0042794948 -0.24728252 0.010594634 -0.09280007 0.30905297 0.22030474
0.017694138 0.0042632027 -0.08593295 -0.33633503 -0.4284362 0.00019166221 -0.1609122 -0.3082275
-0.30507633 0.010875585 -0.19098008 -0.33049917 -0.18587427 -0.20520116 0.19107127 -0.3018047
-0.18040894 -0.18683368 0.12875056 0.21674602 -0.51037264 -0.25888202 0.15213181 0.11201181
0.25913912 -0.23531012 -0.20952316 -0.37706834 -0.07621096 -0.0060117044 -0.17492504 -0.18756811
-0.30292752 -0.0005632202 0.064388506 -0.30319613 -0.033147227 -0.029635346 -0.10260732 0.22861168
-0.061519824 -0.08266955 -0.09608472 0.13297525 0.286991 0.08643312 -0.14103347 0.0019922866
0.28095418 0.25842774
00000000: 0dc3 61be 0888 3cbe b03e 66be 163e 77bc
00000010: c8d9 44be b251 d73d 674b bdbe 1bf7 fcbe
00000020: 1de3 cfbe 68ce 9abd 8bd7 6d3d 3970 2a3e
00000030: 3d1e 23be 14cc 11be 7378 a4bd 55cc 023e
00000040: 6d92 873d 5675 b43e a059 0c3e c911 513e
00000050: 8a58 833e 720b 583e 58b3 833e 6cc3 c83e
00000060: 3210 a03d e350 dc3d 5692 833c 423d 7f3e
00000070: 1c6f 4c3e a45f 84be ad06 423e 01de 173e
00000080: 1af0 313e 555c 2d3e 9860 193e cede b0bd
00000090: da6c 36be 52fd 693c 994e 0bbd 1b1c 8a3d
000000a0: 2c62 fcbd 87cf cabd abcd 41bb 1104 7c3e
000000b0: ab7b 6e3d d832 2ebd 07cd d6bc a6b7 ec3c
000000c0: 0250 613e 5c02 753e 8d73 733e 9810 5b3e
000000d0: 6afb 373e 810e 4a3e 56cd b4bb 1ee5 623d
000000e0: 56c3 403d 60fd 683e f575 87bd 7b99 a2be
000000f0: 4598 5b3e e783 9c3e 44e2 17be 0e2a 91be
00000100: 1a71 7ebe 24ea 263e 6ecd cc3c f2cb 14be
00000110: 8fa1 cbbe 9ab8 013c 24f9 a13e e6d5 063e
00000120: c9bf a3be 7a21 acbe e9fc 993d b2e7 063d
00000130: a17c c23d 69e7 01be 1def d73d 72f5 7a3e
00000140: bbc1 98bc 4051 76bd 1e69 df3d 0672 0b3e
00000150: 3c80 84bc 8b6d 87be a23c 28be de06 8e3e
00000160: aa51 763e 9504 963d 005f 8ebe 770c 563e
00000170: 089d 3e3e a5ca 683e 0695 07be 4b8c 113e
00000180: b977 883e 8e64 323e cfba 093e dbd4 f1bd
00000190: 8752 693e f924 31be 10d4 f4bc 9dd6 16be
000001a0: 4f72 85bd b738 8dbd 7071 59bd a9a5 303e
000001b0: a297 eb3d 0b09 08bd 6873 ae3d de47 62be
000001c0: 1df6 9c3d 0c8b ae3b dc8d e1bc eae0 83bd
000001d0: a8cb 74be 3a00 5e3a 8956 103e e193 813e
000001e0: 17bf bcbc 1089 103e fc15 673e a8a0 61bd
000001f0: 41cd 713e 6b9b eb3d 4f73 a33e f421 843e
00000200: 2c56 563e 1e78 9c3e 055d 483d 15fa 423e
00000210: f9dd e63d 77c5 4fbd c7cf 5e3d f97c 49be
00000220: 5a9d 5b3d b520 1b3d fd1c 6b3d c416 a53c
00000230: 43c5 4dbe 9be8 59be 1187 95bd d67e 0f3e
00000240: a83c b93d 0b1b 9ebe 5f57 bebe 785c 81be
00000250: d73f bbbe 59e2 84be 7467 86be 887d 1fbe
00000260: ffac d8bc d002 003e fe01 613d 4133 e63c
00000270: 97f3 fcbd 7a2e 973c 906a 32be 42a1 073e
00000280: 8421 ca3c 4c17 823e 3cb4 bbbd d727 603e
00000290: 0281 893e 216a 6b3e d8ed 003e 78f3 713e
000002a0: 9ff9 4e3e 9559 813e 7250 eabb cc9e 12be
000002b0: 9165 9fbd 34ee 0bbd ed3c 39be 6d33 83be
000002c0: 42da 8cbe 666b a7bb b978 8e3e 22c1 d03d
000002d0: 3f3d 94be 1e0e 43be 62f5 4e3e 2dbf 05bb
000002e0: f911 1ebd f988 8fbe af79 79be 88a5 3a3e
000002f0: b93e 963e 110d a4bd 021c a1be 47d2 81be
00000300: df80 0c3e 375d 9d3e 013b 8cbb a137 7dbe
00000310: 1e95 2d3c f70d bebd 313c 9e3e 9197 613e
00000320: 4cf3 903c 56b2 8b3b 9dfd afbd 1b34 acbe
00000330: fd5b dbbe eff8 4839 2bc6 24be ffcf 9dbe
00000340: f732 9cbe 822f 323c 4890 43be 3037 a9be
00000350: d355 3ebe 4120 52be 30a8 433e 2586 9abe
00000360: 1fbd 38be 5451 3fbe 30d7 033e abf2 5d3e
00000370: c8a7 02bf 2f8c 84be 71c8 1b3e 7366 e53d
00000380: e2ad 843e 23f5 70be 3d8d 56be 1a0f c1be
00000390: 7e14 9cbd d5fd c4bb 8d1f 33be db11 40be
000003a0: 5119 9bbe 11a5 13ba 1fde 833d 863c 9bbe
000003b0: 63c5 07bd d3c5 f2bc c923 d2bd 2e19 6a3e
000003c0: 36fc 7bbd a74e a9bd 11c8 c4bd aa2a 083e
000003d0: 7cf0 923e d903 b13d 146b 10be 0691 023b
000003e0: 3ad9 8f3e a450 843e

conv1.bias f4 [10]
0.23813748 -0.014123531 0.1379165 -0.1737303 0.10620848 0.16043435 0.096706085 -0.18961577
0.18851809 0.1583215
00000000: 50da 733e 6266 67bc fc39 0d3e 5be6 31be
00000010: d583 d93d e748 243e d70d c63d a32a 42be
00000020: e30a 413e 081f 223e

conv2.weight f4 [20, 10, 5, 5]
0.013560315 0.0069544706 -0.05885696 -0.0021186783 -0.06220871 0.12911752 0.13528503 0.064191245
-0.0104021635 -0.08598862 0.06350453 0.09609629 0.041606486 -0.03730113 -0.012830359 -0.010145094
-0.00051287946 -0.04259835 -0.021543374 -0.06307206 0.14228053 -0.08266712 -0.0036944272 -0.06451433
-0.074238144 -0.0113882525 -0.02650987 -0.05324203 -0.024663243 -0.026338352 0.06484123 -0.001090979
0.035590734 -0.019397518 -0.01418167 0.06114873 0.027128354 0.005493168 0.048319526 0.032250047
0.014774346 0.078692414 0.06881565 0.022783127 -0.033920523 -0.028659223 -0.037287258 -0.060430147
-0.027851539 0.0044318163 -0.004979548 0.03626969 -0.037849355 0.01110273 -0.047038108 -0.010660378
-0.12865129 -0.04462854 0.07646549 0.0048986967 -0.094762854 -0.13216022 0.028187549 0.03293153
0.004043531 0.016322235 0.0031543395 0.041980296 -0.08349932 -0.009782612 0.067445435 -0.028175777
0.006235974 0.09590893 0.09889733 0.013316484 -0.0960723 -0.090754405 0.08301408 0.07053671
-0.0054688267 0.054893892 -0.019252025 -0.026971454 -0.041009314 0.033772666 -0.0011604486 0.03327971
0.059704766 0.036702108 0.029501416 0.01148071 0.057171613 -0.027417775 -0.012160977 -0.0014623363
-0.020279335 0.009904115 -0.012274304 -0.07941903 0.037318956 -0.0072250497 -0.07087381 0.019710131
0.024387186 0.0909538 0.081203565 0.052477904 0.034847308 -0.05546378 0.06885324 0.02563858
0.06824713 0.05054439 -0.0002571809 -0.007745348 0.03891928 0.05312807 -0.049924236 -0.033982605
-0.014269868 -0.0018148837 0.0048498563 -0.039277706 -0.15933475 -0.031849988 -0.16415866 -0.1899043
-0.14311302 -0.10004103 0.036446624 -0.0482788 -0.1488408 -0.06581498 0.0040479065 0.005949173
-0.009835452 0.034864668 -0.041110735 -0.0283326 0.15874511 0.082338534 -0.006166138 0.08576937
0.0144960815 0.0047207754 0.059117034 -0.04437831 0.05147607 0.08172696 0.064660974 -0.0105440635
-0.073724374 0.043631844 -0.024638373 -0.021011874 -0.033072527 0.03838394 0.021840664 0.044563692
0.07325183 0.055576988 0.060083494 -0.027586605 -0.04623489 -0.026873538 0.072955295 0.093900256
0.029324858 0.079702884 -0.056442373 -0.014185763 0.003113057 -0.05144378 -0.103134796 -0.046243608
-0.12818816 -0.12948589 0.077807605 9.779262e-05 -0.03511656 -0.034836892 -0.141441 -0.004880199
0.061970975 -0.10924266 -0.056927826 -0.0901977 0.014761879 0.045579005 -0.08768686 -0.13676552
-0.034627717 0.08913806 -0.062594995 -0.03119846 -0.08333127 -0.011295734 -0.023470253 -0.048529916
-0.011106898 -0.122486226 -0.05601445 0.0022257655 0.13291354 -0.07065381 -0.09127642 -0.0012587542
0.019899406 0.12841682 -0.09817674 -0.12649372 -0.098557204 -0.102032974 -0.02664974 -0.026331615
-0.005245844 -0.020894034 -0.048506368 0.038312472 0.105956316 0.044859752 0.043314453 0.09206705
-0.035735603 -0.068127096 -0.14636074 1.2812345e-05 0.08283486 0.02352585 -0.08036234 -0.08086446
0.006713521 0.08878814 0.014569016 -0.038433168 -0.057872288 -0.034325693 0.067698374 0.07327833
-0.014811115 -0.0057654306 0.018202564 0.046250753 -0.056854624 0.008856235 -0.06308436 0.054236766
0.0393745 -0.027582904 -0.02221477 -0.019920304 0.05984257 -0.0472104 -0.039657135 0.07226824
00000000: 152c 5e3c 54e2 e33b ff13 71bd 86d9 0abb
00000010: 8fce 7ebd 6237 043e 2988 0a3e b376 833d
00000020: d66d 2abc cd1a b0bd aa0e 823d 22ce c43d
00000030: 906b 2a3d 12c9 18bd 6d36 52bc 9c37 26bc
00000040: c272 06ba 9c7b 2ebd bb7b b0bc ed2b 81bd
00000050: fdb1 113e 614d a9bd 341e 72bb 1720 84bd
00000060: 2b0a 98bd cb95 3abc 3a2b d9bc 5114 5abd
00000070: 920a cabc 87c3 d7bc 7bcb 843d 2eff 8eba
00000080: 97c7 113d 8be7 9ebc 3c5a 68bc 1777 7a3d
00000090: 483c de3c 0800 b43b b2ea 453d a018 043d
000000a0: 1910 723c 7d29 a13d 38ef 8c3d aea3 ba3c
000000b0: 3ff0 0abd bfc6 eabc 86ba 18bd 9a85 77bd
000000c0: e928 e4bc c538 913b 7a2b a3bb 878f 143d
000000d0: ed07 1bbd 3ae8 353c 08ab 40bd dea8 2ebc
000000e0: 2abd 03be 6acc 36bd f099 9c3d 3f85 a03b
000000f0: 0713 c2bd 0255 07be 93e9 e63c 36e3 063d
00000100: 997f 843b 35b6 853c 09b9 4e3b 88f3 2b3d
00000110: b101 abbd 4047 20bc d520 8a3d e3d0 e6bc
00000120: 2457 cc3b e76b c43d af8a ca3d 622d 5a3c
00000130: 8ec1 c4bd 72dd b9bd 4903 aa3d 8d75 903d
00000140: d833 b3bb 6bd8 603d 6cb6 9dbc 3df3 dcbc
00000150: 62f9 27bd 3555 0a3d 321a 98ba 4e50 083d
00000160: fc8c 743d f354 163d f4ac f13c 9619 3c3c
00000170: c82c 6a3d 3e9b e0bc d63e 47bc ddab bfba
00000180: d920 a6bc df44 223c 2a1a 49bc 72a6 a2bd
00000190: c3db 183d 1cc0 ecbb 4a26 91bd 2477 a13c
000001a0: a3c7 c73c fc45 ba3d 0e4e a63d 12f3 563d
000001b0: 0dbc 0e3d fd2d 63bd ed02 8d3d 0008 d23c
000001c0: 27c5 8b3d a207 4f3d 3cd6 86b9 b0cc fdbb
000001d0: d369 1f3d d29c 593d 5b7d 4cbd 5831 0bbd
000001e0: 2acc 69bc 64e1 edba 8beb 9e3b a9e1 20bd
000001f0: a628 23be 2275 02bd 3519 28be 4676 42be
00000200: 388c 12be 50e2 ccbd 0e49 153d febf 45bd
00000210: b969 18be 01ca 86bd 4da4 843b 48f1 c23b
00000220: e024 21bc 41ce 0e3d bb63 28bd c519 e8bc
00000230: 148e 223e 1ba1 a83d 510d cabb daa7 af3d
00000240: f980 6d3c bcb0 9a3b b424 723d 08c6 35bd
00000250: 92d8 523d 7760 a73d f96c 843d 02c1 2cbc
00000260: cefc 96bd 4eb7 323d 6ad6 c9bc 1821 acbc
00000270: 0f77 07bd 7a38 1d3d 31eb b23c 6b88 363d
00000280: 0e05 963d b2a4 633d 1c1a 763d 4efd e1bc
00000290: cc60 3dbd e525 dcbc 9669 953d c74e c03d
000002a0: af3a f03c 443b a33d 1e30 67bd 676b 68bc
000002b0: 6e04 4c3b b7b6 52bd 5638 d3bd f069 3dbd
000002c0: c243 03be f397 04be 9859 9f3d 0316 cd38
000002d0: 62d6 0fbd 21b1 0ebd e9d5 10be 14ea 9fbb
000002e0: 47d5 7d3d 9eba dfbd 272d 69bd 92b9 b8bd
000002f0: cfdb 713c 0db1 3a3d 2b95 b3bd 430c 0cbe
00000300: cbd5 0dbd 048e b63d ce31 80bd ea93 ffbc
00000310: 96a9 aabd be11 39bc b044 c0bc 4ec7 46bd
00000320: b5f9 35bc 0fda fabd 686f 65bd 26de 113b
00000330: 7d1a 083e f2b2 90bd 22ef babd c8fc a4ba
00000340: 1404 a33c b37f 033e e310 c9bd 9287 01be
00000350: 5cd8 c9bd aaf6 d0bd 8e50 dabc 66b5 d7bc
00000360: 54e5 abbb f729 abbc 9dae 46bd 8aed 1c3d
00000370: a0ff d83d dcbe 373d 7f6a 313d a68d bc3d
00000380: 7f5f 12bd 3886 8bbd 97df 15be 9af4 5637
00000390: 53a5 a93d 49b9 c03c 0395 a4bd 449c a5bd
000003a0: 19fd db3b 8ed6 b53d e2b2 6e3c 196c 1dbd
000003b0: 7e0b 6dbd 1999 0cbd 72a5 8a3d f312 963d
000003c0: 52aa 72bc f0eb bcbb 8b1d 953c 6e71 3d3d
000003d0: 65e0 68bd be19 113c 5f32 81bd 5f27 5e3d
000003e0: 2847 213d 8bf5 e1bc c0fb b5bc e82f a3bc
000003f0: 7c1d 753d b15f 41bd 856f 22bd 5f01 943d

conv2.bias f4 [20]
0.007748774 -0.059891474 0.007342045 -0.0060917204 0.032556996 0.018983359 0.0030757543 0.060428537
0.032073878 0.073447995 -0.03727272 0.07526697 -0.06230246 -0.0003809517 0.039025832 0.03468173
-0.018541826 -0.064120434 -0.011819132 0.08550927
00000000: 6de9 fd3b c350 75bd 8a95 f03b 0e9d c7bb
00000010: 7c5a 053d fd82 9b3c 9892 493b ea83 773d
00000020: e65f 033d e76b 963d 48ab 18bd 9225 9a3d
00000030: dd30 7fbd 79ba c7b9 8dd9 1f3d 6e0e 0e3d
00000040: 07e5 97bc 9351 83bd 08a5 41bc 7c1f af3d

fc1.weight f4 [50, 320]
0.08412915 0.049777173 0.0021297815 0.08865697 0.101426244 0.06003603 -0.02889415 0.019860884
-0.017240245 -0.11822815 -0.09633837 -0.03711897 -0.034322035 -0.05827063 0.012204882 -0.0063313995
0.025077345 -0.021582698 0.02555444 0.06976421 -0.020845946 -0.032172605 0.04673465 -0.039863944
0.027117904 -0.02534444 0.03783544 0.06326658 -0.01980098 -0.035151426 -0.06706561 -0.023521002
0.014990971 0.029794538 -0.017370926 -0.026916135 -0.024099784 -0.014888622 0.044812042 -0.059360247
-0.06558294 0.021617291 -0.0131379645 -0.050554603 -0.05679248 0.009192834 -0.03341374 0.04423098
-0.06753642 -0.017147444 -0.08532691 -0.1232618 0.012236189 -0.030737646 0.0021721104 0.026020043
0.0025558618 -0.06281082 0.009229385 0.074086525 -0.07866203 -0.012213708 0.049943388 0.056862317
-0.05954845 -0.04680877 -0.085187726 -0.017574355 -0.021601276 -0.09004528 0.05930133 0.12475471
0.0848688 -0.0034969174 -0.056447845 -0.036299188 0.097546615 -0.004001701 -0.070373766 -0.033877235
0.05792616 0.035841968 -0.00971647 -0.0066368086 -0.010496585 -0.18324193 -0.07957977 -0.047045212
-0.15165704 0.00085578585 -0.009655411 -0.038796663 0.026444297 0.054740466 0.0019226426 -0.10686008
-0.008244495 0.05239672 0.089914404 0.046447914 -0.035362557 -0.038423914 0.0197073 -0.1359274
-0.057245065 0.017989129 0.097436264 -0.026824554 0.06660868 0.050704237 0.03162007 -0.037367307
0.023678856 -0.019672766 -0.049833894 0.07784394 0.04070286 -0.064440615 -0.016623607 0.05903721
-0.00829544 0.05318645 0.0026049402 0.044390976 0.017640432 -0.015835136 -0.04727522 0.011474595
0.0092022 -0.100903146 -0.06932845 0.004432399 -0.01146889 -0.0024458116 -0.06295184 0.07923587
-0.01845884 0.05275611 -0.07795903 -0.010227117 0.026670748 0.076779865 0.0141686825 -0.009683707
0.05378755 -0.028719142 -0.040326398 0.04084714 0.06813571 -0.07996025 0.031568587 0.058936004
-0.031284217 -0.06999351 -0.10077086 -0.06990254 -0.008578584 -0.018753707 -0.13356589 -0.08082621
-0.060504552 -0.053800948 -0.09202595 -0.03749035 -0.06725391 0.009271177 -0.06966239 0.005977008
0.0024033913 0.034573037 -0.08402585 0.00036109597 0.049236994 0.10795123 0.0014957763 -0.028711753
0.077220574 0.04111603 -0.022028456 -0.016082961 -0.12607941 -0.07845992 -0.14904493 0.019573383
-0.0738564 -0.027863674 -0.045408804 -0.07610254 -0.054492123 0.09006949 -0.009048433 -0.14702113
0.05780236 -0.06753944 -0.046764858 0.045288578 0.013026065 0.020548092 0.022163032 0.047411382
0.09058853 0.019296633 0.006855631 0.003514391 0.022389531 -0.011777652 -0.04822402 -0.011390519
-0.036116462 -0.056832086 -0.03608958 -0.008952497 -0.0077243736 0.025341582 -0.037522186 -0.043474816
0.06953277 0.018463844 -0.05580281 0.03667081 -0.006126328 -0.035553686 0.06303424 0.0041656946
0.0015070077 -0.07830085 -0.044192668 0.023700561 -0.03238023 0.11278328 0.11001149 0.028356295
0.065176725 0.13862434 0.0029125537 0.0008504034 0.026814956 0.02261303 0.038681835 0.022992156
-0.07334139 0.004594016 -0.029887717 -0.04212476 0.030410461 -0.040282823 0.09621291 0.0020821847
-0.025055964 0.037129868 -0.0016127273 0.014906074 0.037591424 0.08849783 0.06027958 -0.051352978
00000000: e74b ac3d 26e3 4b3d ce93 0b3b c991 b53d
00000010: 90b8 cf3d 57e8 753d 6db3 ecbc 4bb3 a23c
00000020: 6a3b 8dbc 9a21 f2bd 0d4d c5bd 100a 18bd
00000030: 4395 0cbd 2fad 6ebd fcf6 473c a177 cfbb
00000040: 016f cd3c 33ce b0bc 8c57 d13c 8ae0 8e3d
00000050: 1ec5 aabc 6cc7 03bd d56c 3f3d 6048 23bd
00000060: 5e26 de3c 259f cfbc 56f9 1a3d e991 813d
00000070: aa35 a2bc f1fa 0fbd b259 89bd 1eaf c0bc
00000080: b19c 753c ad13 f43c 794d 8ebc 3a7f dcbc
00000090: e96c c5bc 68ef 73bc d58c 373d bb23 73bd
000000a0: 5950 86bd bf16 b13c 9e40 57bc 5812 4fbd
000000b0: 3b9f 68bd 8a9d 163c d9dc 08bd 8b2b 353d
000000c0: 8950 8abd cc78 8cbc e0bf aebd af70 fcbd
000000d0: 4c7a 483c 84cd fbbc f759 0e3b fc27 d53c
000000e0: 3f80 273b f6a2 80bd d936 173c adba 973d
000000f0: 8f19 a1bd 011c 48bc 7091 4c3d 76e8 683d
00000100: 13e9 73bd 8eba 3fbd e776 aebd 18f8 8fbc
00000110: 29f5 b0bc a969 b8bd f4e5 723d 667f ff3d
00000120: b2cf ad3d 8a2c 65bb db35 67bd 75ae 14bd
00000130: 85c6 c73d b320 83bb 1f20 90bd dbc2 0abd
00000140: fb43 6d3d 07cf 123d d431 1fbc 9679 d9bb
00000150: def9 2bbc c6a3 3bbe b8fa a2bd 7bb2 40bd
00000160: fc4b 1bbe d156 603a bb31 1ebc 40e9 1ebd
00000170: b6a1 d83c 8a37 603d 2e01 fc3a 75d9 dabd
00000180: eb13 07bc f19d 563d 0b25 b83d 2b40 3e3d
00000190: 54d8 10bd 6562 1dbd 3471 a13c 8d30 0bbe
000001a0: cd79 6abd f05d 933c aa8c c73d 2bbf dbbc
000001b0: 226a 883d 3faf 4f3d 0c84 013d 760e 19bd
000001c0: 29fa c13c c828 a1bc a01e 4cbd a56c 9f3d
000001d0: 0bb8 263d 71f9 83bd 3b2e 88bc 00d1 713d
000001e0: 99e9 07bc 09da 593d a5b7 2a3b 50d3 353d
000001f0: ab82 903c b0b8 81bc a9a3 41bd f1ff 3b3c
00000200: d3c4 163c 4fa6 cebd 13fc 8dbd a83d 913b
00000210: 03e8 3bbc e949 20bb e5ec 80bd 6a46 a23d
00000220: fe36 97bc ca16 583d fca8 9fbd a38f 27bc
00000230: 9d7c da3c c33e 9d3d c323 683c 69a8 1ebc
00000240: 5650 5c3d 6844 ebbc 4b2d 25bd 554f 273d
00000250: bc8a 8b3d 33c2 a3bd 104e 013d e166 713d
00000260: e123 00bd c258 8fbd f460 cebd 1029 8fbd
00000270: 308d 0cbc 60a1 99bc 7fc5 08be 3688 a5bd
00000280: 9fd3 77bd 625e 5cbd 1a78 bcbd 7b8f 19bd
00000290: 6bbc 89bd 23e6 173c 28ab 8ebd c7da c33b
000002a0: 3782 1d3b 759c 0d3d bf15 acbd 7b51 bd39
000002b0: bbac 493d 8915 dd3d ed0d c43a e934 ebbc
000002c0: d225 9e3d 4869 283d 0575 b4bc 6ac0 83bc
000002d0: f61a 01be 98af a0bd 3c9f 18be 5c58 a03c
000002e0: 0642 97bd 5c42 e4bc 95fe 39bd a6db 9bbd
000002f0: 2233 5fbd 5a76 b83d e13f 14bc b58c 16be
00000300: 2bc2 6c3d 1e52 8abd 828c 3fbd 8480 393d
00000310: 476b 553c 7954 a83c 3f8f b53c 7032 423d
00000320: 7b86 b93d f913 9e3c 33a5 e03b b251 663b
00000330: 406a b73c 0ef7 40bc 8d86 45bd 4d9f 3abc
00000340: dbee 13bd c3c8 68bd abd2 13bd 7ead 12bc
00000350: be1c fdbb 2699 cf3c ddb0 19bd a612 32bd
00000360: 3267 8e3d 7d41 973c 7d91 64bd 2234 163d
00000370: 5dbf c8bb bea0 11bd 1818 813d 6180 883b
00000380: ca86 c53a 325c a0bd 5f03 35bd ae27 c23c
00000390: 22a1 04bd ecfa e63d b44d e13d 764b e83c
000003a0: 607b 853d 8af3 0d3e 8be0 3e3b 9bed 5e3a
000003b0: 0aab db3c f63e b93c d870 1e3d 0c5a bc3c
000003c0: 0334 96bd 6689 963b 16d7 f4bc 038b 2cbd
000003d0: 5c1f f93c 9aff 24bd 460b c53d 4375 083b
000003e0: 2a42 cdbc 7d15 183d 2662 d3ba 9b38 743c
000003f0: 77f9 193d 5a3e b53d b9e7 763d 8057 52bd

fc1.bias f4 [50]
0.034512173 -0.005702067 0.05046924 0.0692537 -0.006840134 0.070518106 0.024285167 0.06142432
0.050718766 -0.021961706 0.019220527 0.015455365 0.115693286 0.11545966 0.07062597 0.07506856
0.04675798 0.045248687 -0.04710927 0.07379021 0.08469039 0.049485452 0.020202918 -0.0011541395
0.013410305 0.0032912204 -0.0027968423 0.046121664 0.015395527 0.033987302 0.027023088 0.040746007
0.024054162 0.034292124 0.021060254 0.0010184206 0.07996563 0.037155163 0.018546008 0.03525085
0.032905508 0.037983112 -0.00837116 -0.020778766 0.07023031 0.027675223 0.06505845 0.030234918
0.0027646208 0.062623076
00000000: a35c 0d3d 68d8 babb d5b8 4e3d e2d4 8d3d
00000010: 3423 e0bb cc6b 903d b0f1 c63c 1198 7b3d
00000020: 7bbe 4f3d 09e9 b3bc 5e74 9d3c 8038 7d3c
00000030: 9af0 ec3d 1d76 ec3d 59a4 903d 8cbd 993d
00000040: 4c85 3f3d b056 393d a6f5 40bd 521f 973d
00000050: 2872 ad3d 42b1 4a3d 9780 a53c 7f46 97ba
00000060: e5b6 5b3c 84b1 573b 3a4b 37bb 12ea 3c3d
00000070: 853d 7c3c 4536 0b3d 865f dd3c 49e5 263d
00000080: 3c0d c53c e675 0c3d 8e86 ac3c 867c 853a
00000090: 05c5 a33d 0330 183d cced 973c 3263 103d
000000a0: edc7 063d 2e94 1b3d 3127 09bc 3b38 aabc
000000b0: e9d4 8f3d 26b7 e23c 5d3d 853d 38af f73c
000000c0: a42e 353b 8740 803d

fc2.weight f4 [10, 50]
0.19133699 -0.2506674 0.1072216 -0.24203858 -0.1790945 -0.23790686 0.09013238 -0.15067594
-0.07406137 -0.050431263 -0.17326596 0.09033741 -0.085418366 -0.11502462 -0.006762828 -0.21073535
-0.2248409 -0.22574882 0.15465698 -0.091041535 0.11750682 -0.0020210668 -0.16744748 0.108159564
-0.20745179 0.11306975 -0.16290359 -0.06611061 -0.1509609 0.120986015 -0.1705712 0.11303236
0.13973913 -0.005753203 -0.081191696 0.036669217 0.11382491 0.124220245 0.08897297 0.1455958
0.08620759 0.11479997 -0.08596612 0.17020203 -0.12189222 0.064390115 0.1313417 -0.113253884
-0.09159095 0.07689587 -0.040886633 -0.03336047 -0.20075817 0.15158059 0.10842225 0.092885934
0.14607167 0.17136678 -0.20668028 -0.09819897 -0.051715534 -0.11282009 0.10226845 0.10314717
-0.16411434 0.15331955 -0.0940181 0.128004 0.088595666 0.08514696 -0.14151919 -0.22423793
-0.17409873 0.14593989 0.09340794 -0.1959913 -0.12670444 -0.1276742 0.10220434 -0.018491326
0.058773756 0.097801775 0.10934114 0.06630859 0.059043355 -0.06861143 -0.20674004 -0.04012229
-0.24236909 -0.19996381 -0.17369018 -0.061772425 -0.17634726 -0.07559605 0.091220185 -0.23689818
0.14943536 -0.2624398 0.12382098 -0.23526722 0.007606977 -0.085042454 -0.20604359 0.13142782
-0.09306553 -0.3430489 0.12865727 -0.109097086 -0.16141516 0.13252904 -0.023950322 0.057041757
-0.082724325 -0.13856715 -0.22587985 0.050744053 -0.088649824 -0.20359784 0.1503772 0.11983611
-0.14507306 0.04549929 0.04028065 0.0666895 0.10560376 0.11124274 0.11019512 -0.1580822
0.09180247 0.114697754 0.08346722 0.12901135 0.099922635 0.0678136 -0.2540691 0.0018021778
-0.15319031 0.099847384 0.07135798 -0.032220863 -0.029602136 0.03257915 0.11876475 0.13490456
0.05065722 0.0774097 -0.14868972 -0.086714685 -0.12110781 -0.06005487 -0.098928176 -0.029511765
-0.1685969 -0.0757968 -0.083053425 -0.05086393 -0.14075015 -0.19704014 0.07840962 0.14827614
0.10837077 0.10638313 0.096998714 -0.22500898 -0.163131 0.15367638 0.056063525 0.10586319
0.033583723 0.09695839 -0.13196911 0.1455511 -0.15522327 -0.1764081 -0.041514114 -0.12519535
-0.08446328 0.120080486 0.122742146 0.13260102 0.08626842 -0.011525236 -0.13082324 0.060501527
-0.030434206 -0.07826692 0.088766046 0.13180555 -0.039071247 0.010178241 0.017296435 -0.05011135
-0.024721205 -0.008536187 0.09778881 -0.05609448 -0.14388664 -0.19650765 -0.08693882 0.067074075
0.037505474 0.09481114 -0.15848233 0.062425457 0.12927778 -0.0032776648 0.13078977 0.14805584
0.019894747 0.130316 0.09549934 -0.26276958 -0.022974866 0.05315349 0.07255093 0.122135766
0.115302056 -0.029266017 0.06297331 -0.1940707 0.056786384 -0.09583844 0.13149233 0.15240414
-0.054515366 0.06816027 0.1271659 0.116047636 -0.06055624 -0.12759213 -0.15632918 -0.08673014
0.042631414 -0.15957713 0.11610551 -0.15959492 0.063732 -0.1392651 0.1112777 0.082638055
-0.10682497 -0.21587141 -0.23851012 -0.07518895 -0.16137476 0.07731801 -0.13942777 0.14188251
0.18248741 -0.29702696 -0.09471785 0.08379801 0.12628736 0.04587075 0.12821221 0.010589966
00000000: d8ed 433e 7a57 80be 0097 db3d f6d8 77be
00000010: 8c64 37be db9d 73be 5397 b83d cb4a 1abe
00000020: 7dad 97bd 0391 4ebd a26c 31be d202 b93d
00000030: d3ef aebd 0792 ebbd b79a ddbb 02cb 57be
00000040: b13c 66be b32a 67be 665e 1e3e fc73 babd
00000050: 6aa7 f03d e073 04bb 5a77 2bbe c382 dd3d
00000060: 3e6e 54be 1d91 e73d 33d0 26be 0065 87bd
00000070: 7f95 1abe 84c7 f73d 37aa 2ebe 837d e73d
00000080: c617 0f3e 5d85 bcbb d547 a6bd 7632 163d
00000090: 091d e93d 2f67 fe3d 7637 b63d 1117 153e
000000a0: 9b8d b03d 3f1c eb3d 010f b0bd 7149 2e3e
000000b0: a1a2 f9bd f7de 833d 707e 063e a7f1 e7bd
000000c0: 0994 bbbd 957b 9d3d be78 27bd fda4 08bd
000000d0: 8d93 4dbe f137 1b3e 7c0c de3d fb3a be3d
000000e0: d093 153e c67a 2f3e ffa3 53be 8b1c c9bd
000000f0: abd3 53bd 380e e7bd 1f72 d13d d33e d33d
00000100: 970d 28be cdff 1c3e 908c c0bd 7b13 033e
00000110: a571 b53d 8861 ae3d 68ea 10be a19e 65be
00000120: f046 32be 4471 153e a94c bf3d f1b1 48be
00000130: cfbe 01be 07bd 02be 8250 d13d 1f7b 97bc
00000140: c0bc 703d 4c4c c83d 3fee df3d cccc 873d
00000150: 72d7 713d 2684 8cbd a9b3 53be 4557 24bd
00000160: 9a2f 78be 50c3 4cbe d7db 31be 1505 7dbd
00000170: 6094 34be 1ad2 9abd a6d1 ba3d 7095 72be
00000180: 9505 193e 825e 86be db95 fd3d e4e9 70be
00000190: f343 f93b bd2a aebd 17fd 52be 0495 063e
000001a0: 2499 bebd 1ba4 afbe bbbe 033e 4b6e dfbd
000001b0: 044a 25be b1b5 073e 7733 c4bc 9ea4 693d
000001c0: 5f6b a9bd 8ce4 0dbe 0c4d 67be ffd8 4f3d
000001d0: 0a8e b5bd f47b 50be 7bfc 193e a26c f53d
000001e0: 088e 14be 775d 3a3d 53fd 243d 8194 883d
000001f0: c946 d83d 3cd3 e33d fbad e13d 4de0 21be
00000200: ef02 bc3d a8e6 ea3d ddf0 aa3d 8d1b 043e
00000210: 3da4 cc3d dbe1 8a3d 5815 82be 0d37 ec3a
00000220: ecdd 1cbe c97c cc3d 2224 923d 06fa 03bd
00000230: 2e80 f2bc b771 053d ef3a f33d 6c24 0a3e
00000240: f27d 4f3d fa88 9e3d 1e42 18be 7897 b1bd
00000250: 5f07 f8bd 18fc 75bd db9a cabd a8c2 f1bc
00000260: aaa4 2cbe 5a3b 9bbd ea17 aabd b256 50bd
00000270: cf20 10be e4c4 49be 3995 a03d b3d5 173e
00000280: 7ff1 dd3d 66df d93d 43a7 c63d c168 66be
00000290: d00b 27be 575d 1d3e dea2 653d cdce d83d
000002a0: 168f 093d 1f92 c63d e922 07be 590b 153e
000002b0: d9f2 1ebe 53a4 34be b40a 2abd 3633 00be
000002c0: 16fb acbd c2ec f53d 3c60 fb3d 90c8 073e
000002d0: 7fad b03d 58d4 3cbc 87f6 05be 73d0 773d
000002e0: 2851 f9bc 684a a0bd f9ca b53d 09f8 063e
000002f0: 2c09 20bd a3c2 263c 41b1 8d3c 8f41 4dbd
00000300: 2084 cabc 5ddb 0bbc 8045 c83d 53c3 65bd
00000310: 0557 13be 4d39 49be fb0c b2bd 225e 893d
00000320: 579f 193d 582c c23d 3149 22be d6b1 7f3d
00000330: 6561 043e 17ce 56bb c1ed 053e f39b 173e
00000340: 4ffa a23c 8f71 053e 2895 c33d bc89 86be
00000350: c935 bcbc 79b7 593d 9595 943d 5122 fa3d
00000360: 7c23 ec3d 49bf efbc 27f8 803d 78ba 46be
00000370: d798 683d f246 c4bd eda5 063e d50f 1c3e
00000380: 814b 5fbd 9d97 8b3d c737 023e 62aa ed3d
00000390: d209 78bd 83a7 02be c214 20be 929f b1bd
000003a0: 479e 2e3d 3068 23be bac8 ed3d da6c 23be
000003b0: ec85 823d 839b 0ebe 90e5 e33d 243e a93d
000003c0: 0dc7 dabd 650d 5dbe ff3b 74be aafc 99bd
000003d0: 6d3f 25be e858 9e3d 27c6 0ebe a649 113e
000003e0: fbdd 3a3e eb13 98be 6ffb c1bd 4b9e ab3d
000003f0: 7951 013e f8e2 3b3d 104a 033e 8981 2d3c

fc2.bias f4 [10]
-0.20281924 0.14536004 0.07330868 0.041018315 -0.21752645 0.097572505 -0.027389001 -0.05599063
0.119080946 -0.1792065
00000000: d9af 4fbe 43d9 143e dc22 963d d202 283d
00000010: 41bf 5ebe 18d4 c73d e65e e0bc 6e56 65bd
00000020: b6e0 f33d e981 37be

exp_avg f4 [10, 1, 5, 5]
-0.012795553 -0.0056990846 -0.0009470847 0.001393687 0.0039672265 -0.014601884 -0.007301367 -5.3169438e-06
0.0022837997 0.0048112283 -0.013956015 -0.008529159 -0.0038136693 -0.002764983 0.0017013918 -0.012098325
-0.013154645 -0.010905359 -0.008246934 -0.0017876598 -0.0067270505 -0.012159619 -0.011375713 -0.0054212483
0.0013815403 2.0837977e-05 0.0015044017 0.0016489377 0.0008136649 0.0006366007 0.0014738787 0.0029499505
0.0026875525 0.0017417567 0.000681677 0.0005247475 0.00023183707 0.0021527275 0.0018459358 0.0026403598
-6.810244e-05 0.0012667951 0.005236844 0.005631499 0.004129931 0.0018851577 0.0055793338 0.007457686
0.0060300147 0.0039900457 -0.0013512401 -0.0015785304 -0.0026457482 -0.0026461312 -0.0012537198 -0.0051836045
-0.0054204618 -0.0068010953 -0.005539253 -0.004543394 -0.0044456627 -0.004357522 -0.006570476 -0.0063727107
-0.005528928 -0.0018276853 -0.00300282 -0.0050683077 -0.0037481284 -0.0036754387 0.0012234221 0.0016411273
0.0003294092 -1.6702856e-05 -0.0007219171 -0.0010720934 -0.00078466214 0.00036559996 -0.0011853782 -0.004590105
-0.0027340718 -0.0025555207 -0.0014407953 -0.0048574815 -0.0071627945 -0.0027475457 -0.0021043583 -0.001809561
-0.004598269 -0.00632748 -1.3696003e-05 -0.00050279795 0.0013781878 9.0488276e-05 -0.0017908626 0.0013114072
0.00092769286 0.0035345098 0.001780128 7.275493e-06 -0.0021590171 0.001749612 0.0010143754 0.0021983287
0.00048666462 -0.0030144714 -0.00022057255 -1.9350011e-05 0.0008328438 -0.0005358371 -0.0020727157 -0.000163482
-0.000956913 -0.00014196166 -0.0001021275 0.0020300085 0.0019511152 0.0023301183 0.004078892 0.0034201476
0.0045984536 0.005423067 0.00575513 0.008064597 0.0055876435 0.0023916436 0.000112324415 0.0016010507
0.0041198013 0.0038505837 0.005172727 0.006517224 0.006589492 0.0062100855 0.005223219 0.0053740377
0.007913679 0.0044897646 0.0027197092 0.001899407 0.0052401773 0.00681446 0.0056284564 0.002260333
0.00086353516 0.0017759827 0.005273121 0.0031339522 0.0027423645 0.0016490429 -0.002406425 -0.0006244995
-0.00045131717 0.0011468781 0.00073988654 -0.0008729392 0.00032001646 0.0007185421 0.002759582 0.0033120853
-0.0005682516 0.0009943789 0.002053338 0.0029217005 0.0033082375 -0.0015411421 0.00064658414 0.003697166
0.0032037455 0.00289047 -0.0010531169 0.0015157611 0.003481572 0.0019492437 0.0012592053 0.0014390788
0.0030654098 0.005897403 0.0027838245 -0.0038861935 -9.177659e-05 0.0022125077 0.0029014437 0.002099161
-0.003564106 0.0004091067 0.00037108173 0.0027797841 0.0021392987 -0.0024607254 0.0020646907 0.0032288067
0.005696856 0.006045014 0.00077741174 0.0064752027 0.009170919 0.009133392 0.0056198468 0.0025267238
-0.003787395 -0.0015009908 0.00058530155 0.0015287024 0.0030095268 -0.0010832525 0.0017881546 0.00258298
0.002509528 0.0037302626 0.0008529331 0.0033716129 0.0025417483 0.0013448489 0.0012554959 0.0022913038
0.0022774008 0.0011459682 -5.8244557e-05 0.0030821501 0.0041874386 0.0010952243 -0.0012827077 0.001794781
0.00591751 0.0011420707 -2.0671634e-05 0.0021224725 0.0037267678 0.004382384 -0.00030673947 -0.00068801787
0.0014829165 0.0019231332 0.0030315698 -0.00011136135 -0.0005762834 0.0020372109 0.0038060702 0.004533083
0.00014331378 0.00065984944 0.0041315486 0.004874858 0.005884429 0.0008858704 0.0023842715 0.0048881117
0.0048835305 0.0047691236
00000000: 70a4 51bc 63bf babb c745 78ba 60ac b63a
00000010: 82ff 813b be3c 6fbc 4e40 efbb 3368 b2b6
00000020: cdab 153b 82a7 9d3b c5a7 64bc e3bd 0bbc
00000030: c1ee 79bb b834 35bb 3c01 df3a 0e38 46bc
00000040: 9586 57bc 64ac 32bc 261e 07bc e94f eaba
00000050: 976e dcbb 2339 47bc 3361 3abc baa4 b1bb
00000060: cd14 b53a 37cd ae37 582f c53a 2b21 d83a
00000070: 214c 553a 8de1 263a 2a2f c13a f553 413b
00000080: a621 303b a84b e43a 92b2 323a 358f 093a
00000090: 4a19 7339 c614 0d3b 54f3 f13a e309 2d3b
000000a0: 38d2 8eb8 970a a63a d599 ab3b 7088 b83b
000000b0: 5f54 873b 6517 f73a d8d2 b63b 9b5f f43b
000000c0: 6e97 c53b eebe 823b 181c b1ba b1e6 ceba
000000d0: 4a64 2dbb b76a 2dbb db53 a4ba 3adb a9bb
000000e0: 219e b1bb b9db debb 9f82 b5bb c0e0 94bb
000000f0: ecac 91bb 8bc9 8ebb 264d d7bb 2cd2 d0bb
00000100: 022c b5bb f18e efba f6ca 44bb 0c14 a6bb
00000110: 29a3 75bb a1df 70bb 3c5b a03a 181b d73a
00000120: 8eb4 ac39 1c1d 8cb7 093f 3dba 7c85 8cba
00000130: c9b1 4dba ffad bf39 b15e 9bba 9768 96bb
00000140: 1d2e 33bb 867a 27bb 11d9 bcba 822b 9fbb
00000150: e0b5 eabb 2b10 34bb 46e9 09bb cb2e edba
00000160: 13ad 96bb c056 cfbb e3c7 65b7 33ce 03ba
00000170: 4fa4 b43a 86c4 bd38 61bb eaba 86e3 ab3a
00000180: 6a30 733a 3ca3 673b 2f53 e93a 0220 f436
00000190: 4c7e 0dbb 3d53 e53a caf4 843a d611 103b
000001a0: 0527 ff39 708e 45bb 7e49 67b9 d551 a2b7
000001b0: 3453 5a3a 6b77 0cba 66d6 07bb 5d6c 2bb9
000001c0: 58d9 7aba 8bdb 14b9 492d d6b8 e409 053b
000001d0: 90bc ff3a e6b4 183b 3aa8 853b 8e24 603b
000001e0: a0ae 963b fcb3 b13b 8895 bc3b 5f21 043c
000001f0: 8d18 b73b 1fbd 1c3b b68f eb38 59da d13a
00000200: 66ff 863b 135a 7c3b fb7f a93b 708e d53b
00000210: aaec d73b f97d cb3b 8927 ab3b b218 b03b
00000220: 60a8 013c e01e 933b 263d 323b 86f5 f83a
00000230: cbb5 ab3b d54b df3b ea6e b83b 1822 143b
00000240: dd5e 623a 17c8 e83a 25ca ac3b fe62 4d3b
00000250: 3eb9 333b b324 d83a 1db5 1dbb 74b5 23ba
00000260: c49e ecb9 d852 963a f2f4 413a f5d5 64ba
00000270: e2c7 a739 8b5c 3c3a 1ada 343b 920f 593b
00000280: b8f6 14ba d255 823a 4c91 063b 007a 3f3b
00000290: 04cf 583b 2600 caba 877f 293a 274c 723b
000002a0: eef5 513b 0a6e 3d3b bd08 8aba 81ac c63a
000002b0: 162b 643b c47d ff3a eb0b a53a 799f bc3a
000002c0: 0be5 483b 013f c13b d370 363b 82af 7ebb
000002d0: 2e78 c0b8 b8ff 103b 2626 3e3b 1492 093b
000002e0: c793 69bb 5f7d d639 bf8d c239 0a2d 363b
000002f0: 7a33 0c3b 1f44 21bb c34f 073b 639a 533b
00000300: b1ac ba3b 4115 c63b 38cb 4b3a f02d d43b
00000310: 9f41 163c 39a4 153c b126 b83b 6497 253b
00000320: f235 78bb e5bc c4ba ec6e 193a be5e c83a
00000330: 7b3b 453b ecfb 8dba 8360 ea3a 3747 293b
00000340: e576 243b 6c77 743b 5f97 5f3a 47f6 5c3b
00000350: 7693 263b a445 b03a 748f a43a b329 163b
00000360: 7240 153b 5034 963a 9e4b 74b8 e6fd 493b
00000370: c836 893b a18d 8f3a 8720 a8ba db3e eb3a
00000380: ace7 c13b 89b1 953a ff67 adb7 2e19 0b3b
00000390: ca3c 743b 1a9a 8f3b e0d1 a0b9 195c 34ba
000003a0: 6c5e c23a a411 fc3a 4dad 463b ab8a e9b8
000003b0: b911 17ba ba82 053b 436f 793b 428a 943b
000003c0: 8046 1639 bff9 2c3a f161 873b 46bd 9f3b
000003d0: 2bd2 c03b c239 683a 7041 1c3b 742c a03b
000003e0: 0606 a03b 4f46 9c3b

exp_avg_sq f4 [10, 1, 5, 5]
0.00031806884 0.00021685708 0.0001293271 0.00016121543 0.00027096688 0.0003328422 0.00020205045 0.00013930208
0.00020374061 0.00040228316 0.0004326612 0.00035655635 0.0003126413 0.00044657197 0.00066748774 0.0005926751
0.0006574456 0.00080067734 0.0009556296 0.0009619803 0.00073308917 0.0008711779 0.0010646795 0.0011874471
0.0009718063 0.00016036796 0.0001670339 0.00016488896 0.00015037453 0.0001220713 0.00016970056 0.00015256656
0.00013514227 0.00013321656 0.00012572296 0.0001273719 9.9427074e-05 0.00010745899 0.000117508505 0.00011978227
9.627009e-05 9.117249e-05 0.000110231915 0.00013610542 0.0001265072 0.00010601805 0.000114189555 0.00013863332
0.0001579286 0.00014164162 0.00020582204 0.0002680604 0.0002575039 0.00020006158 0.00014329317 0.0002475405
0.0002935596 0.0002319612 0.00013228696 9.6191805e-05 0.00029265266 0.00027603703 0.00013285429 6.507085e-05
6.377609e-05 0.0002887643 0.00022540582 8.498538e-05 4.7240217e-05 6.341259e-05 0.0002750473 0.00018299908
8.915864e-05 6.816644e-05 9.6673764e-05 0.00015121058 0.00016810278 0.00017524335 0.00022835257 0.00026375454
0.00012863406 0.00014902664 0.00018800574 0.000251203 0.00023685122 0.00010069148 0.00012607328 0.00019565164
0.00022442966 0.00018738103 0.000116544405 0.0001571867 0.00018665759 0.00016812985 0.00013207408 0.00015156978
0.00018411754 0.00019333982 0.00015998095 0.00012964797 0.00015391485 0.000102998754 0.00010151658 0.00011124324
0.00012607592 0.000113902 0.00010707623 0.0001244053 0.0001272351 0.00013042419 0.000113881295 0.00010220843
0.00010939323 0.00011128763 0.000120906225 0.00010475756 0.00010228279 0.000113969625 0.00012423079 0.00013777154
0.00011975476 0.00013911794 0.00014476402 0.00013567688 0.00014327855 0.0004465695 0.00049504923 0.0004871809
0.0004924701 0.00052614516 0.00044883258 0.00045551686 0.00042398952 0.00042533054 0.00045097034 0.00031255043
0.00025883716 0.0002708764 0.00034365934 0.0003672443 0.00017916312 0.00014439125 0.00018240155 0.0002572424
0.00029039345 0.00012944326 0.0001281988 0.00017981639 0.00019242393 0.00021525926 6.90465e-05 6.7553e-05
8.076273e-05 9.773096e-05 0.00011526922 0.000100196434 9.877298e-05 0.0001021134 0.000103316095 0.000119702156
0.00013611249 0.00013760051 0.00012071621 0.00012035774 0.00012432657 0.00014709789 0.00014372569 0.00013324803
0.00013394667 0.00012540622 0.00012372003 0.00012106465 0.00012337326 0.00012223088 9.787099e-05 5.4925462e-05
6.984869e-05 0.00019951859 0.0003916679 0.00041006666 4.4602795e-05 6.421201e-05 0.00024416423 0.00044480702
0.00039135036 4.003915e-05 7.291965e-05 0.0003183921 0.0005201238 0.00037080326 5.001891e-05 0.00012091984
0.00040263616 0.0005209118 0.00035745482 0.000100996316 0.00025980483 0.00044559943 0.00047296102 0.0003489389
9.161381e-05 6.0458766e-05 4.1109703e-05 4.1912004e-05 9.2550705e-05 4.481047e-05 2.810886e-05 2.5867184e-05
3.75336e-05 0.00010651228 2.8004033e-05 2.4725243e-05 2.8464985e-05 5.46789e-05 0.00017025351 2.3896497e-05
2.9241302e-05 4.915896e-05 0.0001429936 0.00027817304 3.8897808e-05 5.237938e-05 0.0001334786 0.0002663181
0.00033132778 4.1133913e-05 2.3958844e-05 3.3285396e-05 8.6030464e-05 0.00016344541 2.9892251e-05 1.922844e-05
3.6716097e-05 0.0001037598 0.00021072953 4.9270533e-05 5.2794476e-05 8.344667e-05 0.00015991143 0.00028139458
9.012816e-05 0.000109282744 0.0001593069 0.00027201063 0.00033086666 0.00013289622 0.00016102898 0.00023981524
0.0003413761 0.00031407748
00000000: 7ac2 a639 2164 6339 fb9b 0739 f00b 2939
00000010: 8f10 8e39 5381 ae39 81dd 5339 9e11 1239
00000020: 34a3 5539 88e9 d239 ced6 e239 2ff0 ba39
00000030: 01ea a339 e021 ea39 58fa 2e3a c15d 1b3a
00000040: 6d58 2c3a 8ce4 513a 3883 7a3a 682d 7c3a
00000050: c82c 403a c25f 643a b78c 8b3a 1da4 9b3a
00000060: d1c0 7e3a 7228 2839 d225 2f39 0be6 2c39
00000070: dbad 1d39 4400 0039 a6f1 3139 46fa 1f39
00000080: fab4 0d39 0cb0 0b39 80d4 0339 228f 0539
00000090: 8183 d038 9b5b e138 e66e f638 9e33 fb38
000000a0: 9ce4 c938 dc33 bf38 4f2c e738 85b7 0e39
000000b0: 05a7 0439 0256 de38 0d79 ef38 195e 1139
000000c0: a399 2539 a285 1439 efd1 5739 758a 8c39
000000d0: 9701 8739 9fc7 5139 f840 1639 53c8 8139
000000e0: e7e8 9939 9c3a 7339 83b6 0a39 95ba c938
000000f0: 2d6f 9939 10b9 9039 cd4e 0b39 a676 8838
00000100: 87bf 8538 4a65 9739 ea5a 6c39 2e3a b238
00000110: cc23 4638 60fc 8438 3934 9039 71e3 3f39
00000120: aefa ba38 94f4 8e38 55bd ca38 488e 1e39
00000130: bf44 3039 87c1 3739 ed71 6f39 8948 8a39
00000140: f1e1 0639 0944 1c39 6823 4539 e5b3 8339
00000150: 445b 7839 542a d338 8a32 0439 d627 4d39
00000160: e154 6b39 b67b 4439 4d69 f438 7cd2 2439
00000170: 84b9 4339 034c 3039 5e7d 0a39 b4ee 1e39
00000180: ad0f 4139 43bb 4a39 8fc0 2739 1df2 0739
00000190: 3464 2139 0901 d838 4de5 d438 424b e938
000001a0: 3f33 0439 acde ee38 1d8e e038 cb72 0239
000001b0: 696a 0539 7ac2 0839 8ed3 ee38 bc58 d638
000001c0: 0b6a e538 1763 e938 098f fd38 49b1 db38
000001d0: a880 d638 fa02 ef38 f343 0239 c476 1039
000001e0: d924 fb38 30e0 1139 cccb 1739 7c44 0e39
000001f0: 0b3d 1639 8b21 ea39 31c6 013a 506c ff39
00000200: 1c19 013a 01ed 093a 4a51 eb39 70d2 ee39
00000210: e94a de39 e6fe de39 3770 ec39 cfdd a339
00000220: 89b4 8739 6a04 8e39 2d2d b439 b28a c039
00000230: bcdd 3b39 bb67 1739 0b43 3f39 7ede 8639
00000240: f33f 9839 29bb 0739 1a6d 0639 188d 3c39
00000250: 68c5 4939 38b7 6139 0fcd 9038 3eab 8d38
00000260: 295f a938 e9f4 cc38 b1bc f138 8d20 d238
00000270: 5724 cf38 b725 d638 68ab d838 9b08 fb38
00000280: 6bb9 0e39 db48 1039 0629 fd38 9268 fc38
00000290: a95d 0239 4a3e 1a39 12b5 1639 7fb8 0b39
000002a0: 0974 0c39 7a7f 0339 d8ba 0139 17e4 fd38
000002b0: c25d 0139 1a2b 0039 1640 cd38 c45f 6638
000002c0: bb7b 9238 dd35 5139 c758 cd39 37fe d639
000002d0: e313 3b38 8fa9 8638 2b03 8039 fd34 e939
000002e0: 282e cd39 b6ef 2738 70ec 9838 dded a639
000002f0: eb58 083a 5f68 c239 65cb 5138 5896 fd38
00000300: e918 d339 cd8d 083a c668 bb39 fccd d338
00000310: 6a36 8839 589f e939 c1f7 f739 c9f1 b639
00000320: ca20 c038 1b95 7d38 356d 2c38 acca 2f38
00000330: c817 c238 e0f2 3b38 51cb eb37 5bfd d837
00000340: 656d 1d38 585f df38 34ea ea37 0e69 cf37
00000350: 17c8 ee37 0657 6538 1486 3239 5675 c837
00000360: 384b f537 0830 4e38 8df0 1539 c1d7 9139
00000370: 3426 2338 eeb1 5b38 64f6 0b39 9ca0 8b39
00000380: 10b6 ad39 3487 2c38 3afb c837 ec9b 0b38
00000390: 416b b438 8b62 2b39 1fc1 fa37 c34c a137
000003a0: 9cff 1938 9e99 d938 47f7 5c39 d5a7 4e38
000003b0: a36f 5d38 1700 af38 e6ad 2739 2488 9339
000003c0: 3003 bd38 ba2e e538 9f0b 2739 a69c 8e39
000003d0: 2c78 ad39 0f5a 0b39 e3d9 2839 ea76 7b39
000003e0: b9fa b239 c4aa a439

max_exp_avg_sq f4 [10, 1, 5, 5]
0.00031813633 0.00021739771 0.00013008098 0.00016221107 0.00027173813 0.0003328422 0.00020205045 0.00013965968
0.00020446464 0.00040228316 0.00043271118 0.0003567343 0.00031301958 0.00044657197 0.00066748774 0.00059274805
0.0006574456 0.00080067734 0.0009556296 0.0009619803 0.0007341533 0.0008711779 0.0010646795 0.0011874471
0.0009718063 0.00016036796 0.0001671541 0.00016583438 0.00015119156 0.00012242558 0.00016970056 0.00015256656
0.00013677143 0.00013461565 0.00012572296 0.00012765502 9.9427074e-05 0.000107861044 0.00011804803 0.00011978227
9.627009e-05 9.117249e-05 0.000110497145 0.00013610542 0.0001265072 0.0001063044 0.00011445565 0.0001388281
0.0001579286 0.00014229828 0.00020612263 0.000268572 0.00025790068 0.0002002663 0.00014383922 0.00024785628
0.0002939116 0.00023210996 0.00013228696 9.6191805e-05 0.00029283695 0.00027622745 0.00013309064 6.507085e-05
6.377609e-05 0.00028888267 0.00022552947 8.533176e-05 4.7436024e-05 6.344023e-05 0.00027524645 0.00018299908
8.915864e-05 6.816644e-05 9.6673764e-05 0.0001519716 0.00016910251 0.00017578017 0.00022835257 0.00026375454
0.00012898278 0.00014946976 0.00018800574 0.000251203 0.00023691056 0.00010131215 0.00012667131 0.00019565164
0.00022442966 0.00018753663 0.000117255615 0.00015776043 0.00018735553 0.00016844136 0.00013233292 0.00015225726
0.00018472978 0.0001938794 0.0001608816 0.00012982084 0.00015436848 0.00010319729 0.00010170667 0.000112838454
0.00012722495 0.000114275725 0.000107521875 0.0001244053 0.00012739954 0.00013042419 0.0001140399 0.00010245068
0.00010939323 0.00011128763 0.000120906225 0.000105077765 0.00010243402 0.00011412238 0.00012618717 0.00014045973
0.00011999057 0.00013936128 0.00014513142 0.00013629296 0.00014356621 0.0004465695 0.00049576495 0.0004871809
0.0004924701 0.00052614516 0.00044951084 0.000456999 0.00042443303 0.00042533054 0.00045097034 0.00031465723
0.00025976682 0.00027191304 0.00034365934 0.0003672443 0.00018090733 0.00014553784 0.00018469567 0.00025759917
0.00029039345 0.00013022128 0.00012873075 0.0001817149 0.00019280346 0.00021525926 6.90465e-05 6.7553e-05
8.076273e-05 9.773096e-05 0.00011586689 0.000100262994 9.893725e-05 0.00010221216 0.00010351339 0.0001200527
0.00013634049 0.00013760051 0.00012104154 0.00012083218 0.0001244581 0.0001473296 0.00014372569 0.0001333767
0.0001344441 0.00012546699 0.0001239907 0.00012162963 0.00012401151 0.00012277217 9.839688e-05 5.4925462e-05
6.984869e-05 0.00019951859 0.0003916679 0.00041006666 4.4602795e-05 6.421201e-05 0.00024416423 0.00044480702
0.00039135036 4.003915e-05 7.291965e-05 0.0003183921 0.0005201238 0.00037080326 5.0172253e-05 0.00012091984
0.00040263616 0.0005209118 0.00035745482 0.000100996316 0.00025980483 0.00044559943 0.00047296102 0.0003489389
9.168723e-05 6.060229e-05 4.142231e-05 4.2211293e-05 9.2580274e-05 4.4928045e-05 2.810886e-05 2.5867184e-05
3.75336e-05 0.00010651228 2.8042385e-05 2.4763449e-05 2.8464985e-05 5.46789e-05 0.00017025351 2.3950455e-05
2.933013e-05 4.9264796e-05 0.0001429936 0.00027817304 3.8897808e-05 5.242398e-05 0.00013393187 0.0002663181
0.00033132778 4.151439e-05 2.4117991e-05 3.341805e-05 8.627052e-05 0.0001639538 3.0101204e-05 1.9362034e-05
3.719128e-05 0.00010416545 0.00021146539 4.959136e-05 5.3373147e-05 8.378232e-05 0.00016000021 0.00028187394
9.141297e-05 0.00011074298 0.00016024256 0.00027277935 0.00033159507 0.00013430152 0.00016193226 0.00024021028
0.00034222286 0.0003140976
00000000: 89cb a639 41f5 6339 5966 0839 3417 2a39
00000010: 1378 8e39 5381 ae39 81dd 5339 9c71 1239
00000020: 8f65 5639 88e9 d239 83dd e239 1108 bb39
00000030: c71c a439 e021 ea39 58fa 2e3a a662 1b3a
00000040: 6d58 2c3a 8ce4 513a 3883 7a3a 682d 7c3a
00000050: 3274 403a c25f 643a b78c 8b3a 1da4 9b3a
00000060: d1c0 7e3a 7228 2839 1646 2f39 d4e3 2d39
00000070: 2d89 1e39 5e5f 0039 a6f1 3139 46fa 1f39
00000080: 4d6a 0f39 9d27 0d39 80d4 0339 22db 0539
00000090: 8183 d038 7533 e238 8e90 f738 9e33 fb38
000000a0: 9ce4 c938 dc33 bf38 b4ba e738 85b7 0e39
000000b0: 05a7 0439 bdef de38 e907 f038 6292 1139
000000c0: a399 2539 e735 1539 9f22 5839 20cf 8c39
000000d0: d836 8739 93fe 5139 8cd3 1639 b5f2 8139
000000e0: 2618 9a39 8b62 7339 83b6 0a39 95ba c938
000000f0: e987 9939 9fd2 9039 3f8e 0b39 a676 8838
00000100: 87bf 8538 2d75 9739 1b7c 6c39 24f4 b238
00000110: 0bf6 4638 370b 8538 f44e 9039 71e3 3f39
00000120: aefa ba38 94f4 8e38 55bd ca38 915a 1f39
00000130: 1c51 3139 a151 3839 ed71 6f39 8948 8a39
00000140: 8d3f 0739 fcba 1c39 6823 4539 e5b3 8339
00000150: 326b 7839 8c77 d438 12d3 0439 d627 4d39
00000160: e154 6b39 7ba5 4439 21e7 f538 7e6c 2539
00000170: de74 4439 a29f 3039 d9c2 0a39 3fa7 1f39
00000180: 06b4 4139 1b4c 4b39 53b2 2839 8420 0839
00000190: f9dd 2139 a06b d838 5a4b d538 afa3 ec38
000001a0: b067 0539 50a7 ef38 5e7d e138 cb72 0239
000001b0: 8e96 0539 7ac2 0839 b528 ef38 cada d638
000001c0: 0b6a e538 1763 e938 098f fd38 325d dc38
000001d0: d9d1 d638 fc54 ef38 1c51 0439 5f48 1339
000001e0: 72a3 fb38 8221 1239 6b2e 1839 dde9 0e39
000001f0: 438a 1639 8b21 ea39 39f6 013a 506c ff39
00000200: 1c19 013a 01ed 093a 53ac eb39 5e99 ef39
00000210: 7086 de39 e6fe de39 3770 ec39 94f8 a439
00000220: 5031 8839 8d8f 8e39 2d2d b439 b28a c039
00000230: f1b1 3d39 849b 1839 deaa 4139 600e 8739
00000240: f33f 9839 028c 0839 e6fb 0639 b98a 3e39
00000250: 492b 4a39 38b7 6139 0fcd 9038 3eab 8d38
00000260: 295f a938 e9f4 cc38 90fd f238 4944 d238
00000270: 887c cf38 bc5a d638 5415 d938 cdc4 fb38
00000280: 9ff6 0e39 db48 1039 afd7 fd38 4867 fd38
00000290: f880 0239 7d7c 1a39 12b5 1639 09db 0b39
000002a0: 90f9 0c39 ca8f 0339 8003 0239 6913 ff38
000002b0: 1609 0239 67bc 0039 6c5a ce38 c45f 6638
000002c0: bb7b 9238 dd35 5139 c758 cd39 37fe d639
000002d0: e313 3b38 8fa9 8638 2b03 8039 fd34 e939
000002e0: 282e cd39 b6ef 2738 70ec 9838 dded a639
000002f0: eb58 083a 5f68 c239 0c70 5238 5896 fd38
00000300: e918 d339 cd8d 083a c668 bb39 fccd d338
00000310: 6a36 8839 589f e939 c1f7 f739 c9f1 b639
00000320: 3548 c038 372f 7e38 debc 2d38 080c 3138
00000330: a827 c238 1f71 3c38 51cb eb37 5bfd d837
00000340: 656d 1d38 585f df38 903c eb37 1abb cf37
00000350: 17c8 ee37 0657 6538 1486 3239 36e9 c837
00000360: f909 f637 aca1 4e38 8df0 1539 c1d7 9139
00000370: 3426 2338 d2e1 5b38 1070 0c39 9ca0 8b39
00000380: 10b6 ad39 bd1f 2e38 fe50 ca37 5c2a 0c38
00000390: 22ec b438 03eb 2b39 d881 fc37 a76b a237
000003a0: d5fd 1b38 6673 da38 cfbc 5d39 5100 5038
000003b0: fbdc 5f38 4ab4 af38 bbc5 2739 7bc8 9339
000003c0: f7b4 bf38 af3e e838 c906 2839 d303 8f39
000003d0: f0d9 ad39 4ad3 0c39 5ccc 2939 f5e0 7b39
000003e0: 606c b339 77ad a439

exp_avg f4 [10]
-0.0015202581 0.0015848333 0.0019366249 -0.00044815685 2.1693286e-06 -0.0019254783 -0.0008364989 0.0017397843
-0.002908084 0.0013885096
00000000: 6643 c7ba 2eba cf3a 59d6 fd3a 98f6 eab9
00000010: c894 1136 5560 fcba 7e48 5bba 7909 e43a
00000020: 8e95 3ebb a7fe b53a

exp_avg_sq f4 [10]
0.00036323623 3.2000193e-05 7.108451e-05 4.9515722e-05 3.562677e-05 0.00019681634 2.7040502e-05 0.00011588561
9.373909e-05 4.8843074e-05
00000000: be70 be39 f237 0638 3513 9538 1aaf 4f38
00000010: f46d 1538 7c60 4e39 09d5 e237 9d07 f338
00000020: ca95 c438 dadc 4c38

max_exp_avg_sq f4 [10]
0.00036338976 3.2015047e-05 7.12236e-05 4.9515722e-05 3.565191e-05 0.00019719749 2.7058117e-05 0.00011594603
9.389741e-05 4.8981037e-05
00000000: 5985 be39 e547 0638 e15d 9538 1aaf 4f38
00000010: f288 1538 ccc6 4e39 ddfa e237 0d28 f338
00000020: caea c438 fd70 4d38
