src/saved/models/Mnist_LeNet/1014_083735/checkpoint-epoch5.pth (torch_old, 355460 bytes, 32 tensors)

conv1.weight f4 [10, 1, 5, 5]
-0.20476365 -0.16590203 -0.19526738 -0.0068617123 -0.16740029 0.13019153 -0.38152984 -0.5554118
-0.44908357 -0.10402004 0.08036342 0.17829418 -0.16818354 -0.16915405 -0.10010808 0.12187912
0.1037902 0.38229737 0.14911683 0.20622028 0.22021502 0.22084309 0.2798066 0.41650456
0.08540484 0.08868921 0.015419023 0.25204483 0.18349151 -0.30213705 0.18519652 0.14443582
0.1632761 0.17466374 0.11224824 -0.08271287 -0.16953418 0.008800023 -0.022742156 0.057534497
-0.114897765 -0.080823295 -0.017680205 0.22911194 0.045700353 -0.020457443 -0.012250647 0.009338644
0.18696927 0.21625139 0.2313627 0.20577304 0.17284897 0.20565759 -0.01231251 0.07854249
0.061885417 0.23375897 -0.09780962 -0.35268006 0.24211259 0.32748917 -0.1453682 -0.34661475
-0.25706345 0.18698616 0.010530951 -0.18012795 -0.44375107 0.02790756 0.29391626 0.07261441
-0.3587477 -0.3318432 0.09335749 0.065168105 0.12088278 -0.10385296 0.11886588 0.2529804
-0.03225576 -0.0781862 0.09272478 0.15578285 0.0028457746 -0.30292434 -0.17484187 0.27078295
0.25129557 0.070070766 -0.32032767 0.22219509 0.21034005 0.2390237 -0.14744364 0.13744153
0.25289902 0.12441496 0.08225377 -0.14931743 0.24856022 -0.16547935 -0.028706167 -0.14200643
-0.0751948 -0.035775922 -0.067187145 0.17808229 0.14335555 -0.043205388 0.079881296 -0.2907458
0.055429492 0.025987338 -0.043458972 -0.09536991 -0.27996874 -0.011521949 0.15560926 0.2720711
-0.025402816 0.15441899 0.22415012 -0.08158091 0.22746481 0.12772462 0.33397213 0.25254884
0.2163736 0.32268947 0.06942306 0.20046677 0.11003323 -0.045720465 0.05794482 -0.21644653
0.03840368 0.049487725 0.06560867 0.042086385 -0.24344555 -0.22516446 -0.08189527 0.13857841
0.10727138 -0.2900795 -0.39888656 -0.288925 -0.39717826 -0.2684744 -0.30234113 -0.14994684
-0.014873864 0.11478159 0.024913458 -0.05155638 -0.11535005 0.0286168 -0.20116755 0.116763875
-0.0021674908 0.26882434 -0.09288459 0.19290209 0.24751335 0.2383685 0.14497556 0.22230394
0.18241103 0.2259017 -0.018570805 -0.1530533 -0.13001509 -0.092809 -0.2450359 -0.25468045
-0.26686773 -0.0036949273 0.29533467 0.107248284 -0.3312517 -0.19619906 0.20967361 0.021313826
-0.035704486 -0.32163286 -0.25433064 0.17706369 0.3013298 -0.08695326 -0.35274634 -0.2743453
0.12344452 0.30975285 0.012305501 -0.30157575 -0.031951286 -0.116642594 0.301819 0.244845
0.012041654 0.028749159 -0.07961742 -0.36456445 -0.51588565 0.027914109 -0.16729768 -0.40178618
-0.3892402 -0.044861656 -0.17226167 -0.41833574 -0.27788335 -0.22752228 0.20753412 -0.37125528
-0.26102227 -0.19310853 0.14859135 0.24627028 -0.57142735 -0.21616043 0.20184472 0.13097411
0.2411592 -0.2162723 -0.18976194 -0.35999313 -0.0540898 0.03358376 -0.15533711 -0.19778192
-0.3061587 0.011358517 0.08437629 -0.31259388 -0.03126373 -0.017064132 -0.08529325 0.23693272
-0.07818326 -0.04949379 -0.06347853 0.13760844 0.30404556 0.063803956 -0.11863914 0.017881652
0.2743509 0.27812788
00000000: 90ad 51be 39e2 29be 2cf4 47be 37d8 e0bb
00000010: fb6a 2bbe ee50 053e e157 c3be 782f 0ebf
00000020: 48ee e5be 7508 d5bd 9495 a43d c092 363e
00000030: 4e38 2cbe b836 2dbe 7705 cdbd c39b f93d
00000040: f58f d43d 7bbc c33e 15b2 183e 692b 533e
00000050: 0c80 613e b124 623e d042 8f3e 1640 d53e
00000060: bce8 ae3d b0a2 b53d 12a0 7c3c 050c 813e
00000070: 33e5 3b3e b5b1 9abe 28a4 3d3e fce6 133e
00000080: da31 273e 0ddb 323e 68e2 e53d 5d65 a9bd
00000090: 5e9a 2dbe f92d 103c c24d babc 4ba9 6b3d
000000a0: 854f ebbd af86 a5bd 14d6 90bc 529c 6a3e
000000b0: 4b30 3b3d 5e96 a7bc f0b6 48bc 1d01 193c
000000c0: df74 3f3e 0171 5d3e 58ea 6c3e 2bb6 523e
000000d0: 52ff 303e e797 523e 69ba 49bc e3da a03d
000000e0: 907b 7d3d 835e 6f3e 6950 c8bd 7b92 b4be
000000f0: 5dec 773e a9ac a73e 67db 14be 7d77 b1be
00000100: d29d 83be 4d79 3f3e 038a 2c3c 7673 38be
00000110: 5733 e3be 659e e43c 317c 963e ddb6 943d
00000120: c7ad b7be 5ae7 a9be 3632 bf3d db76 853d
00000130: 6491 f73d dcb0 d4bd f46f f33d a686 813e
00000140: 9e1e 04bd 1620 a0bd 7de6 bd3d 8a85 1f3e
00000150: 2d80 3a3b e618 9bbe bf09 33be 10a4 8a3e
00000160: d0a9 803e 4381 8f3d fd01 a4be 1c87 633e
00000170: 6263 573e a1c2 743e 77fb 16be 79bd 0c3e
00000180: fb7b 813e 45cd fe3d aa74 a83d abe6 18be
00000190: 9286 7e3e 6b73 29be 3229 ebbc 226a 11be
000001a0: bbff 99bd c689 12bd 6a99 89bd 345b 363e
000001b0: cccb 123e 22f8 30bd ce98 a33d a2dc 94be
000001c0: 090a 633d 66e3 d43c 0902 32bd 4d51 c3bd
000001d0: 1058 8fbe 8fc6 3cbc 0958 1f3e e74c 8b3e
000001e0: 9119 d0bc 0320 1e3e 9c87 653e e413 a7bd
000001f0: 89ec 683e 3eca 023e 65fe aa3e 154e 813e
00000200: 0a91 5d3e 8e37 a53e ad2d 8e3d 2947 4d3e
00000210: 1a59 e13d 6245 3bbd 8c57 6d3d 29a4 5dbe
00000220: 2d4d 1d3d a4b3 4a3d d75d 863d c662 2c3d
00000230: ca49 79be 8391 66be b5b8 a7bd 80e7 0d3e
00000240: 19b1 db3d 4d85 94be dc3a ccbe faed 93be
00000250: f35a cbbe 7a75 89be 75cc 9abe aa8b 19be
00000260: 82b1 73bc 9c12 eb3d 4f17 cc3c c82c 53bd
00000270: a63c ecbd c86d ea3c defe 4dbe e621 ef3d
00000280: 760c 0ebb 58a3 893e 473a bebd 2088 453e
00000290: 2474 7d3e df16 743e 7974 143e a5a3 633e
000002a0: f5c9 3a3e c652 673e cd21 98bc 01ba 1cbe
000002b0: ad22 05be a512 bebd b1ea 7abe 7a65 82be
000002c0: e3a2 88be 9826 72bb 1b36 973e fda4 db3d
000002d0: d399 a9be 68e8 48be aeb4 563e 559a ae3c
000002e0: de3e 12bd 10ad a4be a037 82be 2f50 353e
000002f0: e647 9a3e 8d14 b2bd 2b9b b4be fd76 8cbe
00000300: 7bd0 fc3d ed97 9e3e 039d 493c 2368 9abe
00000310: 5adf 02bd 50e2 eebd 0588 9a3e a6b8 7a3e
00000320: 5c4a 453c 5b83 eb3c 750e a3bd 31a8 babe
00000330: 1511 04bf 21ac e43c 1550 2bbe ebb6 cdbe
00000340: 7e4a c7be dbc0 37bd 5d65 30be 1a30 d6be
00000350: ba46 8ebe 9afb 68be d383 543e 2c15 bebe
00000360: b6a4 85be 3ebe 45be 5528 183e 472e 7c3e
00000370: 1049 12bf 2959 5dbe 62b0 4e3e 141e 063e
00000380: 70f2 763e 7c76 5dbe f450 42be 0551 b8be
00000390: 448d 5dbd 208f 093d b110 1fbe 5887 4abe
000003a0: d5c0 9cbe 1319 3a3c 7acd ac3d 4e0c a0be
000003b0: 660e 00bd 14ca 8bbc 3aae aebd 7e9e 723e
000003c0: 8c1e a0bd 00ba 4abd 0801 82bd 3ae9 0c3e
000003d0: dcab 9b3e a6ab 823d 14f9 f2bd 8b7c 923c
000003e0: b977 8c3e c766 8e3e

conv1.bias f4 [10]
0.2242831 -0.047452033 0.081221715 -0.20397115 0.0863498 0.16162601 0.08840404 -0.25785175
0.1445922 0.0486701
00000000: 78aa 653e 105d 42bd 9257 a63d d0dd 50be
00000010: 2ad8 b03d 4a81 253e 2d0d b53d 2505 84be
00000020: fa0f 143e 4c5a 473d

conv2.weight f4 [20, 10, 5, 5]
0.011903457 0.0045681978 -0.04557324 -0.015080987 -0.10071994 0.1272205 0.14074953 0.07702092
-0.025560107 -0.10426031 0.03273048 0.077825606 0.02929771 -0.04741928 -0.046096247 0.022729553
-0.000632142 -0.061433367 -0.062071618 -0.12126317 0.16949846 -0.09357197 -0.013040204 -0.05209187
-0.10944024 -0.013777039 -0.012322529 -0.05977253 -0.00908167 0.00089979434 0.06775272 0.0052028294
0.035077207 -0.0066965385 0.01969163 0.056081496 0.025704563 0.013510446 0.05242243 0.040558722
0.0023465252 0.063686214 0.046352636 0.014586201 -0.023164112 -0.051606964 -0.06615177 -0.08154577
-0.034549538 -0.005995843 -0.029918622 0.065784745 -0.009458673 0.019951351 -0.08026485 -0.034874443
-0.16172059 -0.023979366 0.08361085 -0.048131976 -0.11582736 -0.10870289 0.05697438 0.01580918
-0.04285964 0.04798269 0.02833202 0.04252513 -0.09438308 -0.01779991 0.098052375 -0.03644766
-0.011500825 0.07403906 0.091676585 0.032363407 -0.08145603 -0.07335458 0.109219596 0.09401293
-0.010167411 0.07782186 -0.013634687 -0.01642845 -0.027268143 0.037071634 -0.003009326 0.009704485
0.054845046 0.040366434 0.04039646 0.0114757195 0.045597736 -0.0415601 -0.013031728 0.010825523
-0.01921491 -0.015572783 -0.036220226 -0.08694879 0.039358314 -0.00059106137 -0.051091027 0.03850205
0.03969744 0.10014111 0.09756033 0.057790585 0.042268954 -0.043734573 0.06463067 0.018379783
0.07663035 0.055128198 -0.024427366 0.007158521 0.042209473 0.045371305 -0.07410594 -0.07911361
-0.0068081445 -0.00016730776 -0.008536381 -0.06775941 -0.20484465 -0.031233624 -0.17160766 -0.20483263
-0.19836232 -0.14787537 0.025379196 -0.07350576 -0.15626243 -0.061299376 0.011614933 0.024417814
0.044547442 0.08660733 -0.017941814 -0.010409621 0.13637672 0.09261983 0.009521939 0.114862874
0.05748595 -0.050549734 0.017192425 -0.062284477 0.052328482 0.08245791 0.083018765 -0.00546114
-0.06837469 0.061971586 -0.01687961 -0.001115009 -0.020571487 0.05367789 0.024727624 0.051860925
0.07386746 0.07059339 0.06217149 -0.01726645 -0.0099706305 -0.026621269 0.0762231 0.10025751
0.03936787 0.067494266 -0.03288765 -0.018425588 -0.014264118 -0.06843451 -0.11737343 -0.0587853
-0.12711158 -0.1428531 0.09527096 0.038138922 -0.045063313 -0.035663914 -0.14397599 0.007901279
0.07938353 -0.10590675 -0.041631743 -0.041382063 0.03462989 0.03234652 -0.080582656 -0.14950286
-0.017975569 0.09055832 -0.054473348 -0.05376898 -0.10949543 -0.03639922 -0.030463513 -0.077484265
0.00607661 -0.113082245 -0.056694664 -0.012342094 0.09863794 -0.06915041 -0.12147927 -0.01963896
0.00436781 0.105301626 -0.094646566 -0.13671172 -0.09242849 -0.11321929 0.005284201 -0.008302883
0.033389244 -0.036286727 -0.04273683 0.07042019 0.13819824 0.03863216 0.026132321 0.10789808
0.0123974895 -0.040783748 -0.14350064 -0.0063661574 0.08738422 0.0373663 -0.06601169 -0.08594929
0.008523721 0.09269523 0.032308508 -0.023073385 -0.049149834 -0.023329081 0.09395353 0.07475752
0.01737305 0.015542375 0.03635828 0.053867873 -0.052215233 0.015820673 -0.07682696 0.031348765
0.047879767 -0.044882827 -0.036037587 -0.03006117 0.060852576 -0.035227336 -0.021707555 0.07402214
00000000: b806 433c d2b0 953b 01ab 3abd 3e16 77bc
00000010: 4246 cebd 1746 023e a520 103e 25bd 9d3d
00000020: 6e63 d1bc 6e86 d5bd 6510 063d 0863 9f3d
00000030: c001 f03c b83a 42bd 6bcf 3cbd 5433 ba3c
00000040: 55b6 25ba 8ea1 7bbd cf3e 7ebd d358 f8bd
00000050: 0191 2d3e a9a2 bfbd 94a6 55bc 495e 55bd
00000060: 3422 e0bd 17b9 61bc 6fe4 49bc 0ad4 74bd
00000070: 49cb 14bc 2de0 6b3a f0c1 8a3d 7f7c aa3b
00000080: 1ead 0f3d a36e dbbb 5750 a13c b6b5 653d
00000090: 6092 d23c eb5a 5d3c e7b8 563d e720 263d
000000a0: 29c8 193b eb6d 823d 43dc 3d3d f6fa 6e3c
000000b0: aac2 bdbc d361 53bd 947a 87bd 7801 a7bd
000000c0: d183 0dbd c778 c4bb e617 f5bc 27ba 863d
000000d0: 8df8 1abc 0471 a33c e661 a4bd 81d8 0ebd
000000e0: 159a 25be 6070 c4bc 2a3c ab3d 0926 45bd
000000f0: e536 edbd 9f9f debd f85d 693d 4182 813c
00000100: 978d 2fbd 7f89 443d 8d18 e83c d52e 2e3d
00000110: eb4b c1bd 1ed1 91bc afcf c83d 244a 15bd
00000120: f56d 3cbc caa1 973d efc0 bb3d 7e8f 043d
00000130: 6bd2 a6bd ed3a 96bd 86ae df3d da89 c03d
00000140: 3695 26bc 1161 9f3d 0664 5fbc f594 86bc
00000150: 7161 dfbc 6dd8 173d 1d38 45bb 8fff 1e3c
00000160: 33a5 603d 4657 253d c276 253d a804 3c3c
00000170: b1c4 3a3d ec3a 2abd 0783 55bc 895d 313c
00000180: 9668 9dbc fc24 7fbc a95b 14bd 3512 b2bd
00000190: 2f36 213d 75f1 1aba d344 51bd 53b4 1d3d
000001a0: c899 223d c816 cd3d b6cd c73d d2b5 6c3d
000001b0: 3622 2d3d 0623 33bd 165d 843d 3391 963c
000001c0: 5ff0 9c3d 1bce 613d e61b c8bc 0792 ea3b
000001d0: d7e3 2c3d 43d7 393d dbc4 97bd 5106 a2bd
000001e0: db16 dfbb 566f 2fb9 2ddc 0bbc 72c5 8abd
000001f0: ccc2 51be a8dd ffbc ebb9 2fbe a5bf 51be
00000200: 7e1f 4bbe a46c 17be 08e8 cf3c 308a 96bd
00000210: 4203 20be 0e15 7bbd 8f4c 3e3c de07 c83c
00000220: 6177 363d 2f5f b13d b6fa 92bc 1d8d 2abc
00000230: 57a6 0b3e 77af bd3d e801 1c3c 3a3d eb3d
00000240: 6376 6b3d 3d0d 4fbd 21d7 8c3c 021e 7fbd
00000250: 6456 563d b1df a83d be05 aa3d 5df3 b2bb
00000260: 0808 8cbd ebd5 7d3d 1c47 8abc 7e25 92ba
00000270: 8985 a8bc 59dd 5b3d 9691 ca3c 1f6c 543d
00000280: d347 973d 4493 903d 88a7 7e3d 5f72 8dbc
00000290: db5b 23bc d914 dabc db1a 9c3d cf53 cd3d
000002a0: 3440 213d 6f3a 8a3d 33b5 06bd 42f1 96bc
000002b0: 0cb4 69bc 6427 8cbd 7b61 f0bd dbc8 70bd
000002c0: 8a29 02be 1548 12be 6c1d c33d 8f37 1c3d
000002d0: 4f94 38bd 5314 12bd 716e 13be 5e74 013c
000002e0: d593 a23d a3e5 d8bd 0c86 2abd 3d80 29bd
000002f0: 12d8 0d3d c97d 043d 8508 a5bd 4717 19be
00000300: 8041 93bc a476 b93d 721f 5fbd dd3c 5cbd
00000310: 243f e0bd 5917 15bd 9e8e f9bc 12b0 9ebd
00000320: 4d1e c73b aa97 e7bd aa38 68bd 7f36 4abc
00000330: b002 ca3d bb9e 8dbd 20ca f8bd e2e1 a0bc
00000340: d91f 8f3b 61a8 d73d 0fd6 c1bd 28fe 0bbe
00000350: 264b bdbd 84df e7bd 1727 ad3b d108 08bc
00000360: 29c3 083d 64a1 14bd d00c 2fbd 7638 903d
00000370: d783 0d3e c13c 1e3d 7313 d63c abf9 dc3d
00000380: d71e 4b3c dc0c 27bd d5f1 12be 339b d0bb
00000390: 7ff6 b23d 680d 193d 2331 87bd 2e06 b0bd
000003a0: 14a7 0b3c ffd6 bd3d ed55 043d 6504 bdbc
000003b0: 5651 49bd a11c bfbc b56a c03d 781a 993d
000003c0: ed51 8e3c 72a5 7e3c 6bec 143d 8fa4 5c3d
000003d0: a4df 55bd 5b9a 813c 7457 9dbd 9067 003d
000003e0: 931d 443d 0ed7 37bd 269c 13bd d842 f6bc
000003f0: 8d40 793d 8a4a 10bd 0bd4 b1bc eb98 973d

conv2.bias f4 [20]
0.02214689 -0.07733847 -0.019991718 -0.00654365 0.04441789 0.01856587 -0.013323281 0.066708386
0.039541278 0.09481522 -0.020418478 0.06701149 -0.07121979 0.027865697 0.04670809 0.025087371
-0.034736246 -0.06865679 0.0015787291 0.075067736
00000000: 656d b53c a263 9ebd acc5 a3bc 1d6c d6bb
00000010: 89ef 353d 7417 983c e449 5abc 689e 883d
00000020: 09f6 213d 7b2e c23d a744 a7bc 523d 893d
00000030: aedb 91bd 9a46 e43c fb50 3f3d 0884 cd3c
00000040: 9847 0ebd ee9b 8cbd 5ced ce3a 1dbd 993d

fc1.weight f4 [50, 320]
0.038442057 0.023752283 -0.016728489 0.07069386 0.09932693 0.059052683 -0.04599418 -0.028913166
-0.021234319 -0.15760162 -0.1364956 -0.080834456 -0.062342823 -0.060061518 -0.006402017 -0.04249404
0.034339093 0.0044581955 0.06693369 0.11802492 0.0087805325 -0.008704477 0.03714227 -0.037798118
0.02367165 -0.0110751 0.04190129 0.062918685 -0.013551415 -0.027500568 -0.07859217 0.003478155
0.01091743 0.033223186 0.015208503 0.0023134612 -0.0137122795 -0.014434014 0.040110603 -0.0893468
-0.06506476 0.033337582 -0.015205208 -0.07161505 -0.054829855 0.01584632 -0.028555213 0.092106454
-0.07160851 -0.0149170915 -0.0940426 -0.14186035 -0.0011534947 -0.044452287 0.015503516 0.042643182
-0.009423483 -0.09144924 0.009036895 0.0838421 -0.07211278 -0.019100117 0.07664103 0.053077117
-0.07145397 -0.06316223 -0.07785353 -0.019654889 -0.013324683 -0.13181698 0.070860624 0.11336137
0.08627744 0.004025396 -0.029375847 -0.021823065 0.10922878 0.011676065 -0.055252142 -0.050066423
0.036125846 0.033774704 0.00419063 0.014717768 0.011642977 -0.2102749 -0.112592876 -0.0773785
-0.16425985 0.0037298785 0.013846036 -0.033081647 0.033926524 0.06481688 0.00082248804 -0.093160376
0.0037112085 0.08520052 0.12631586 0.055988446 -0.034960765 -0.073846035 0.00057289115 -0.13551117
-0.047202103 0.014321859 0.06737377 -0.033340674 0.06433923 0.035489015 0.017732318 -0.03617695
0.01555024 -0.022914356 -0.04964824 0.07214425 0.030467117 -0.049111698 0.011505804 0.080255784
-0.019194435 0.05762372 0.04417035 0.03673028 0.016825298 -0.002057656 -0.037640348 -0.00011797839
-0.011983514 -0.095015265 -0.062925026 0.0053432067 -0.05563514 -0.027493235 -0.045690548 0.10509808
-0.02407878 0.05329279 -0.056934185 0.005143469 0.037593648 0.05514185 0.03466035 -0.032350168
0.044564266 -0.034704585 -0.014551356 0.07582697 0.077448346 -0.0943969 0.05154631 0.057607524
-0.048515122 -0.06587962 -0.09567613 -0.07512201 -0.025068302 -0.033287063 -0.1540051 -0.09960771
-0.08680387 -0.040811874 -0.11040141 -0.03071409 -0.049669355 -0.0030835934 -0.09403818 0.01125384
0.009423602 0.035736028 -0.07989893 -0.0016592372 0.06572666 0.08386007 0.016672794 -0.023180904
0.082152374 0.045694478 -0.013883774 0.002221697 -0.14628671 -0.10067458 -0.1758404 0.018537844
-0.08967608 -0.012192583 0.0044501578 -0.08214694 -0.06090185 0.10941777 -0.012695416 -0.17825569
0.025517218 -0.101064906 -0.055839963 0.020432193 -0.007958106 0.011703575 0.0052068094 0.01676268
0.108061776 -0.02212928 0.008865596 -0.0148529345 0.025739154 -0.011876363 -0.03934777 -0.030614682
-0.029614834 -0.07067288 -0.061110616 -0.044624757 -0.016231103 0.021444628 -0.0375948 -0.06976911
0.09140629 0.017337753 -0.0550408 0.052189752 -0.00720227 -0.06318308 0.07212024 0.0059749335
0.016432285 -0.16034348 -0.089165345 -0.023155427 -0.0026373507 0.09119797 0.139253 0.012565628
0.035333753 0.14721462 0.045564592 0.004132968 0.0169789 0.038364336 0.070417784 0.011263127
-0.081358954 0.010320279 -0.049292773 -0.09833796 0.038148947 -0.04142405 0.095424905 -0.021655083
-0.028623598 0.04176024 0.022825647 0.011756084 0.049983677 0.08550641 0.07120532 -0.06633239
00000000: 6b75 1d3d 2694 c23c 2f0a 89bc f1c7 903d
00000010: eb6b cb3d 3ae1 713d 6564 3cbd 4edb ecbc
00000020: 98f3 adbc 5262 21be 81c5 0bbe 898c a5bd
00000030: 305b 7fbd 1103 76bd 03c8 d1bb 3b0e 2ebd
00000040: 26a7 0c3d 0e16 923b 8814 893d 0db7 f13d
00000050: 39dc 0f3c 399d 0ebc 7e22 183d 33d2 1abd
00000060: 0ceb c13c 5674 35bc b0a0 2b3d 83db 803d
00000070: c106 5ebc df48 e1bc eef4 a0bd c2f1 633b
00000080: 05df 323c 0915 083d 162d 793c 709d 173b
00000090: 78a9 60bc a57c 6cbc 044b 243d 75fb b6bd
000000a0: ac40 85bd fd8c 083d 441f 79bc e9aa 92bd
000000b0: 4595 60bd 24d0 813c 9fec e9bc 4fa2 bc3d
000000c0: 7ca7 92bd d166 74bc 6899 c0bd d743 11be
000000d0: dc30 97ba 9a13 36bd 7602 7e3c 9eaa 2e3d
000000e0: f464 1abc bd49 bbbd 7c0f 143c 68b5 ab3d
000000f0: ddaf 93bd d977 9cbc f9f5 9c3d 6467 593d
00000100: 7656 92bd 335b 81bd ac71 9fbd 4a03 a1bc
00000110: c54f 5abc 08fb 06be 601f 913d 022a e83d
00000120: 3ab2 b03d 78e7 833b 9ea5 f0bc 49c6 b2bc
00000130: 57b3 df3d f74c 3f3c 1250 62bd 7312 4dbd
00000140: b2f8 133d 5857 0a3d 8d51 893b cb22 713c
00000150: 2fc2 3e3c 4e52 57be 1897 e6bd 9e78 9ebd
00000160: bc33 28be fa70 743b 7cda 623c 9f80 07bd
00000170: 8af6 0a3d b6be 843d 3d9c 573a deca bebd
00000180: bf37 733b 9c7d ae3d f258 013e 2454 653d
00000190: 0533 0fbd 973c 97bd 132e 163a 71c3 0abe
000001a0: fe56 41bd 3ba6 6a3c 42fb 893d 3b90 08bd
000001b0: 49c4 833d ee5c 113d 5e43 913c 482e 14bd
000001c0: 6fc6 7e3c e3b6 bbbc f45b 4bbd 5dc0 933d
000001d0: 2d96 f93c 5929 49bd d782 3c3c 255d a43d
000001e0: a63d 9dbc da06 6c3d f8eb 343d 7d72 163d
000001f0: 35d5 893c bdd9 06bb c42c 1abd 2a6b f7b8
00000200: 8056 44bc 5d97 c2bd d6de 80bd 1116 af3b
00000210: ace1 63bd 7e39 e1bc 0326 3bbd aa3d d73d
00000220: dd40 c5bc 8a49 5a3d d233 69bd 8c8a a83b
00000230: ccfb 193d 6cdc 613d 03f8 0d3d 9c81 04bd
00000240: 0589 363d 6526 0ebd d068 6ebc 2c4b 9b3d
00000250: 3d9d 9e3d 2953 c1bd 3922 533d def5 6b3d
00000260: cbb7 46bd e5eb 86bd d9f1 c3bd 92d9 99bd
00000270: 0a5c cdbc 0458 08bd 83b3 1dbe 21ff cbbd
00000280: 3ac6 b1bd 5a2a 27bd 221a e2bd 1e9c fbbc
00000290: 1872 4bbd 1d16 4abb 1797 c0bd 0762 383c
000002a0: 7465 1a3c f15f 123d 0da2 a3bd c37a d9ba
000002b0: b39b 863d d4be ab3d 6295 883c e1e5 bdbc
000002c0: 813f a83d 222a 3b3d c578 63bc e499 113b
000002d0: 2fcc 15be 792e cebd 810f 34be addc 973c
000002e0: 18a8 b7bd 66c3 47bc a1d2 913b a83c a8bd
000002f0: 3874 79bd 6c16 e03d 6f00 50bc a988 36be
00000300: 7c09 d13c 1efb cebd 72b8 64bd 6a61 a73c
00000310: b762 02bc 5ac0 3f3c e29d aa3b e351 893c
00000320: 7e4f dd3d 7748 b5bc 0141 113c b959 73bc
00000330: ebda d23c 1495 42bc 212b 21bd a4cb fabc
00000340: cf9a f2bc f1bc 90bd 204f 7abd 73c8 36bd
00000350: 17f7 84bc a5ac af3c 01fd 19bd 1be3 8ebd
00000360: 3933 bb3d e707 8e3c 7672 61bd ecc4 553d
00000370: 0501 ecbb 2166 81bd c7b3 933d 60c9 c33b
00000380: 009d 863c 1531 24be 529c b6bd 73b0 bdbc
00000390: 67d7 2cbb 00c6 ba3d 5798 0e3e 10e0 4d3c
000003a0: 20ba 103d 6ebf 163e f0a1 3a3d d96d 873b
000003b0: 5617 8b3c ec23 1d3d 3337 903d fb88 383c
000003c0: 869f a6bd 6316 293c 38e7 49bd 6a65 c9bd
000003d0: 1242 1c3d 44ac 29bd 226e c33d 0066 b1bc
000003e0: 097c eabc c90c 2b3d dafc ba3c 979c 403c
000003f0: afbb 4c3d fc1d af3d 18d4 913d 47d9 87bd

fc1.bias f4 [50]
0.06123845 0.00025144467 0.05883118 0.103677854 0.015398006 0.09795595 0.046689615 0.09737627
0.038693514 -0.00814066 0.02436911 0.01851131 0.14615455 0.15755683 0.0827238 0.10491288
0.05840598 0.054114547 -0.0141614685 0.11644168 0.09905729 0.05061154 0.018901398 0.021253994
0.07232782 0.009073851 0.018700792 0.048450977 0.06601387 0.06762013 0.0536716 0.0697982
0.07491755 0.060333002 0.035600383 0.027409762 0.10976352 0.0528452 -0.0056892983 0.06670196
0.052368425 0.07731633 -0.008640141 -0.002910055 0.0917077 0.014144137 0.10543429 0.04871315
0.0025410186 0.06725937
00000000: 2bd5 7a3d 55d4 8339 f7f8 703d 0e55 d43d
00000010: eb47 7c3c 219d c83d 9c3d 3f3d 366d c73d
00000020: 177d 1e3d 6760 05bc baa1 c73c 08a5 973c
00000030: 8aa9 153e 9456 213e 186b a93d 90dc d63d
00000040: 1c3b 6f3d 37a7 5d3d 8105 68bc fa78 ee3d
00000050: 8cde ca3d 0c4e 4f3d 1bd7 9a3c db1c ae3c
00000060: 9c20 943d 7daa 143c 6732 993c 8874 463d
00000070: 4832 873d 6c7c 8a3d c0d6 5b3d 5cf2 8e3d
00000080: 5f6e 993d bd1f 773d b5d1 113d 708a e03c
00000090: b2cb e03d 3574 583d 4b6d babb 0a9b 883d
000000a0: 4680 563d 0658 9e3d 618f 0dbc 9fb6 3ebb
000000b0: 3fd1 bb3d cfbc 673c efed d73d 7187 473d
000000c0: 3887 263b 48bf 893d

fc2.weight f4 [10, 50]
0.19641016 -0.27483892 0.116394766 -0.2397076 -0.16755053 -0.25622675 0.070930324 -0.14964701
-0.0974069 -0.06876838 -0.21845202 0.08972926 -0.118102625 -0.13547915 -0.022931011 -0.22819865
-0.24092424 -0.1698902 0.16601937 -0.09299795 0.12910035 -0.013396437 -0.16548072 0.11535626
-0.22598244 0.15282483 -0.17835367 -0.08771063 -0.20464087 0.109429196 -0.16876681 0.117098354
0.1288585 -0.04316885 -0.13067374 0.07525435 0.0994293 0.112684436 0.09331035 0.15485476
0.08289005 0.11435104 -0.118348 0.17821679 -0.113814905 0.07535946 0.13541694 -0.0897465
-0.12909639 0.06098288 -0.018456977 -0.07295501 -0.22277896 0.14874364 0.123551026 0.10603952
0.1509279 0.17699443 -0.22983122 -0.103685565 -0.06111248 -0.11501107 0.09741123 0.09803471
-0.20869486 0.16886693 -0.14772257 0.12279316 0.07949786 0.092973076 -0.1664168 -0.20266104
-0.21422142 0.15337835 0.104103535 -0.2025085 -0.14437148 -0.11643981 0.117899515 -0.028240452
0.07373722 0.11726562 0.11614455 0.06729044 0.08940863 -0.11260025 -0.24198116 -0.03554114
-0.2864412 -0.21766189 -0.17785734 -0.124897115 -0.20337394 -0.058276944 0.08935132 -0.24676256
0.13478117 -0.2885992 0.16146001 -0.25709194 -0.004293203 -0.07994743 -0.20081496 0.11905997
-0.121258534 -0.35942462 0.13720593 -0.1256233 -0.18845324 0.16459428 -0.016074939 0.04174307
-0.11305942 -0.1356135 -0.23155297 0.04387479 -0.06312914 -0.20236522 0.15221976 0.12762994
-0.13514169 0.0445641 0.030880075 0.059298478 0.11576338 0.117335446 0.11930884 -0.16383305
0.1134196 0.12121215 0.093767814 0.12967342 0.11753684 0.051800784 -0.26345327 -0.009604724
-0.15633592 0.10002177 0.08749429 -0.049039282 -0.031942174 0.061412945 0.13174143 0.15021318
0.064148664 0.06510621 -0.14377925 -0.060161006 -0.11865097 -0.028956886 -0.10780631 -0.029804878
-0.19903807 -0.069709875 -0.12241577 -0.05328694 -0.14883311 -0.21601738 0.08296903 0.14075395
0.11583112 0.11823741 0.11513086 -0.23401526 -0.16383258 0.14693534 0.04815279 0.12536037
-0.010740211 0.10284206 -0.14673305 0.14879587 -0.17584528 -0.18634422 -0.0624716 -0.12691899
-0.099510215 0.13568932 0.11666179 0.13815787 0.077481724 -0.010530748 -0.14243564 0.037498444
-0.005231842 -0.04974576 0.10775294 0.14053215 0.01317816 -0.007822075 0.017021801 -0.022545816
0.015923945 -0.03257909 0.07830922 -0.07478244 -0.1533758 -0.19406359 -0.106717534 0.076137364
0.011736972 0.09878935 -0.17257924 0.096042864 0.11582844 -0.0031832147 0.14584728 0.15639536
0.007785698 0.15023349 0.10487543 -0.28702724 -0.011036655 0.042742405 0.091713205 0.1168884
0.113443606 -0.037728 0.080559224 -0.19440727 0.035925496 -0.10714995 0.14796564 0.13040924
-0.026805148 0.074475445 0.140277 0.11855288 -0.04487478 -0.15888402 -0.17686038 -0.10213714
0.028281156 -0.15774989 0.09971098 -0.1741715 0.077237606 -0.15725379 0.10620934 0.08086568
-0.14531726 -0.21804118 -0.2181297 -0.0798727 -0.18415296 0.07960559 -0.13878956 0.13635707
0.19139804 -0.30110937 -0.08724711 0.10312158 0.12397952 0.00084908854 0.1294203 -0.0033608652
00000000: bf1f 493e b0b7 8cbe 6160 ee3d e975 75be
00000010: 5e92 2bbe 2730 83be eb43 913d 113d 19be
00000020: 457d c7bd 70d6 8cbd e3b1 5fbe f9c3 b73d
00000030: cadf f1bd 0cbb 0abe d1d9 bbbc e8ac 69be
00000040: d8b4 76be b2f7 2dbe fb00 2a3e b675 bebd
00000050: e232 043e bb7c 5bbc c773 29be e73f ec3d
00000060: f167 67be 1d7e 1c3e 58a2 36be a1a1 b3bd
00000070: 608d 51be 6a1c e03d 35d1 2cbe 43d1 ef3d
00000080: 7cf3 033e d2d1 30bd 56cf 05be f41e 9a3d
00000090: 97a1 cb3d 19c7 e63d 7f19 bf3d 3f92 1e3e
000000a0: 42c2 a93d e130 ea3d 7060 f2bd 767e 363e
000000b0: ca17 e9bd 1056 9a3d bdaa 0a3e 03cd b7bd
000000c0: d831 04be 2fc9 793d 1633 97bc 7069 95bd
000000d0: 2b20 64be 4150 183e 5208 fd3d 3f2b d93d
000000e0: d88c 1a3e 073e 353e e058 6bbe 1959 d4bd
000000f0: 1451 7abd ed8a ebbd 8a7f c73d 6cc6 c83d
00000100: 1bb4 55be 74eb 2c3e 9644 17be fb7a fb3d
00000110: c6cf a23d ab68 be3d 2a69 2abe 6086 4fbe
00000120: dc5c 5bbe 370f 1d3e 3c34 d53d 635e 4fbe
00000130: 1ed6 13be ff77 eebd 4d75 f13d 8558 e7bc
00000140: 8a03 973d f528 f03d 32dd ed3d 92cf 893d
00000150: df1b b73d f69a e6bd e9c9 77be 9693 11bd
00000160: 6ca8 92be c2e2 5ebe 3c20 36be 0fca ffbd
00000170: 4241 50be ceb3 6ebd d3fd b63d 53af 7cbe
00000180: 1304 0a3e 46c3 93be c655 253e 8ea1 83be
00000190: ffad 8cbb 7abb a3bd 70a2 4dbe b7d5 f33d
000001a0: 6556 f8bd 8106 b8be b67f 0c3e 65a3 00be
000001b0: e3f9 40be 678b 283e 97af 83bc c8fa 2a3d
000001c0: b28b e7bd 44de 0abe 391c 6dbe 0db6 333d
000001d0: da49 81bd d438 4fbe 7fdf 1b3e 6cb1 023e
000001e0: 9562 0abe d988 363d 36f8 fc3c f6e2 723d
000001f0: 5a15 ed3d 914d f03d 3158 f43d dac3 27be
00000200: 8948 e83d 133e f83d 5709 c03d 1cc9 043e
00000210: 28b7 f03d 0f2d 543d 59e3 86be 225d 1dbc
00000220: 8616 20be 37d8 cc3d 3530 b33d 6add 48bd
00000230: ccd5 02bd 248c 7b3d 3ae7 063e 7cd1 193e
00000240: 6060 833d 6856 853d de3a 13be 636b 76bd
00000250: 48ff f2bd fe36 edbc 8ec9 dcbd 5c29 f4bc
00000260: a3d0 4bbe 0dc4 8ebd 1fb5 fabd 6843 5abd
00000270: b567 18be a933 5dbe abeb a93d ce21 103e
00000280: de38 ed3d 7526 f23d bac9 eb3d b2a1 6fbe
00000290: bac3 27be 3876 163e dc3b 453d 785e 003e
000002a0: b6f7 2fbc dc9e d23d 3041 16be f25d 183e
000002b0: c910 34be 05d1 3ebe 38e2 7fbd 0df7 01be
000002c0: 03cc cbbd 24f2 0a3e 60ec ee3d 4279 0d3e
000002d0: bdae 9e3d 2989 2cbc a6da 11be f897 193d
000002e0: df6f abbb 36c2 4bbd 93ad dc3d a9e7 0f3e
000002f0: 36e9 573c 2928 00bc 4e71 8b3c 01b2 b8bc
00000300: ef72 823c a771 05bd 9660 a03d 8927 99bd
00000310: 8c0e 1dbe 9bb8 46be b98e dabd e8ed 9b3d
00000320: 6e4c 403c 1252 ca3d 9db8 30be 1fb2 c43d
00000330: 7637 ed3d 7b9d 50bb fd58 153e 1b26 203e
00000340: 2b1f ff3b cfd6 193e eec8 d63d 3cf5 92be
00000350: 16d3 34bc a912 2f3d 22d4 bb3d 2f63 ef3d
00000360: 1f55 e83d ad88 1abd 3cfc a43d b312 47be
00000370: 9d26 133d 6f71 dbbd 4e84 173e 008a 053e
00000380: 7896 dbbc 9586 983d c6a4 0f3e dacb f23d
00000390: 9ece 37bd 7eb2 22be e31a 35be 472d d1bd
000003a0: e2ad e73c 3089 21be 4535 cc3d 045a 32be
000003b0: c02e 9e3d 2307 21be 4884 d93d e89c a53d
000003c0: 0cce 14be 3046 5fbe 645d 5fbe 4c94 a3bd
000003d0: 9892 3cbe 4108 a33d da1e 0ebe 30a1 0b3e
000003e0: d9fd 433e 022b 9abe 9dae b2bd 6831 d33d
000003f0: f9e8 fd3d 5e95 5e3a c186 043e f641 5cbb

fc2.bias f4 [10]
-0.1964071 0.22949864 0.05148279 0.048116 -0.26832777 0.115423575 -0.010301632 -0.049921278
0.15394059 -0.25940552
00000000: f11e 49be b101 6b3e 9edf 523d 4815 453d
00000010: 4262 89be 3263 ec3d 2dc8 28bc 417a 4cbd
00000020: 9aa2 1d3e cdd0 84be

exp_avg f4 [10, 1, 5, 5]
0.006074686 0.0062987297 0.0050102076 0.0045494274 -0.0012012589 0.009536155 0.0068674255 0.0052855387
0.002901164 -0.000667458 0.008020247 0.0052010617 0.0017925395 -2.4454208e-05 -0.0045786486 0.008715656
0.007116325 0.0025452818 -0.0025787062 -0.0046464712 0.00979192 0.009199394 0.0012014036 -0.00071657327
-0.00079980603 -0.0025987655 -0.0020666164 -0.0013711724 -0.00025291397 -0.0009780709 -0.0035738533 -0.0007616127
-0.0012861459 0.0008492955 0.0019346373 -0.00070440193 0.0008816666 -0.0014858133 0.00062592037 0.0031039126
0.0022722036 -1.1502211e-06 -0.00042980144 0.0009903299 0.0044792662 0.0011704625 -0.0012772986 -0.0014372946
0.0040740254 0.006083192 0.0044915536 0.005214225 0.0038755385 0.0012549227 0.0026146392 0.0038277807
0.0073237494 0.0048413393 0.0022115395 0.002272402 0.0030873208 0.005595022 0.0026135922 0.0011814127
0.0019020552 0.0025110976 0.0022061826 -0.0017545231 -0.0025828544 -0.0017502067 0.0024075783 0.0010424893
-0.0023173217 -0.0038445299 -0.0037861292 0.0027135941 0.0032422498 0.0014781551 0.0013546542 0.0026382715
0.0034885325 0.004508572 0.002095863 0.00274892 0.0038981687 0.0024081669 -7.889107e-05 -0.0016832622
0.0029855333 0.0033326698 5.457636e-05 -0.0030912806 -0.0021537794 0.0019588715 0.0016494255 -0.004538345
-0.005006219 -0.0030382704 0.00030036265 -0.0012258459 -0.0019545348 0.002593098 0.00027260702 -0.0017252996
0.000616754 -0.0026967544 0.0014452701 0.0010073622 -0.00061252597 0.0023702197 -0.0029977586 0.0015055989
0.00025636735 -7.234779e-05 0.003603529 -0.001404774 0.0002195509 -9.2802125e-05 0.00074544584 0.0036644514
-0.0020041787 -0.0028554816 -0.0012713288 0.0023949752 0.0046156812 -0.0027908932 -0.0008382481 0.00041727713
-0.0009794232 -0.0027347335 -0.0056754453 -0.0032926549 -0.004376381 -0.0043826783 -0.0036015878 -0.0031166319
-0.0016140396 -0.0028979485 -0.0025951262 -0.00017170407 0.0017599285 0.003490813 0.0042310506 0.0019208315
0.0027604322 0.0043991343 0.0061128708 0.0077211484 0.0067604766 0.0033567953 0.00053306716 0.00079728756
0.00087774434 0.00076632324 0.00026132166 0.0017120207 0.00068237673 0.0016072016 0.0012883932 0.0010433804
-0.0007332476 -0.0012776243 -0.00071915257 0.00057388376 0.00016563151 -0.0014175191 -0.0028715164 -0.0017750907
0.0009006449 -0.00011680485 -0.0007923794 -0.0023582557 -0.00020638181 0.0021968521 0.0013649117 0.003123171
0.0013671985 0.0008600098 0.0025016305 0.0055089756 0.0016800759 -0.00040502843 0.00044776275 0.0028325517
0.0033379297 0.00031826424 -0.0033287928 -0.0008550587 0.002079079 0.00019729618 -0.0005790945 -0.0017581556
0.0019936746 0.004829111 0.00011137259 0.0007257744 0.0009241817 0.0031704518 0.0036221666 -0.0010712391
0.0038517655 0.0010217252 0.00067023607 0.00010868391 0.00017246683 0.0010458793 -0.0011991635 -0.00011435292
1.2577246e-05 -0.0012663519 -0.0012347958 -0.0007567649 0.00097394944 -0.0012171918 -0.0019285341 -0.0012458822
-0.00070733536 -0.0010528342 -0.0035155176 -0.0028922465 0.00043625242 -0.00028621627 -0.0016447586 -0.0021872667
-0.0020080355 -0.0004311535 -0.00022817816 0.0007072309 -0.0002868427 -0.00020651329 -0.0009882863 0.00015056145
0.0008988505 -0.0007021693 -0.002167572 -0.002673597 -0.0027870613 -0.0013093523 -0.0021943413 -0.003591014
-0.003963019 -0.0044171065 -0.0035927966 -0.0025557708 -0.0007524039 -0.005870724 -0.0043225386 -0.003087094
-0.0015339729 -0.0029700904
00000000: 290e c73b 9365 ce3b ab2c a43b 5d13 953b
00000010: 8f73 9dba 883d 1c3c 2408 e13b 5032 ad3b
00000020: 7521 3e3b 59f8 2eba 5b67 033c ab6d aa3b
00000030: a5f3 ea3a 0323 cdb7 7d08 96bb 1ccc 0e3c
00000040: 1030 e93b bece 263b 83ff 28bb 6d41 98bb
00000050: 4a6e 203c 0eb9 163c 6a78 9d3a 6bd8 3bba
00000060: 13aa 51ba 0d50 2abb 1270 07bb e9b8 b3ba
00000070: 8a99 84b9 9d32 80ba 4f37 6abb f7a6 47ba
00000080: e593 a8ba 42a3 5e3a a893 fd3a 9da7 38ba
00000090: a51f 673a 9fbf c2ba ce14 243a 036b 4b3b
000000a0: 40e9 143b 4c61 9ab5 f956 e1b9 f5cd 813a
000000b0: cfc6 923b 346a 993a 076b a7ba 9b63 bcba
000000c0: 677f 853b 8355 c73b e22d 933b 17dc aa3b
000000d0: bffc 7d3b 387c a43a 5e5a 2b3b 81db 7a3b
000000e0: 10fc ef3b 19a4 9e3b 7aef 103b 94ec 143b
000000f0: a654 4a3b 7256 b73b cd48 2b3b a2d9 9a3a
00000100: 624e f93a 3a91 243b 9a95 103b 07f8 e5ba
00000110: 1b45 29bb 3167 e5ba 76c8 1d3b 23a4 883a
00000120: 35de 17bb 82f4 7bbb b520 78bb 8ed6 313b
00000130: ed7b 543b a8be c13a a78e b13a dae6 2c3b
00000140: dd9f 643b a5bc 933b bf5a 093b 3927 343b
00000150: 6b78 7f3b 56d2 1d3b 5272 a5b8 e8a0 dcba
00000160: f0a8 433b ec68 5a3b ece8 6438 1597 4abb
00000170: 6c26 0dbb 6960 003b 8931 d83a 66b6 94bb
00000180: 350b a4bb b81d 47bb fe79 9d39 90ac a0ba
00000190: a717 00bb f7f0 293b b2ec 8e39 7323 e2ba
000001a0: a9ad 213a 08bc 30bb 386f bd3a 7709 843a
000001b0: ec91 20ba b055 1b3b 0b76 44bb 8457 c53a
000001c0: 0b69 8639 6db9 97b8 2f29 6c3b 6520 b8ba
000001d0: 3f37 6639 c39e c2b8 066a 433a 4b27 703b
000001e0: 8a58 03bb 0823 3bbb b7a2 a6ba 04f5 1c3b
000001f0: 243f 973b 6be7 36bb e1bd 5bba fdc5 da39
00000200: fd5f 80ba 3739 33bb 16f9 b9bb 95c9 57bb
00000210: bf67 8fbb 929c 8fbb 9e08 6cbb 6840 4cbb
00000220: 2f8e d3ba 82eb 3dbb fe12 2abb 760b 34b9
00000230: 67ad e63a 20c6 643b a0a4 8a3b 69c4 fb3a
00000240: 5ee8 343b 9d26 903b 7a4e c83b b001 fd3b
00000250: fd86 dd3b aefd 5b3b 88bd 0b3a 1001 513a
00000260: 6d18 663a 15e3 483a 0002 8939 e265 e03a
00000270: 87e1 323a bda8 d23a 4ddf a83a 09c2 883a
00000280: 6a37 40ba f575 a7ba 8385 3cba b070 163a
00000290: 5fad 2d39 0ccc b9ba 0d30 3cbb 29aa e8ba
000002a0: 4219 6c3a 20f5 f4b8 aeb7 4fba f78c 1abb
000002b0: 3268 58b9 10f9 0f3b d6e6 b23a 1dae 4c3b
000002c0: 9233 b33a 4872 613a 65f2 233b a384 b43b
000002d0: fe35 dc3a ff59 d4b9 b3c1 ea39 55a2 393b
000002e0: 2bc1 5a3b b4dc a639 e027 5abb 0526 60ba
000002f0: 2841 083b 4ae1 4e39 60ce 17ba ea71 e6ba
00000300: 4fa8 023b 853d 9e3b b490 e938 e541 3e3a
00000310: c944 723a 5bc7 4f3b df61 6d3b d268 8cba
00000320: e76d 7c3b 69eb 853a c8b2 2f3a 3bed e338
00000330: 36d8 3439 e315 893a 402d 9dba c2d0 efb8
00000340: dc02 5337 b8fb a5ba dfd8 a1ba a261 46ba
00000350: a450 7f3a 2e8a 9fba dec6 fcba df4c a3ba
00000360: 796c 39ba 41ff 89ba 9964 66bb d88b 3dbb
00000370: cfb8 e439 4c0f 96b9 f194 d7ba 3f58 0fbb
00000380: 3f99 03bb 710c e2b9 1c43 6fb9 7665 393a
00000390: 6063 96b9 7d8b 58b9 6389 81ba 08e0 1d39
000003a0: d6a0 6b3a c911 38ba d30d 0ebb 8437 2fbb
000003b0: 21a7 36bb 939e abba f0ce 0fbb 3857 6bbb
000003c0: 36dc 81bb 60bd 90bb 2075 6bbb b87e 27bb
000003d0: f93c 45ba 345f c0bb 15a4 8dbb d850 4abb
000003e0: 970f c9ba d9a5 42bb

exp_avg_sq f4 [10, 1, 5, 5]
0.00054770755 0.00040128847 0.00023588563 0.00027150588 0.0004335296 0.0006001109 0.0003573113 0.00022536519
0.0003171145 0.00063698 0.00073987385 0.00057950465 0.00045686864 0.00066745945 0.0010080053 0.000921513
0.000975359 0.0011287326 0.0013777302 0.0013818959 0.0011036074 0.0012674928 0.0015025147 0.0016930508
0.0013836676 0.00019382921 0.00020546667 0.00021282701 0.00018167557 0.00013401061 0.0002123471 0.00019706716
0.00017843216 0.00016114542 0.00014539802 0.0001587477 0.00013357727 0.0001408583 0.00014170911 0.00014802902
0.000119921664 0.00012010444 0.00014502014 0.00017318947 0.00017162709 0.000127428 0.00014451506 0.00018341411
0.00020490414 0.00019225215 0.00033282372 0.00040886112 0.00038783372 0.00028712407 0.00019426252 0.00037618648
0.00043671564 0.000343207 0.00018770239 0.00013658176 0.00042867544 0.0004041127 0.00018979529 9.3018214e-05
8.669426e-05 0.00042518607 0.00031017093 0.00011768414 6.563785e-05 8.8952664e-05 0.0003910248 0.00025990797
0.00012388614 9.391253e-05 0.00014174926 0.00024183882 0.00026596995 0.00027940565 0.00035502503 0.00039131742
0.0001816629 0.00020651183 0.00026821895 0.00037132556 0.00035273287 0.00013751199 0.000176144 0.00028199927
0.00032519124 0.00027719533 0.00017158042 0.00023880404 0.00028233216 0.00026320008 0.00020732312 0.00023962308
0.00028298405 0.00027786518 0.00023501705 0.00019309648 0.00020191722 0.00012057779 0.00012508655 0.00012405653
0.0001411985 0.00013192989 0.00011528216 0.00014738269 0.00015007364 0.00015933126 0.000114090544 9.779673e-05
0.0001307719 0.00015450382 0.00016827982 0.00011448393 0.0001072925 0.00013972002 0.00016258335 0.00017805485
0.0001544211 0.00017619526 0.00018762513 0.00016995645 0.00017414216 0.0007526779 0.0008129271 0.00075470237
0.0007609509 0.0008167802 0.0007375722 0.0007071685 0.00061793067 0.000652398 0.00070603937 0.00049249525
0.00038115232 0.00037837526 0.0004932503 0.0005484337 0.00026473022 0.00019328753 0.00022524157 0.0003397909
0.0004248252 0.0001769034 0.00015515715 0.00021218453 0.00026413784 0.00034158578 7.752747e-05 8.7587265e-05
0.00011846022 0.00013698782 0.00015379145 0.00011712644 0.0001241412 0.00013498573 0.00013731906 0.0001593563
0.00017855011 0.0001851167 0.00016279581 0.00016001562 0.00016437529 0.00021371148 0.00020799786 0.00018324539
0.00017101722 0.00015887766 0.00018565007 0.0001668924 0.0001481939 0.00013745551 0.00011930417 8.5606465e-05
0.00011607889 0.00028876177 0.0005459631 0.00055419403 6.1002054e-05 9.13987e-05 0.0003199397 0.0006030036
0.00054053846 5.3901367e-05 9.5577874e-05 0.00040082197 0.0007147633 0.0005443911 6.3059335e-05 0.00015108509
0.00052163843 0.0007605327 0.00054502266 0.000120887686 0.00032062357 0.00059193943 0.000705129 0.0005393068
0.00021360152 0.00011045118 6.974301e-05 6.1034167e-05 0.00011729604 9.639068e-05 4.6429934e-05 3.910202e-05
5.1167546e-05 0.00013772072 4.620436e-05 3.6719204e-05 3.9956372e-05 7.444369e-05 0.00022885101 3.9860275e-05
4.4183846e-05 7.5722135e-05 0.00021035483 0.0003834036 6.332451e-05 8.863944e-05 0.00022328905 0.00040062206
0.00046389177 6.339925e-05 4.308091e-05 5.7688794e-05 0.0001355433 0.00024301575 4.4573462e-05 3.171241e-05
6.306256e-05 0.00016892917 0.00030976962 7.152151e-05 8.0612765e-05 0.0001375796 0.0002682852 0.00041541885
0.00013338919 0.00017007932 0.00026251303 0.0004378344 0.00048669206 0.00018635853 0.00023982486 0.00037204011
0.0005238458 0.0004676917
00000000: 0894 0f3a 0764 d239 1158 7739 e758 8e39
00000010: 5c4b e339 c350 1d3a 8355 bb39 0250 6c39
00000020: 6342 a639 01fb 263a 18f4 413a e6e9 173a
00000030: df87 ef39 72f8 2e3a 0c1f 843a b191 713a
00000040: 3caf 7f3a fbf1 933a f494 b43a bb20 b53a
00000050: eba6 903a 0022 a63a 07f0 c43a 5ce9 dd3a
00000060: 2e5c b53a a23e 4b39 8a72 5739 512a 5f39
00000070: 2a80 3e39 3385 0c39 7ea9 5e39 d0a3 4e39
00000080: 8519 3b39 25f9 2839 fc75 1839 8375 2639
00000090: e010 0c39 5db3 1339 c097 1439 3d38 1b39
000000a0: 747e fb38 95e0 fb38 8c10 1839 329a 3539
000000b0: ccf6 3339 319e 0539 f788 1739 da52 4039
000000c0: 89db 5639 4b97 4939 d87e ae39 695c d639
000000d0: 2956 cb39 2489 9639 f3b2 4b39 e53a c539
000000e0: fbf6 e439 77f0 b339 fad1 4439 6337 0f39
000000f0: d8bf e039 17df d339 c903 4739 c612 c338
00000100: a0cf b538 82eb de39 709e a239 31cd f638
00000110: 0da7 8938 198c ba38 7602 cd39 4244 8839
00000120: 6fe7 0139 e8f2 c438 87a2 1439 1d96 7d39
00000130: e271 8b39 317d 9239 a722 ba39 bc29 cd39
00000140: c37c 3e39 198b 5839 bd9f 8c39 79ae c239
00000150: 01ef b839 1831 1039 4cb3 3839 4dd9 9339
00000160: 6e7e aa39 8754 9139 45ea 3339 7967 7a39
00000170: fb05 9439 1efe 8939 e064 5939 5543 7b39
00000180: 7a5d 9439 6fae 9139 e96e 7639 f179 4a39
00000190: beb9 5339 b5de fc38 aa29 0339 2c15 0239
000001a0: af0e 1439 a956 0a39 a3c3 f138 bd8a 1a39
000001b0: 165d 1d39 2912 2739 e543 ef38 3818 cd38
000001c0: d11f 0939 4e02 2239 4574 3039 1817 f038
000001d0: 3902 e138 cf81 1239 237b 2a39 3cb4 3a39
000001e0: 19ec 2139 0ec1 3839 3dbd 4439 5636 3239
000001f0: ee99 3639 5c4f 453a 9d1a 553a 38d7 453a
00000200: 8d7a 473a 311d 563a a259 413a 4661 393a
00000210: a0fc 213a b005 2b3a 8015 393a cc1a 013a
00000220: 66d5 c739 ab60 c639 784d 013a c3c4 0f3a
00000230: 7dcb 8a39 3aad 4a39 d32e 6c39 f625 b239
00000240: 13bb de39 257f 3939 aeb1 2239 da7d 5e39
00000250: fb7b 8a39 de16 b339 3e96 a238 0eaf b738
00000260: d96d f838 63a4 0f39 1443 2139 c7a1 f538
00000270: e62b 0239 f58a 0d39 4efd 0f39 e218 2739
00000280: 2e39 3b39 e31b 4239 2bb4 2a39 dec9 2739
00000290: 285c 2c39 bd17 6039 001a 5a39 8f25 4039
000002a0: 1653 3339 6698 2639 10ab 4239 d6ff 2e39
000002b0: 7f64 1b39 ef21 1039 f032 fa38 9f87 b338
000002c0: 616f f338 f364 9739 f71e 0f3a 5547 113a
000002d0: 75dc 7f38 4ead bf38 94bd a739 e312 1e3a
000002e0: ecb2 0d3a 2714 6238 fb70 c838 6a25 d239
000002f0: f45e 3b3a 78b5 0e3a b93e 8438 986c 1e39
00000300: 90be 083a 7c5e 473a dadf 0e3a 1585 fd38
00000310: 5e19 a839 622c 1b3a 68d8 383a 4460 0d3a
00000320: 39fa 5f39 07a2 e738 fe42 9238 f0fe 7f38
00000330: d5fc f538 5a25 ca38 c3bd 4238 7901 2438
00000340: bc9c 5638 2069 1039 8ecb 4138 f202 1a38
00000350: d496 2738 a71e 9c38 baf7 6f39 a52f 2738
00000360: 0b52 3938 03cd 9e38 b292 5c39 8f03 c939
00000370: 16cd 8438 f0e3 b938 b322 6a39 950a d239
00000380: 8036 f339 37f5 8438 c6b1 3438 dff6 7138
00000390: a120 0e39 0bd2 7e39 64f4 3a38 f102 0538
000003a0: 7440 8438 9422 3139 9368 a239 d1fd 9538
000003b0: a60e a938 3e43 1039 a1a8 8c39 93cc d939
000003c0: 63de 0b39 5257 3239 e7a1 8939 238d e539
000003d0: b42a ff39 3d69 4339 7f79 7b39 610e c339
000003e0: b252 093a 8434 f539

max_exp_avg_sq f4 [10, 1, 5, 5]
0.0005478191 0.00040133414 0.00023690877 0.00027150588 0.0004367932 0.0006001109 0.0003573113 0.00022610901
0.00031931308 0.000641188 0.00073987385 0.00057950465 0.00046000915 0.0006716643 0.001016619 0.0009216336
0.0009770863 0.0011342831 0.0013888914 0.0013927451 0.0011058929 0.0012704259 0.0015100597 0.0017110334
0.0013983287 0.00019393208 0.00020619918 0.00021519067 0.00018313972 0.00013510078 0.0002123471 0.00019837366
0.00018026306 0.00016266947 0.00014589094 0.00016075924 0.00013542791 0.00014245848 0.00014340815 0.0001483511
0.00012002845 0.00012022114 0.00014566041 0.0001749268 0.00017162709 0.00012750743 0.00014492158 0.00018400095
0.00020637175 0.00019263911 0.00033602276 0.0004114707 0.00039000952 0.0002874982 0.0001953674 0.0003804416
0.00043830476 0.00034436552 0.00018770239 0.00013693188 0.00043217657 0.00040497794 0.00019082364 9.3018214e-05
8.690602e-05 0.00042790113 0.00031146567 0.000117932155 6.568781e-05 8.9191206e-05 0.0003941011 0.00026114838
0.00012456921 9.407141e-05 0.00014199858 0.00024207574 0.0002670346 0.0002807809 0.000357733 0.00039270942
0.00018182417 0.00020753426 0.0002717426 0.00037442078 0.0003535045 0.00013780252 0.00017802314 0.0002850925
0.00032803882 0.00027947806 0.00017183252 0.00023997934 0.00028463622 0.00026441796 0.00020818305 0.00024003998
0.0002841452 0.00027961034 0.00023640996 0.0001947873 0.00020388355 0.00012208943 0.00012655312 0.00012495235
0.00014292743 0.00013462231 0.000118261305 0.00014919469 0.00015060244 0.00016000436 0.000115158036 0.00010245068
0.0001307719 0.00015450382 0.00016904208 0.00011481146 0.000108353765 0.00013974358 0.00016258335 0.00017900698
0.0001544211 0.00017642196 0.00018790897 0.00017052832 0.00017469903 0.0007585724 0.0008183367 0.0007574489
0.0007681042 0.0008244529 0.0007414232 0.00071121095 0.0006284053 0.0006553116 0.000712866 0.0004952998
0.0003829683 0.0003846533 0.00049490534 0.0005505058 0.0002657445 0.00019556492 0.00023036693 0.000341079
0.00042661215 0.00017778765 0.00015570298 0.00021284219 0.00026483598 0.00034313163 7.877286e-05 8.797391e-05
0.00011871695 0.00013816131 0.00015478737 0.000118338736 0.00012480369 0.00013511303 0.0001378835 0.00016068968
0.00017881053 0.0001854837 0.00016305849 0.00016032238 0.00016508071 0.0002141177 0.00020815418 0.00018348036
0.00017211551 0.00015953864 0.00018626718 0.00016893451 0.00015059713 0.00013927203 0.00011948691 8.566816e-05
0.00011619542 0.00028947476 0.0005472414 0.0005561193 6.126769e-05 9.180581e-05 0.00032085128 0.00060416025
0.000543085 5.4365493e-05 9.602848e-05 0.00040283147 0.0007171807 0.0005469514 6.363003e-05 0.00015185388
0.00052390643 0.0007627846 0.00054805883 0.000121173754 0.0003212001 0.0005942615 0.0007073821 0.0005430427
0.00021450358 0.00011100367 7.136348e-05 6.164763e-05 0.00011835443 9.6603515e-05 4.6476456e-05 3.9162416e-05
5.1604282e-05 0.00013856978 4.6377398e-05 3.6844514e-05 4.022396e-05 7.497821e-05 0.00023025511 4.0026407e-05
4.419041e-05 7.5896336e-05 0.00021071231 0.0003848931 6.337427e-05 8.872384e-05 0.00022351235 0.00040141822
0.00046520145 6.3543856e-05 4.32905e-05 5.8067406e-05 0.00013608139 0.00024333148 4.464848e-05 3.1864318e-05
6.34525e-05 0.0001696113 0.00031150418 7.162969e-05 8.073533e-05 0.00013765013 0.00026941055 0.0004182193
0.00013354975 0.00017028509 0.00026287962 0.00043994738 0.00048955454 0.00018645932 0.0002400403 0.0003735158
0.0005279266 0.00047025795
00000000: 849b 0f3a 286a d239 b76a 7839 e758 8e39
00000010: 6401 e539 c350 1d3a 8355 bb39 ad17 6d39
00000020: 7a69 a739 6615 283a 18f4 413a e6e9 173a
00000030: 622d f139 a112 303a 1340 853a c999 713a
00000040: 9311 803a 3aac 943a 760b b63a c58c b63a
00000050: 9cf3 903a 6b84 a63a 32ed c53a c144 e03a
00000060: 2048 b73a 3f5a 4b39 2c37 5839 cea4 6139
00000070: 3209 4039 d7a9 0d39 7ea9 5e39 8602 5039
00000080: ff04 3d39 4192 2a39 4dfa 1839 7b91 2839
00000090: a701 0e39 e860 1539 d55f 1639 b28e 1b39
000000a0: c9b7 fb38 3c1f fc38 6bbc 1839 8e6c 3739
000000b0: ccf6 3339 84b3 0539 17f6 1739 61f0 4039
000000c0: 7f65 5839 2bff 4939 362c b039 aaba d739
000000d0: 317a cc39 5bbb 9639 89db 4c39 0276 c739
000000e0: 45cc e539 f58b b439 fad1 4439 5f95 0f39
000000f0: c295 e239 3853 d439 d517 4839 c612 c338
00000100: 5041 b638 eb57 e039 374c a339 5852 f738
00000110: e0c1 8938 2a0c bb38 5b9f ce39 beea 8839
00000120: cb9e 0239 3448 c538 74e5 1439 b6d5 7d39
00000130: c700 8c39 c635 9339 1c8e bb39 91e4 cd39
00000140: 0ea8 3e39 8e9d 5939 ad78 8e39 e84d c439
00000150: 9256 b939 157f 1039 b9ab 3a39 7878 9539
00000160: a0fc ab39 e986 9239 f12d 3439 f7a2 7b39
00000170: 3a3b 9539 94a1 8a39 b64b 5a39 3eb3 7b39
00000180: 53f9 9439 aa98 9239 d1e4 7739 d13f 4c39
00000190: 93c9 5539 2205 0039 58b3 0439 a405 0339
000001a0: cade 1539 6729 0d39 0e03 f838 2571 1c39
000001b0: 09eb 1d39 d8c6 2739 0081 f138 cada d638
000001c0: d11f 0939 4e02 2239 e340 3139 efc6 f038
000001d0: fc3b e338 2288 1239 237b 2a39 d2b3 3b39
000001e0: 19ec 2139 e9fd 3839 6e09 4539 d9cf 3239
000001f0: 6a2f 3739 efda 463a a585 563a 898f 463a
00000200: 9a5a 493a 1920 583a 125c 423a 8f70 3a3a
00000210: 91bb 243a 38c9 2b3a a1df 3a3a 02d7 013a
00000220: 23c9 c839 4bab c939 89bc 013a d24f 103a
00000230: 9f53 8b39 8f10 4d39 a78e 7139 d9d2 b239
00000240: eaaa df39 826c 3a39 3344 2339 642e 5f39
00000250: afd9 8a39 59e6 b339 db32 a538 a27e b838
00000260: adf7 f838 65df 1039 6b4e 2239 a02c f838
00000270: bcdd 0239 21ad 0d39 d294 1039 cf7e 2839
00000280: 167f 3b39 677e 4239 aefa 2a39 361c 2839
00000290: 8419 2d39 c884 6039 f643 5a39 a264 4039
000002a0: e879 3439 d449 2739 b750 4339 0324 3139
000002b0: 9ce9 1d39 8d09 1239 0c95 fa38 bea8 b338
000002c0: f1ad f338 a5c4 9739 c074 0f3a 89c8 113a
000002d0: d77c 8038 de87 c038 ee37 a839 8260 1e3a
000002e0: d15d 0e3a 8106 6438 e662 c938 2033 d339
000002f0: 2f01 3c3a 4a61 0f3a 1d71 8538 f73a 1f39
00000300: c456 093a 9cf5 473a 9bab 0f3a aa1e fe38
00000310: bf66 a839 37c8 1b3a 9c6f 393a fb5a 0e3a
00000320: 5eec 6039 a4ca e838 faa8 9538 d248 8138
00000330: 0d35 f838 9e97 ca38 b7ef 4238 5342 2438
00000340: ad71 5838 0b4d 1139 5a85 4238 7f89 1a38
00000350: 26b6 2838 9f3d 9d38 a370 7139 07e2 2738
00000360: 1759 3938 892a 9f38 a8f2 5c39 7acb c939
00000370: cde7 8438 4011 ba38 a45e 6a39 7175 d239
00000380: 48e6 f339 d942 8538 d292 3538 678d 7338
00000390: 12b1 0e39 cc26 7f39 f144 3b38 0da6 0538
000003a0: cd11 8538 b0d9 3139 6251 a339 e637 9638
000003b0: 7350 a938 2d56 1039 ac3f 8d39 7244 db39
000003c0: 7d09 0c39 8e8e 3239 1bd3 8939 bda8 e639
000003d0: 7355 003a 4b84 4339 54b3 7b39 71d4 c339
000003e0: 8e64 0a3a f48c f639

exp_avg f4 [10]
-0.00058678456 0.00023285334 0.0021756426 0.001836121 -0.00013355941 -0.0015643304 -0.0010773119 0.00048237914
0.004241687 0.0020529216
00000000: 72d2 19ba 182a 7439 3a95 0e3b ffa9 f03a
00000010: 150c 0cb9 380a cdba 9734 8dba d5e7 fc39
00000020: d9fd 8a3b 4f8a 063b

exp_avg_sq f4 [10]
0.00054567866 4.68317e-05 0.00010227531 7.934233e-05 5.248243e-05 0.00034355075 4.395723e-05 0.00020432463
0.00014994657 7.150284e-05
00000000: e00b 0f3a 286d 4438 a47c d638 9764 a638
00000010: 9520 5c38 9a1e b439 b75e 3838 fa3f 5639
00000020: fa3a 1d39 cbf3 9538

max_exp_avg_sq f4 [10]
0.000550667 4.7187197e-05 0.00010248144 8.007891e-05 5.2487863e-05 0.00034573203 4.3992834e-05 0.00020564714
0.00015003396 7.2484945e-05
00000000: a35a 103a deea 4538 4eeb d638 0af0 a738
00000010: 6a26 5c38 5e43 b539 f284 3838 fca2 5739
00000020: 6f52 1d39 0f03 9838
