src/saved/models/Mnist_LeNet/1014_083735/checkpoint-epoch7.pth (torch_old, 355460 bytes, 32 tensors)

conv1.weight f4 [10, 1, 5, 5]
-0.18633029 -0.14332168 -0.1619001 0.04470113 -0.1154604 0.15984467 -0.3922306 -0.60910714
-0.46278706 -0.120059974 0.104376055 0.19819379 -0.16793324 -0.17940073 -0.11675455 0.11718939
0.1190476 0.3937184 0.14509837 0.18357207 0.18058744 0.19749443 0.26682124 0.4161567
0.0788792 0.08463313 0.019045508 0.24781807 0.15216443 -0.32504746 0.1876662 0.15124144
0.15302026 0.17034118 0.109146744 -0.07548044 -0.15535972 0.029221525 0.0030915793 0.067295745
-0.12208831 -0.046575118 -0.0066125416 0.21489926 0.040931173 -0.017355803 0.010032249 0.009602867
0.15488793 0.18904242 0.20789598 0.19249734 0.16308971 0.21484882 -0.0046163294 0.08700269
0.0755238 0.23779652 -0.10227381 -0.34884214 0.25115988 0.3408981 -0.13493383 -0.38073304
-0.25235805 0.19469145 -0.0034081163 -0.19440036 -0.45561856 0.06609768 0.28472355 0.048567638
-0.3534326 -0.2820514 0.13432023 0.06729362 0.10183222 -0.12478157 0.10091771 0.24870251
-0.03520652 -0.10037644 0.07552673 0.162866 0.019061899 -0.32813436 -0.1768729 0.26696503
0.24607573 0.06625844 -0.31806415 0.22907218 0.21567221 0.2418314 -0.15082482 0.15365191
0.2476583 0.08961967 0.047873553 -0.14795482 0.28450182 -0.16199939 -0.048982833 -0.18442473
-0.097474195 -0.0006465246 -0.08282177 0.17320241 0.13740425 -0.06151596 0.096909836 -0.3205044
0.049213436 0.026304353 -0.06058988 -0.091725506 -0.29597732 -0.02154499 0.13843074 0.26366317
-0.011830442 0.17752299 0.22492503 -0.117141835 0.20965454 0.14880183 0.36071852 0.26718232
0.22792444 0.33807206 0.086543515 0.21023293 0.11205763 -0.044294 0.060214225 -0.22601771
0.030981153 0.06213938 0.07890324 0.061753426 -0.2634525 -0.2345342 -0.08524918 0.14504302
0.12961537 -0.28146595 -0.42313418 -0.3026177 -0.408189 -0.26353565 -0.3050396 -0.1517517
-0.032263085 0.070876114 0.0031249728 -0.073750965 -0.08936396 0.03990188 -0.22679278 0.109099485
0.011311672 0.3023987 -0.069574006 0.18146616 0.24602298 0.2690163 0.1789714 0.22700974
0.18749107 0.22665794 -0.022055253 -0.17240947 -0.17962387 -0.13722284 -0.28212106 -0.26799732
-0.26775536 0.0035408165 0.30528954 0.10116162 -0.36652145 -0.1980844 0.23646118 0.038537633
-0.03714273 -0.3573753 -0.24758634 0.17790128 0.30616745 -0.086928405 -0.3840113 -0.2758459
0.11192707 0.3018738 0.02360418 -0.35128528 -0.07213301 -0.14751987 0.28176838 0.24662471
0.02370148 0.081613846 -0.03586676 -0.36176923 -0.56440485 0.068099886 -0.14295873 -0.44703966
-0.4480677 -0.07058024 -0.15786406 -0.46993858 -0.34308326 -0.24535236 0.2398081 -0.38991386
-0.29769775 -0.17982824 0.16502748 0.28187978 -0.60570043 -0.18199286 0.23331855 0.14005317
0.22541648 -0.19594134 -0.19856149 -0.3692329 -0.08436375 0.01989533 -0.12323354 -0.19339658
-0.32877642 -0.009927724 0.08263777 -0.29406682 -0.022371711 -0.022561561 -0.099789694 0.23276499
-0.05482536 -0.013385578 -0.045633145 0.12899724 0.30936506 0.03937896 -0.10195549 0.015300945
0.2545991 0.27572048
00000000: 5ecd 3ebe ebc2 12be 24c9 25be 8818 373d
00000010: 8176 ecbd 52ae 233e 73d2 c8be 72ee 1bbf
00000020: 6df2 ecbe 01e2 f5bd 1dc3 d53d 50f3 4a3e
00000030: b1f6 2bbe d3b4 37be 021d efbd fe00 f03d
00000040: 3acf f33d 7595 c93e ab94 143e 51fa 3b3e
00000050: eaeb 383e fb3b 4a3e cb9c 883e 7e12 d53e
00000060: 6b8b a13d 2254 ad3d 5305 9c3c 05c4 7d3e
00000070: fed0 1b3e 9f6c a6be 912b 403e 09df 1a3e
00000080: 58b1 1c3e eb6d 2e3e 5488 df3d 7d95 9abd
00000090: 9e16 1fbe fb61 ef3c 189c 4a3b 5ad2 893d
000000a0: 7009 fabd 8dc5 3ebd 05ae d8bb 8d0e 5c3e
000000b0: 72a7 273d c22d 8ebc 4d5e 243c 5855 1d3c
000000c0: f19a 1e3e 5694 413e afe2 543e 061e 453e
000000d0: fd00 273e 5401 5c3e 9444 97bb 772e b23d
000000e0: 39ac 9a3d ee80 733e ee74 d1bd 709b b2be
000000f0: 0798 803e 328a ae3e 182c 0abe 71ef c2be
00000100: 1335 81be 325d 473e b45a 5fbb e310 47be
00000110: d646 e9be 385e 873d 49c7 913e dcee 463d
00000120: 1ef5 b4be 0b69 90be 3e8b 093e 3dd1 893d
00000130: 698d d03d 7b8d ffbd f2ad ce3d dfab 7e3e
00000140: b634 10bd 2a92 cdbd c2ad 9a3d 58c6 263e
00000150: b327 9c3c 3a01 a8be 2b1e 35be a4af 883e
00000160: 47fb 7b3e 81b2 873d 4ed9 a2be e691 6a3e
00000170: 2dd9 5c3e a7a2 773e d271 1abe ed56 1d3e
00000180: 239a 7d3e 848a b73d 0f17 443d 7881 17be
00000190: 39aa 913e 2be3 25be 39a2 48bd d6d9 3cbe
000001a0: 8da0 c7bd 887b 29ba 769e a9bd f95b 313e
000001b0: b3b3 0c3e 29f8 7bbd aa78 c63d 2719 a4be
000001c0: 0794 493d 3a7c d73c 182d 78bd 95da bbbd
000001d0: 578a 97be 1e7f b0bc cac0 0d3e dcfe 863e
000001e0: 78d4 41bc 96c8 353e bf52 663e 0fe8 efbd
000001f0: aeaf 563e 825f 183e 19b0 b83e 1fcc 883e
00000200: 0665 693e c817 ad3e ba3d b13d 4d47 573e
00000210: 797e e53d a06d 35bd 31a3 763d 3071 67be
00000220: 30cc fd3c dd85 7e3d 0698 a13d 29f1 7c3d
00000230: 3fe3 86be bc29 70be 1f97 aebd 2886 143e
00000240: e4b9 043e 4e1c 90be 0ba5 d8be b5f0 9abe
00000250: 26fe d0be 25ee 86be 272e 9cbe cc64 1bbe
00000260: 4c26 04bd 7f27 913d 58cc 4c3b bf0a 97bd
00000270: 7404 b7bd 2770 233d 5e3c 68be 8d6f df3d
00000280: 9754 393c 01d4 9a3e d17c 8ebd 44d2 393e
00000290: 73ed 7b3e 81bc 893e 4744 373e 3e75 683e
000002a0: a9fd 3f3e 0519 683e 38ad b4bc 1c8c 30be
000002b0: 52ef 37be 2584 0cbe 2c72 90be f236 89be
000002c0: 3b17 89be 0b0d 683b e94e 9c3e d32d cf3d
000002d0: b3a8 bbbe a3d6 4abe e122 723e a3d9 1d3d
000002e0: fa22 18bd e5f9 b6be 4687 7dbe c12b 363e
000002f0: fbc1 9c3e 8507 b2bd 219d c4be ac3b 8dbe
00000300: 053a e53d 348f 9a3e 8e5d c13c aadb b3be
00000310: 79ba 93bd 730f 17be f243 903e 308b 7c3e
00000320: 9b29 c23c 2925 a73d 06e9 12bd d139 b9be
00000330: d67c 10bf f477 8b3d c663 12be 62e2 e4be
00000340: 2169 e5be 5f8c 90bd 1ea7 21be ca9b f0be
00000350: 9ca8 afbe a63d 7bbe 4190 753e caa2 c7be
00000360: d76b 98be e524 38be f7fc 283e 8c52 903e
00000370: 2f0f 1bbf 565c 3abe 0feb 6e3e 196a 0f3e
00000380: 94d3 663e d9a4 48be b453 4bbe 180c bdbe
00000390: e7c6 acbd 88fb a23c de61 fcbd c109 46be
000003a0: 6255 a8be e4a7 22bc fe3d a93d ed8f 96be
000003b0: e144 b7bc 06d3 b8bc 8a5e ccbd f259 6e3e
000003c0: 8f90 60bd 2f4f 5bbc d2e9 3abd da17 043e
000003d0: 1965 9e3e d54b 213d 0ace d0bd d1b0 7a3c
000003e0: d05a 823e 3c2b 8d3e

conv1.bias f4 [10]
0.21615848 -0.10089219 0.04339975 -0.25772277 0.06416861 0.16558681 0.06113611 -0.2832091
0.106610544 -0.02622671
00000000: a658 5d3e 91a0 cebd f0c3 313d 3df4 83be
00000010: d56a 833d 978f 293e dc69 7a3d c800 91be
00000020: a156 da3d 66d9 d6bc

conv2.weight f4 [20, 10, 5, 5]
0.017184135 -0.0032238385 -0.05010973 -0.030662652 -0.12681967 0.12178738 0.16238189 0.09884919
0.002556396 -0.085519455 0.054972243 0.11196702 0.05570961 -0.040925376 -0.0521044 0.0072263232
0.0029884973 -0.040074524 -0.075720735 -0.14966315 0.16179296 -0.10945542 -0.020154553 -0.061240535
-0.14282793 -0.023152083 -0.022411095 -0.068105176 -0.018954463 0.005443143 0.0649764 -0.009819147
0.022309912 -0.018087594 0.0017469428 0.058632668 0.017421102 0.0034752744 0.05239837 0.029453704
-0.0028570967 0.06292628 0.025851004 0.02576795 -0.026147854 -0.05470069 -0.045925174 -0.061140236
-0.018665088 -0.020451145 -0.040817853 0.09323449 0.0044801226 0.024592604 -0.09609683 -0.049424056
-0.17459778 -0.029708369 0.06973317 -0.07070456 -0.13478251 -0.10927041 0.053790223 0.0058241296
-0.03960489 0.028771412 0.019945096 0.04985649 -0.091402434 -0.0026849727 0.09986275 -0.033968907
0.017360235 0.06211507 0.09520587 0.043882582 -0.08422666 -0.07320521 0.1071863 0.0961081
-0.015150846 0.06878439 -0.027360722 -0.017258259 -0.022801545 0.03493639 -0.018984756 -0.016540933
0.059094995 0.035067424 0.03836897 0.0069185067 0.041190192 -0.03761718 -0.011022659 0.01987073
0.0030598366 0.0057524266 -0.022697546 -0.08349558 0.033419352 -0.004381428 -0.034177423 0.03581381
0.04805155 0.11278894 0.09964874 0.08117402 0.05605604 -0.04558586 0.08739863 0.024205014
0.0873736 0.061986834 -0.04440106 0.01138432 0.050824262 0.026285116 -0.08217693 -0.10969871
-0.005277966 0.01168449 0.008683149 -0.054230623 -0.24380718 -0.04752822 -0.17269982 -0.19156289
-0.21121933 -0.1825247 0.044708733 -0.07882978 -0.17225233 -0.08185912 0.0122187175 0.028471928
0.05368291 0.097949244 -0.014450156 -0.0065518175 0.15380846 0.11262293 0.015761195 0.11554325
0.054192007 -0.046669897 0.02219787 -0.056953598 0.0314102 0.051147718 0.106950775 0.004595667
-0.0735222 0.042763796 -0.037246298 0.011214213 -0.007636149 0.064859755 0.02612515 0.06661975
0.07373073 0.07327617 0.07889921 -0.0118616875 0.0014644376 0.0073013934 0.10915532 0.12167427
0.04449752 0.06511671 -0.028257987 -0.015856357 -0.024588505 -0.06779838 -0.12436262 -0.06830514
-0.14331706 -0.1527533 0.08378706 0.05604142 -0.0397804 -0.06973339 -0.14810432 0.0058907187
0.08521242 -0.09896882 -0.06397026 -0.052460533 0.031160343 0.011117833 -0.07982099 -0.1487517
-0.01598534 0.10316124 -0.069757 -0.078110084 -0.10128474 -0.0134927565 -0.005206872 -0.10906319
0.025753094 -0.12468562 -0.06920928 -0.027967516 0.08063151 -0.0526073 -0.13787399 -0.019120011
0.009240131 0.086980246 -0.11081022 -0.17545356 -0.09903824 -0.111934915 0.0073506357 -0.027336035
0.03229695 -0.054548938 -0.051230658 0.0892783 0.14871031 0.049119197 0.034170497 0.104881145
0.044358935 -0.040692706 -0.15410271 -0.02129655 0.08241563 0.05798277 -0.06391611 -0.08746319
0.022354282 0.09965513 0.04740949 -0.00547738 -0.017048493 -0.0047134473 0.10624067 0.069349475
0.01016797 0.031984914 0.053410623 0.060355783 -0.047309425 0.002453967 -0.06418391 0.047060445
0.07126413 -0.08248495 -0.030983448 -0.056760725 0.017345246 -0.0705423 -0.03468486 0.0854155
00000000: bec5 8c3c 0947 53bb dc3f 4dbd 3e30 fbbc
00000010: 04dd 01be a96b f93d 7047 263e 7271 ca3d
00000020: 3589 273b d324 afbd 932a 613d f74e e53d
00000030: c32f 643d 5ea1 27bd 6c6b 55bd cbca ec3b
00000040: aada 433b 2f25 24bd 7913 9bbd 4c41 19be
00000050: 0ead 253e 2a2a e0bd 291b a5bc 5bd7 7abd
00000060: 7c41 12be 70a9 bdbc 7997 b7bc ba7a 8bbd
00000070: 6446 9bbc 655c b23b 5912 853d 7de0 20bc
00000080: 47c3 b63c 6f2c 94bc acf9 e43a cf28 703d
00000090: b3b6 8e3c 6ec1 633b ac9f 563d e548 f13c
000000a0: 213e 3bbb 7edf 803d 7cc5 d33c 4f17 d33c
000000b0: 0634 d6bc d50d 60bd 091c 3cbd 2f6e 7abd
000000c0: 87e7 98bc 2989 a7bc 9f30 27bd b9f1 be3d
000000d0: fecd 923b 6e76 c93c 6ace c4bd e170 4abd
000000e0: c3c9 32be f75e f3bc 44d0 8e3d 8dcd 90bd
000000f0: 6d04 0abe 2ac9 dfbd 2353 5c3d 57d8 be3b
00000100: bd38 22bd 06b2 eb3c e663 a33c 5236 4c3d
00000110: 3331 bbbd 5ef6 2fbb d784 cc3d fb22 0bbd
00000120: 0d37 8e3c 5f6c 7e3d 4cfb c23d 39be 333d
00000130: 077f acbd 9dec 95bd 7e84 db3d 53d4 c43d
00000140: 413b 78bc d5de 8c3d 9823 e0bc 3161 8dbc
00000150: 4eca babc 7619 0f3d eb85 9bbc da80 87bc
00000160: 980d 723d dca2 0f3d c828 1d3d a4b4 e23b
00000170: 0cb7 283d 7914 1abd 6298 34bc f1c7 a23c
00000180: 8a87 483b da7e bc3b 34f0 b9bc bbff aabd
00000190: bbe2 083d 1592 8fbb a0fd 0bbd 80b1 123d
000001a0: b4d1 443d e3fd e63d a314 cc3d 913e a63d
000001b0: 059b 653d 3db8 3abd 0efe b23d 9849 c63c
000001c0: eef0 b23d e8e5 7d3d e3dd 35bd 4d85 3a3c
000001d0: 1a2d 503d e253 d73c 614c a8bd b8a9 e0bd
000001e0: caf2 acbb 4e70 3f3c c443 0e3c ee20 5ebd
000001f0: 97a8 79be f3ac 42bd 39d8 30be 1029 44be
00000200: e149 58be c1e7 3abe 8120 373d 8271 a1bd
00000210: ea62 30be c1a5 a7bd 0431 483c f63d e93c
00000220: 9ce2 5b3d 9d99 c83d 59c0 6cbc a1b0 d6bb
00000230: f77f 1d3e daa6 e63d 9f1d 813c f1a1 ec3d
00000240: 70f8 5d3d ef28 3fbd 4fd8 b53c 2d48 69bd
00000250: fba7 003d 4580 513d 0209 db3d 4097 963b
00000260: cf92 96bd 1729 2f3d 938f 18bd d2bb 373c
00000270: a938 fabb 31d5 843d 6904 d63c ef6f 883d
00000280: 2300 973d d111 963d e995 a13d 8657 42bc
00000290: 5ff2 bf3a 8740 ef3b d38c df3d 5c30 f93d
000002a0: 0843 363d e95b 853d 4b7d e7bc 31e5 81bc
000002b0: d56d c9bc e1d9 8abd d4b1 febd 91e3 8bbd
000002c0: b5c1 12be 5c6b 1cbe 8d98 ab3d b08b 653d
000002d0: c6f0 22bd 61d0 8ebd a9a8 17be ee06 c13b
000002e0: d983 ae3d 2ab0 cabd d702 83bd dbe0 56bd
000002f0: fa43 ff3c 9227 363c 3079 a3bd 5e52 18be
00000300: b0f3 82bc 3346 d33d c2dc 8ebd 2ef8 9fbd
00000310: 606e cfbd b910 5dbc 689e aabb 865c dfbd
00000320: 27f8 d23c 2d5b ffbd 98bd 8dbd 221c e5bc
00000330: 2222 a53d c17a 57bd d72e 0dbe 92a1 9cbc
00000340: eb63 173c b322 b23d 78f0 e2bd 19aa 33be
00000350: 90d4 cabd 223e e5bd 9add f03b d2ef dfbc
00000360: cf49 043d b56e 5fbd 3dd7 51bd 8bd7 b63d
00000370: 8447 183e 3631 493d 5df6 0b3d edcb d63d
00000380: b7b1 353d 65ad 26bd 1acd 1dbe 1a76 aebc
00000390: 87c9 a83d 577f 6d3d 73e6 82bd e71f b3bd
000003a0: 5420 b73c fd17 cc3d 7430 423d 987b b3bb
000003b0: 48a9 8bbc 4373 9abb b594 d93d 1907 8e3d
000003c0: 8f97 263c 9d02 033d 19c5 5a3d a037 773d
000003d0: 87c7 41bd bcd2 203b db72 83bd 74c2 403d
000003e0: eef2 913d dfed a8bd 00d1 fdbc ef7d 68bd
000003f0: 9e17 8e3c 7b78 90bd b611 0ebd 52ee ae3d

conv2.bias f4 [20]
0.033296093 -0.07450314 -0.041692425 -0.009192802 0.047017958 0.016542666 -0.026884187 0.059844583
0.04550619 0.10745103 -0.013122122 0.08381308 -0.083904155 0.049458925 0.051445127 0.022488017
-0.052916426 -0.067991965 -0.0035599316 0.06704248
00000000: 7c61 083d 1a95 98bd adc5 2abd 689d 16bc
00000010: e795 403d 7c84 873c 3a3c dcbc 981f 753d
00000020: b364 3a3d 490f dc3d 2bfe 56bc 31a6 ab3d
00000030: f1d5 abbd 7195 4a3d 20b8 523d ca38 b83c
00000040: e5be 58bd 5f3f 8bbd be4d 69bb 914d 893d

fc1.weight f4 [50, 320]
0.02619756 0.06081582 0.018065402 0.09238769 0.13369344 0.062252052 -0.05796365 -0.029782465
0.009257402 -0.18213902 -0.13755888 -0.07895683 -0.028628575 -0.03329739 0.028376482 -0.02759369
0.03942499 -0.011129329 0.05936917 0.12811248 0.014857478 -0.014961586 0.04271122 -0.030401409
-0.012892515 -0.025919527 0.047471456 0.09106659 -0.026577597 -0.042890187 -0.072393835 -0.017549688
0.03020703 0.04700654 0.0025761686 -0.015342909 -0.061881863 -0.026822269 0.024735367 -0.09926498
-0.09595076 0.026444454 -0.030777344 -0.053231515 -0.04205951 0.04093215 0.0014906699 0.1318177
-0.060610007 -0.017766595 -0.11329731 -0.16220453 -0.006539329 -0.05447383 0.042828593 0.061253626
-0.007095681 -0.08891788 0.010970929 0.06990775 -0.06541598 -0.03133436 0.09276369 0.079618044
-0.06418424 -0.07320535 -0.083228216 -0.027474644 0.0064224643 -0.12385651 0.08185657 0.11221367
0.084012985 -0.0012390554 -0.053812914 -0.059218217 0.096967734 -0.016822409 -0.09445863 -0.051996194
0.03330795 0.027428307 0.008075125 0.02455929 -0.0056563336 -0.23473252 -0.10151627 -0.07007387
-0.15809877 0.003470365 -0.0039744736 -0.03376358 0.037152853 0.06080258 -0.0047041653 -0.096026115
0.0018081007 0.08420552 0.15155086 0.06605674 -0.05073534 -0.07208112 -0.004925226 -0.11321877
-0.04832714 0.010355961 0.07195352 -0.038809203 0.057794992 0.03557319 0.018031066 -0.037968498
-0.0034950383 -0.008197044 -0.018230572 0.05140414 0.045371544 -0.03240268 -0.0036595522 0.051408205
-0.005272432 0.06538916 0.038560838 0.03119482 -0.005850971 -0.0025281839 -0.023521533 -0.010696728
-0.006026356 -0.1010387 -0.049091276 0.0061696293 -0.065035276 -0.071574435 -0.014945591 0.13050093
-0.030695634 0.019191379 -0.059988383 -0.008186217 0.042647466 -0.002404391 0.015999561 -0.03017381
0.070323385 -0.0021858998 -0.005089735 0.07015428 0.083501555 -0.09696646 0.08083503 0.060527124
-0.05513464 -0.071754955 -0.057704855 -0.055691935 -0.021635149 -0.055002913 -0.14764346 -0.13507912
-0.06464192 -0.03709409 -0.12028314 -0.0051726503 -0.016261945 0.00721602 -0.10725307 0.013340446
0.027605994 0.03539634 -0.08541445 -0.012134861 0.083736785 0.06839955 0.00747518 -0.020203164
0.08798481 0.06748019 0.022069793 0.03787847 -0.16878991 -0.115925014 -0.17597982 0.03879713
-0.10511522 -0.00548627 0.0003000846 -0.1293893 -0.06724306 0.11805096 -0.011111194 -0.22372316
-0.0060549495 -0.13768828 -0.044926323 0.02933218 7.846206e-06 0.024061766 0.029820874 0.00484695
0.12389263 -0.006858449 0.037054338 0.00146594 0.02876758 0.047988426 -0.0110953925 -0.038683753
-0.033342935 -0.0772615 -0.04946003 -0.022431953 -0.0016992197 0.03221415 0.00042536974 -0.07878522
0.107063346 0.017414393 -0.049795102 0.053723335 -0.01424508 -0.06299482 0.08988662 0.023827508
0.035825916 -0.1790131 -0.10233367 -0.04850391 -0.014276074 0.05016925 0.10358367 0.006140504
0.018403674 0.14279863 0.054335196 0.006734144 0.02392254 0.046110738 0.07740061 0.010310109
-0.07040294 0.026188958 -0.065973274 -0.11346811 0.05371864 -0.043633882 0.083845444 -0.051862407
-0.029878873 0.033965796 0.029669726 0.0020433909 0.06004828 0.09614139 0.06500779 -0.07917634
00000000: 449c d63c 021a 793d e5fd 933c c235 bd3d
00000010: efe6 083e 02fc 7e3d 4b6b 6dbd 5bfa f3bc
00000020: 5cac 173c a782 3abe 3cdc 0cbe 1eb4 a1bd
00000030: 7986 eabc d862 08bd cc75 e83c 2a0c e2bc
00000040: 197c 213d ca57 36bc 162d 733d eb2f 033e
00000050: c86c 733c 7121 75bc f6f1 2e3d 600c f9bc
00000060: 213b 53bc 3055 d4bc 6e71 423d 1f81 ba3d
00000070: 43b9 d9bc 9fad 2fbd 3843 94bd 5dc4 8fbc
00000080: bc74 f73c ee89 403d f0d4 283b d360 7bbc
00000090: d677 7dbd 60ba dbbc d3a1 ca3c 704b cbbd
000000a0: d581 c4bd 0aa2 d83c c520 fcbc 4a09 5abd
000000b0: 9846 2cbd 78a8 273d 9562 c33a 38fb 063e
000000c0: 3342 78bd 408b 91bc 6c08 e8bd f218 26be
000000d0: de47 d6bb f31f 5fbd 096d 2f3d 15e5 7a3d
000000e0: e382 e8bb 941a b6bd 69bf 333c cb2b 8f3d
000000f0: d0f8 85bd 7558 00bd e4fa bd3d c90e a33d
00000100: 0773 83bd b0ec 95bd 8e73 aabd 8112 e1bc
00000110: 8973 d23b 7ba8 fdbd 6ba4 a73d 48d0 e53d
00000120: 000f ac3d cd67 a2ba ee6a 5cbd cd8e 72bd
00000130: 0597 c63d 26cf 89bc 8773 c1bd f6f9 54bd
00000140: eb6d 083d 54b1 e03c 874d 043c 9030 c93c
00000150: c458 b9bb b95d 70be c3e7 cfbd e482 8fbd
00000160: a5e4 21be 106f 633b 4d3c 82bb ae4b 0abd
00000170: 972d 183d 200c 793d 6625 9abb 57a9 c4bd
00000180: cbfd ec3a f273 ac3d 2630 1b3e c248 873d
00000190: dccf 4fbd 449f 93bd ca63 a1bb 3edf e7bd
000001a0: aef2 45bd 0cac 293c 5e5c 933d 66f6 1ebd
000001b0: 71ba 6c3d 31b5 113d e3b5 933c db84 1bbd
000001c0: 030d 65bb e54c 06bc 4858 95bc 268d 523d
000001d0: 83d7 393d acb8 04bd 19d5 6fbb 6991 523d
000001e0: 5ec4 acbb c0ea 853d f8f1 1d3d 478c ff3c
000001f0: 81b9 bfbb e3af 25bb 3bb0 c0bc 5441 2fbc
00000200: bd78 c5bb 61ed cebd ef13 49bd 9a2a ca3b
00000210: 3731 85bd 9e95 92bd 5ade 74bc 09a2 053e
00000220: 6975 fbbc 3d37 9d3c 61b6 75bd 7c1f 06bc
00000230: 1caf 2e3d fd92 1dbb 8311 833c 112f f7bc
00000240: b505 903d 5041 0fbb cbc7 a6bb 0cad 8f3d
00000250: dd02 ab3d 5a96 c6bd d68c a53d 4aeb 773d
00000260: dcd4 61bd 43f4 92bd ed5b 6cbd 3a1d 64bd
00000270: 323c b1bc bc4a 61bd d92f 17be 2e52 0abe
00000280: fc62 84bd f9ef 17bd 0257 f6bd 567f a9bb
00000290: c537 85bc 5d74 ec3b 7fa7 dbbd e391 5a3c
000002a0: f725 e23c c1fb 103d c5ed aebd 4cd1 46bc
000002b0: 317e ab3d 1015 8c3d 5bf2 f43b 1b81 a5bc
000002c0: 6131 b43d 0e33 8a3d b6cb b43c 7426 1b3d
000002d0: 43d7 2cbe 186a edbd 0e34 34be bde9 1e3d
000002e0: a646 d7bd 2bc6 b3bb ac54 9d39 a17e 04be
000002f0: bbb6 89bd b4c4 f13d ba0b 36bc af17 65be
00000300: 9968 c6bb 28fe 0cbe aa04 38bd 0a4a f03c
00000310: 33a3 0337 2e1d c53c e84a f43c 2ad3 9e3b
00000320: 6bbb fd3d d7bc e0bb 4ac6 173d c924 c03a
00000330: fda9 eb3c 838f 443d 73c9 35bc db72 1ebd
00000340: 9a92 08bd 473b 9ebd 9a96 4abd 37c3 b7bc
00000350: 5ab8 deba fcf2 033d 2904 df39 255a a1bd
00000360: 0744 db3d a1a8 8e3c f3f5 4bbd 000d 5c3d
00000370: 3264 69bc 6e03 81bd 7a16 b83d e831 c33c
00000380: 32be 123d 364f 37be 5194 d1bd 09ac 46bd
00000390: 32e6 69bc 467e 4d3d ad23 d43d 4836 c93b
000003a0: 4dc3 963c ce39 123e 958e 5e3d 18aa dc3b
000003b0: 34f9 c33c 9dde 3c3d 3684 9e3d bbeb 283c
000003c0: 6b2f 90bd 3a8a d63c ff1c 87bd f861 e8bd
000003d0: 1408 5c3d 71b9 32bd 29b7 ab3d ad6d 54bd
000003e0: 8ac4 f4bc b81f 0b3d ed0d f33c 69ea 053b
000003f0: 2ff5 753d c7e5 c43d ce22 853d 3427 a2bd

fc1.bias f4 [50]
0.102779366 0.0067090583 0.079050004 0.13998997 0.03929763 0.12660648 0.071054295 0.14073277
0.052688643 -0.013317525 0.031078534 0.030879669 0.18231004 0.20266105 0.09381989 0.13614352
0.053031795 0.07274 0.008943084 0.1378446 0.11244488 0.0640512 0.018098528 0.035706427
0.095854 -0.008645692 0.024630114 0.054682974 0.10707697 0.08331733 0.09194385 0.10789507
0.10926451 0.08309611 0.058905177 0.043328393 0.15507294 0.08815062 0.0053766295 0.08883305
0.07918748 0.09931904 -0.0038670404 0.012089607 0.114026986 0.009206151 0.15128517 0.060109958
0.032731187 0.06398306
00000000: fd7d d23d a9d7 db3b f8e4 a13d 8859 0f3e
00000010: 8df6 203d 21a5 013e ea84 913d 401c 103e
00000020: 0cd0 573d c031 5abc 6998 fe3c 5cf7 fc3c
00000030: 7caf 3a3e 6186 4f3e a424 c03d 3569 0b3e
00000040: de37 593d b6f8 943d 0386 123c 2327 0d3e
00000050: 8049 e63d 472d 833d 5d43 943c e740 123d
00000060: 1a4f c43d a9a6 0dbc 18c5 c93c 41fb 5f3d
00000070: 2c4b db3d 47a2 aa3d 0f4d bc3d 17f8 dc3d
00000080: 12c6 df3d 4b2e aa3d 8e46 713d 1d79 313d
00000090: 71cb 1e3e 5088 b43d 702e b03b 1aee b53d
000000a0: 0c2d a23d c867 cb3d 2c6e 7dbb 7d13 463c
000000b0: fb86 e93d 65d5 163c 80ea 1a3e dc35 763d
000000c0: 2311 063d 8d09 833d

fc2.weight f4 [10, 50]
0.20453268 -0.2967967 0.12097352 -0.25082123 -0.15402651 -0.27049336 0.06381055 -0.16087522
-0.1038497 -0.079853304 -0.22772893 0.1117594 -0.14183806 -0.15685487 0.010216104 -0.24331212
-0.2650486 -0.16366336 0.14808607 -0.10500367 0.14097327 -0.035459395 -0.13611037 0.12649392
-0.26048717 0.13121934 -0.17448074 -0.1270099 -0.20478517 0.1111218 -0.18362346 0.10368035
0.13216074 -0.05292816 -0.16032566 0.08157352 0.09955531 0.10999685 0.10149713 0.17001106
0.08243968 0.099365294 -0.14593054 0.17688349 -0.12237991 0.096322596 0.14504209 -0.070631914
-0.1453322 0.08893541 0.046933815 -0.101483405 -0.23483287 0.15943474 0.116387606 0.09681852
0.14111045 0.17574443 -0.23871502 -0.09330305 -0.09462772 -0.13794366 0.10264647 0.11515546
-0.23075545 0.15123749 -0.16315025 0.09540005 0.10055107 0.08657902 -0.16876313 -0.19555026
-0.23865688 0.1542695 0.09889179 -0.22307652 -0.14892723 -0.13788037 0.103409745 -0.028413955
0.07877081 0.11749978 0.11181273 0.072289 0.1151886 -0.112452984 -0.26198336 -0.024787636
-0.30242455 -0.23601994 -0.15176438 -0.16461729 -0.19271822 -0.05551839 0.07353841 -0.25835624
0.14126286 -0.32642657 0.18135473 -0.2807811 -0.01769963 -0.09024536 -0.21129508 0.14583527
-0.13735922 -0.39833724 0.15294787 -0.13113841 -0.20006965 0.14649092 -0.03334613 0.04175245
-0.12253814 -0.13785914 -0.2456471 0.069576986 -0.051075894 -0.22808164 0.14177246 0.13161814
-0.15247135 0.036693376 0.030974276 0.05717729 0.12964329 0.1263541 0.110813774 -0.18693374
0.12135426 0.13242505 0.101396665 0.13390405 0.10896757 0.050133105 -0.2658893 -0.0010283875
-0.18002138 0.11522739 0.08468952 -0.08778169 -0.03337791 0.07082968 0.12025345 0.15330045
0.06716644 0.065709166 -0.17070693 -0.03075827 -0.12179673 -0.03935874 -0.12345155 -0.029758114
-0.1986919 -0.08054007 -0.13659318 -0.07401254 -0.14492425 -0.2226832 0.08446916 0.16281365
0.11916502 0.09455513 0.11879049 -0.24651581 -0.18336402 0.146383 0.048686452 0.11235267
-0.015947115 0.11973283 -0.15899052 0.15169379 -0.18836746 -0.19785327 -0.0748115 -0.124466136
-0.08823045 0.13101076 0.13152137 0.13773385 0.097056516 -0.029582644 -0.16121393 0.036660135
-0.01609387 -0.0723682 0.11248845 0.12811786 0.013794817 -0.021789204 0.024090013 -0.036546595
0.021332113 -0.041728016 0.09343393 -0.06335828 -0.15835829 -0.21974067 -0.12352948 0.07573821
-0.027700612 0.11598558 -0.15391909 0.08918073 0.13442113 0.027257757 0.13585657 0.1689433
0.017779266 0.1331492 0.1155462 -0.28292018 -0.018091615 0.06310376 0.08484452 0.11751038
0.12895435 -0.036141504 0.099500336 -0.19927344 0.02302857 -0.14312372 0.13514563 0.14747532
-0.039496336 0.083849244 0.1393027 0.13718115 -0.030541094 -0.15573813 -0.1775309 -0.086606026
0.039715413 -0.16125774 0.09884122 -0.12589835 0.067847066 -0.17663027 0.11042279 0.066196516
-0.14913131 -0.16495076 -0.2046664 -0.044265084 -0.1943134 0.080589 -0.120778054 0.15695456
0.17502297 -0.3317659 -0.08514962 0.087750286 0.122654475 0.004177585 0.13798717 0.044549152
00000000: 0471 513e bdf5 97be f7c0 f73d a46b 80be
00000010: 20b9 1dbe 1b7e 8abe 1baf 823d 79bc 24be
00000020: 27af d4bd 218a a3bd c631 69be 1de2 e43d
00000030: ff3d 11be 909e 20be 7261 273c d026 79be
00000040: 73b4 87be 5e97 27be e0a3 173e 2a0c d7bd
00000050: 4c5b 103e df3d 11bd 8460 0bbe 9f87 013e
00000060: 935e 85be 5d5e 063e 14ab 32be e20e 02be
00000070: 34b3 51be d493 e33d ca07 3cbe 5d56 d43d
00000080: 2555 073e 33cb 58bd 692c 24be 0510 a73d
00000090: a8e3 cb3d 0746 e13d badd cf3d 6117 2e3e
000000a0: 23d6 a83d 0880 cb3d d16e 15be f220 353e
000000b0: 51a2 fabd c844 c53d ea85 143e 77a7 90bd
000000c0: f7d1 14be c523 b63d ac3d 403d 88d6 cfbd
000000d0: 0778 70be dc42 233e a05c ee3d ca48 c63d
000000e0: 427f 103e 59f6 333e b671 74be ab15 bfbd
000000f0: 2ecc c1bd 1a41 0dbe 5038 d23d a0d6 eb3d
00000100: 284b 6cbe 00de 1a3e dc10 27be 1a61 c33d
00000110: b8ed cd3d 5750 b13d 3ed0 2cbe 543e 48be
00000120: 7862 74be d3f8 1d3e c787 ca3d 2c6e 64be
00000130: 6180 18be 8330 0dbe 7dc8 d33d 62c4 e8bc
00000140: 9752 a13d baa3 f03d 13fe e43d 410c 943d
00000150: 00e8 eb3d c04d e6bd af22 86be 710f cbbc
00000160: 64d7 9abe 36af 71be 1f68 1bbe 6f91 28be
00000170: ed57 45be 4067 63bd 4e9b 963d 4547 84be
00000180: 36a7 103e 6221 a7be 0eb5 393e 8ac2 8fbe
00000190: d1fe 90bc 8fd2 b8bd bd5d 58be d755 153e
000001a0: e5a7 0cbe dcf2 cbbe 5e9e 1c3e 2649 06be
000001b0: 0fdf 4cbe b701 163e f495 08bd 9e04 2b3d
000001c0: 47f5 fabd f22a 0dbe ea8a 7bbe 617e 8e3d
000001d0: f534 51bd 3c8e 69be cd2c 113e e8c6 063e
000001e0: 7321 1cbe cb4b 163d c4bd fd3c bc32 6a3d
000001f0: 36c1 043e f862 013e 55f2 e23d 8f6b 3fbe
00000200: 9588 f83d 6f9a 073e 0ea9 cf3d 251e 093e
00000210: 642a df3d 5f58 4d3d a422 88be f5ca 86ba
00000220: 8657 38be 56fc eb3d b371 ad3d e3c6 b3bd
00000230: 46b7 08bd 270f 913d 7147 f63d cbfa 1c3e
00000240: 8f8e 893d 8792 863d cccd 2ebe c4f8 fbbc
00000250: 9070 f9bd a136 21bd 2bd4 fcbd 4ac7 f3bc
00000260: e475 4bbe 31f2 a4bd 15df 0bbe e393 97bd
00000270: 0667 14be 1107 64be 2bfe ac3d 9fb8 263e
00000280: ca0c f43d 1fa6 c13d 6e48 f33d a46e 7cbe
00000290: c7c3 3bbe 6de5 153e 726b 473d 2819 e63d
000002a0: 86a3 82bc 7c36 f53d 69ce 22be 9e55 1b3e
000002b0: 66e3 40be 0c9a 4abe c636 99bd 1ae8 febd
000002c0: 2bb2 b4bd af27 063e 8aad 063e 1a0a 0d3e
000002d0: 91c5 c63d 4d57 f2bc 4415 25be f028 163d
000002e0: 4bd7 83bc c735 94bd 5860 e63d 5431 033e
000002f0: a803 623c 467f b2bc 6b58 c53c e2b1 15bd
00000300: afc0 ae3c ffea 2abd 4a5a bf3d fcc1 81bd
00000310: ad28 22be b303 61be 06fd fcbd a21c 9b3d
00000320: 65ec e2bc d989 ed3d f79c 1dbe 63a4 b63d
00000330: b1a5 093e a94b df3c fc1d 0b3e 79ff 2c3e
00000340: d3a5 913c 4458 083e 7ca3 ec3d eada 90be
00000350: de34 94bc 8b3c 813d f7c2 ad3d 48a9 f03d
00000360: 9c0c 043e 1d09 14bd d5c6 cb3d 560e 4cbe
00000370: 69a6 bc3c 068f 12be 9e63 0a3e c503 173e
00000380: e9c6 21bd 27b9 ab3d 5ea5 0e3e 3779 0c3e
00000390: 5131 fabc d179 1fbe a9ca 35be 805e b1bd
000003a0: a1ac 223d c020 25be 446d ca3d 7feb 00be
000003b0: 67f3 8a3d 91de 34be 5825 e23d 0a92 873d
000003c0: e1b5 18be dae8 28be 1294 51be 4e4f 35bd
000003d0: 18fa 46be d80b a53d 7c5a f7bd b2b8 203e
000003e0: 3939 333e 38dd a9be ed62 aebd 6cb6 b33d
000003f0: 4532 fb3d 1fe4 883b 824c 0d3e 2c79 363d

fc2.bias f4 [10]
-0.17301546 0.31388623 0.009616163 0.04786324 -0.29125103 0.12786414 -0.0016659562 -0.03888345
0.1708507 -0.3246713
00000000: f72a 31be b2b5 a03e 1c8d 1d3c 3f0c 443d
00000010: db1e 95be d1ee 023e 375c daba 4144 1fbd
00000020: 7cf3 2e3e 513b a6be

exp_avg f4 [10, 1, 5, 5]
-0.0061461423 -0.00740578 -0.008242448 -0.008889494 -0.005275258 -0.008052076 -0.00790653 -0.00835474
-0.010848516 -0.0037103738 -0.005966127 -0.008075485 -0.0110660475 -0.009902155 -0.0046473644 -0.0030069074
-0.005876962 -0.008340176 -0.004627227 -0.0013554685 -0.0012288316 0.000792478 -0.0010374481 -0.0019512561
-0.0006195525 0.0036560746 0.0022150432 0.0020877882 0.0017659775 0.0021761102 0.0035287866 0.0030760376
0.003321128 0.0036839226 0.0028343732 0.0036722615 0.0027426756 0.00404192 0.0048599313 0.0027586534
0.0021038814 0.0012215225 0.0022751547 0.0043201176 0.0029953322 0.004143657 0.0020115718 0.0010632629
0.0026467082 0.0041014524 -0.005024802 -0.0031004222 -0.0019309748 0.0018785868 0.00240726 -0.0061592776
-0.005104164 -0.0023325167 0.0027385566 0.0014596533 -0.00568526 -0.005930786 -0.0035596653 0.00085444766
-0.00024676294 -0.0036735754 -0.0033422133 -0.0029228805 -8.654842e-05 -0.0010477637 -0.0013465511 -0.0021488438
-0.0019491138 -0.00052641873 -0.0016377459 -0.0043605138 -0.0027186058 0.0011975148 0.0011526858 0.0030812789
-0.0008409352 0.0010684911 0.0016805921 0.0027461562 0.0049296133 0.0018478761 0.0008879712 0.0018989461
0.0019481106 0.0059833885 0.003979026 0.0031678602 0.0010990403 0.0018062078 -0.00024482483 0.009115811
0.007015884 0.0054706475 0.0018028724 0.0016282144 0.0016964198 -0.0008143118 -0.00090020004 0.00050071627
0.0028858453 0.00071801594 -0.0017302899 6.474005e-05 0.0010962161 0.0014021243 0.00065864663 -0.0011177172
0.0013946296 0.001205534 -0.0005016835 0.00024273114 0.0011988797 0.0028357394 0.0005781107 -0.0027306648
0.0015935949 0.0014777615 0.0018518087 -0.00025896172 -0.0049471883 -0.010555582 -0.009724997 -0.010532887
-0.006556299 -0.0032628402 -0.009245654 -0.009862895 -0.008854462 -0.0035300436 -0.0024836634 -0.008537286
-0.009273752 -0.006826946 -0.0014625272 -0.0026161093 -0.0071010836 -0.008762266 -0.005679297 -0.0030644818
-0.0011869438 -0.0071529807 -0.006237627 -0.004562202 -0.0016329313 0.00073647476 -0.0005152871 -0.00088951335
-0.0028648651 -0.00058611576 0.0017562514 -0.0014624697 -0.0015388256 -0.0036203892 -0.00031635238 0.0023817357
0.000911935 -1.4960302e-05 -0.0024560594 -0.00053885777 0.0018411918 0.0010436635 0.00031469515 0.00013505324
0.0020802203 0.0006967625 0.002545488 0.0017880108 0.0031687738 0.0056115864 0.003385147 0.0019252629
-0.003142612 -0.0064518326 -0.0068669273 -0.00338259 0.0019123516 -0.002396079 -0.0066268775 -0.007985573
-0.0028102668 0.0024399867 -0.0013318225 -0.0063379933 -0.006661192 -0.0044784616 0.0025592132 -0.0012018381
-0.0042443117 -0.0059277257 -0.0061594006 0.0032167982 1.4128191e-05 -0.0015004559 -0.0030309695 -0.005974553
-0.0064763348 -0.0024608467 0.0010965554 0.00429896 0.0026182707 -0.003993755 0.0017558375 0.0026117428
0.00321485 0.0012427563 0.0014367681 0.0031896716 0.0037942845 0.003076394 0.0030328464 0.0024000548
0.0037994597 0.0043243384 0.00400761 0.004171253 0.002547438 0.0036946111 0.004405568 0.0017602758
0.001237779 0.002023285 0.002841228 0.0013982127 0.0035547784 0.0028422836 0.002382591 0.0031896587
0.0029145512 0.0034125417 0.002492147 0.0021063501 0.0043601505 0.005012592 0.0041795815 0.0028003266
0.0022026624 0.0042891307 0.0061553395 0.005326343 0.0022991616 0.0033814828 0.004294878 0.0050488845
0.0024098726 -0.0003106094
00000000: 9465 c9bb 2fac f2bb 550b 07bc 3ea5 11bc
00000010: 12dc acbb dbec 03bc 648a 01bc 52e2 08bc
00000020: f9bd 31bc be29 73bb 807f c3bb 0a4f 04bc
00000030: 5e4e 35bc a63c 22bc eb48 98bb 890f 45bb
00000040: 8893 c0bb 3ca5 08bc fe9f 97bb faa9 b1ba
00000050: bf10 a1ba 4cbe 4f3a fbfa 87ba 4ac1 ffba
00000060: 7769 22ba c19a 6f3b 422a 113b 46d3 083b
00000070: 5f78 e73a 129d 0e3b 3743 673b 5997 493b
00000080: 48a7 593b f76d 713b e4c0 393b 53aa 703b
00000090: 76be 333b 1572 843b 0f40 9f3b 86ca 343b
000000a0: 46e1 093b 7e1b a03a c31a 153b c68f 8d3b
000000b0: 564d 443b 84c7 873b 93d4 033b 2f5d 8b3a
000000c0: 6574 2d3b 7a65 863b 18a7 a4bb 7430 4bbb
000000d0: c318 fdba ea3a f63a 1fc3 1d3b c4d3 c9bb
000000e0: d540 a7bb 23dd 18bb 5b79 333b d651 bf3a
000000f0: 6b4b babb 0a57 c2bb 4649 69bb 03fd 5f3a
00000100: f65f 81b9 5ec0 70bb 0909 5bbb cc8d 3fbb
00000110: 5481 b5b8 1e55 89ba c27e b0ba 9ed3 0cbb
00000120: 6879 ffba 5dff 09ba a2a9 d6ba a4e2 8ebb
00000130: a32a 32bb eef5 9c3a b815 973a 48ef 493b
00000140: 3572 5cba 9d0c 8c3a 5047 dc3a dbf8 333b
00000150: 9888 a13b 6f34 f23a bdc6 683a 0fe6 f83a
00000160: bf57 ff3a 4d10 c43b 7d62 823b e09b 4f3b
00000170: ac0d 903a 47be ec3a d55b 80b9 7c5a 153c
00000180: 80e5 e53b 1e43 b33b 5c4e ec3a cf69 d53a
00000190: 675a de3a 8a77 55ba 67fb 6bba 8042 033a
000001a0: 7320 3d3b 3c39 3c3a e5ca e2ba 0dc5 8738
000001b0: e9ae 8f3a 7cc7 b73a 07a9 2c3a 5e80 92ba
000001c0: 01cc b63a 0203 9e3a 6983 03ba a585 7e39
000001d0: ba23 9d3a d0d7 393b 5a8c 173a f4f4 32bb
000001e0: 2ce0 d03a 73b1 c13a 64b8 f23a 41c5 87b9
000001f0: 061c a2bb 52f1 2cbc 9855 1fbc 2192 2cbc
00000200: 39d6 d6bb 60d5 55bb 157b 17bc fb97 21bc
00000210: 4e12 11bc 4e58 67bb f5c4 22bb f9df 0bbc
00000220: eff0 17bc 93b4 dfbb 45b2 bfba 0873 2bbb
00000230: 35b0 e8bb 9b8f 0fbc 6519 babb 79d5 48bb
00000240: 3a93 9bba 8d63 eabb 0265 ccbb 867e 95bb
00000250: 1508 d6ba fc0f 413a 5514 07ba 3b2e 69ba
00000260: 76c0 3bbb 90a5 19ba 0532 e63a 57b0 bfba
00000270: 6bb2 c9ba 0d44 6dbb 19dc a5b9 e516 1c3b
00000280: ec0e 6f3a 02fe 7ab7 d7f5 20bb 2242 0dba
00000290: 2554 f13a 89cb 883a abfd a439 149d 0d39
000002a0: 4e54 083b f1a6 363a 34d2 263b b05b ea3a
000002b0: 34ab 4f3b 66e1 b73b 58d9 5d3b 1a59 fc3a
000002c0: 48f4 4dbb e569 d3bb f603 e1bb 71ae 5dbb
000002d0: dfa7 fa3a 8907 1dbb 4726 d9bb ecd5 02bc
000002e0: 742c 38bb 2fe8 1f3b 8c90 aeba f1ae cfbb
000002f0: 2146 dabb 0fc0 92bb 79b8 273b ff86 9dba
00000300: de13 8bbb 5e3d c2bb ccd4 c9bb ebd0 523b
00000310: 1e08 6d37 f2aa c4ba 3ba3 46bb 2fc6 c3bb
00000320: 6f37 d4bb 2846 21bb 4bba 8f3a 4ade 8c3b
00000330: 4b97 2b3b 0cde 82bb 2124 e63a c629 2b3b
00000340: 3cb0 523b fbe3 a23a f051 bc3a cf09 513b
00000350: 88a9 783b 549d 493b b8c2 463b 3d4a 1d3b
00000360: 5b00 793b 2eb3 8d3b 4552 833b 02af 883b
00000370: ebf2 263b 4a21 723b 955c 903b 0eb9 e63a
00000380: f93c a23a 1799 043b e533 3a3b 3c44 b73a
00000390: 49f7 683b 9b45 3a3b 3e25 1c3b 9809 513b
000003a0: 0e02 3f3b f3a4 5f3b 4a53 233b b10a 0a3b
000003b0: 98df 8e3b ab40 a43b dff4 883b af85 373b
000003c0: 8b5a 103b d68b 8c3b bbb2 c93b 9a88 ae3b
000003d0: 88ad 163b de9b 5d3b 0cbc 8c3b 1d71 a53b
000003e0: f4ee 1d3b 4ad9 a2b9

exp_avg_sq f4 [10, 1, 5, 5]
0.0007349924 0.0005339735 0.00030350024 0.0003405458 0.0005156586 0.00081275904 0.00047369054 0.0002764389
0.00036570718 0.0007221084 0.00093572214 0.000698496 0.0005280013 0.00076395774 0.0011516295 0.0010882312
0.0010838142 0.0012375637 0.0015315341 0.0015403827 0.0012457533 0.0014017462 0.001653162 0.0018672458
0.0015207797 0.00023260227 0.0002543076 0.0002642161 0.00021957036 0.00014528495 0.00025642352 0.00023920203
0.0002258786 0.0001960202 0.00016307684 0.00018630976 0.00015987463 0.00017676069 0.00017349854 0.00017659702
0.00013128549 0.00014070429 0.00017146913 0.00020601487 0.00020741142 0.00014501525 0.00017193069 0.00020939966
0.0002297263 0.00022648352 0.00043837502 0.0005365434 0.0005198967 0.0003758351 0.0002505535 0.00049977837
0.0005596593 0.0004253323 0.00022509528 0.00015391027 0.0005581042 0.00049919105 0.00021979804 0.00010245371
9.8558434e-05 0.0005238982 0.00035407074 0.000137458 7.317491e-05 0.00011276544 0.00046909635 0.00030573836
0.0001425464 0.000110765664 0.00019505258 0.00033047653 0.00035755968 0.00036938104 0.0004569077 0.0004985811
0.00023889523 0.00026567242 0.00033355897 0.00044481098 0.00043933032 0.00016736146 0.0002214863 0.00032948065
0.00038848328 0.0003498022 0.00021311521 0.00029548013 0.0003484882 0.0003337958 0.00025999348 0.00030477325
0.00035457622 0.00035119 0.00030740924 0.0002430109 0.00031059104 0.00016016238 0.00014524629 0.00013834987
0.0001466059 0.00019403633 0.00013660258 0.00017194965 0.00017635505 0.00017060533 0.0001357127 0.00010214379
0.0001475114 0.00017684775 0.00018480854 0.0001341583 0.000114078095 0.0001596695 0.00019522615 0.00021540241
0.00019297321 0.0002085018 0.0002168247 0.00020282395 0.00021950653 0.0010011656 0.0009968149 0.00093949796
0.0009574375 0.0009966352 0.000901255 0.0008040275 0.000718585 0.0007821549 0.00084045547 0.00058702135
0.00043136755 0.00043831335 0.0005850605 0.0006628347 0.00030960861 0.00021721552 0.0002559046 0.0004069433
0.0005211182 0.0002083177 0.00017205934 0.00023688698 0.00031829605 0.0004064204 8.413782e-05 0.00010403125
0.00014342433 0.00016657874 0.00018068716 0.00013129057 0.00015893386 0.00017789514 0.00016916066 0.000187309
0.00022389487 0.000251997 0.00021754186 0.00021078488 0.00021287616 0.00027778768 0.0002703955 0.00022730714
0.00021465804 0.00020128612 0.00024087905 0.00020852424 0.00017473071 0.00016227618 0.0001380912 0.00010636651
0.00014217247 0.0003584782 0.0006562232 0.00066370337 7.63135e-05 0.00010705892 0.00037826344 0.0007136482
0.0006431316 6.45283e-05 0.000109076114 0.0004508335 0.0008170637 0.0006576232 6.963274e-05 0.00016447318
0.00057014375 0.0008762855 0.0006878969 0.00012581181 0.00034311443 0.00068033405 0.00086649996 0.000709498
0.0003192786 0.00016869295 8.975064e-05 7.2443974e-05 0.00013388885 0.00015622459 6.608393e-05 4.770365e-05
5.9661255e-05 0.00015790462 6.750761e-05 5.1251907e-05 5.5609667e-05 9.370269e-05 0.00026931302 5.3456457e-05
6.0774117e-05 0.000108312495 0.00027275534 0.00047138575 8.199298e-05 0.00012503119 0.00030554575 0.0005024283
0.0005738555 7.617753e-05 5.0922157e-05 6.5331784e-05 0.0001628179 0.00030433445 5.9677015e-05 4.113993e-05
7.419935e-05 0.00020796059 0.0003894203 9.529305e-05 0.000100393016 0.00016054868 0.0003290451 0.00051793945
0.00016166408 0.00020627535 0.00031655832 0.00054364384 0.0005929643 0.00021364202 0.00028357015 0.000445704
0.00062264653 0.0005504291
00000000: 81ac 403a 5bfa 0b3a 1d1f 9f39 498b b239
00000010: 432d 073a 560f 553a ab59 f839 00ef 9039
00000020: 63bc bf39 e04b 3d3a 404b 753a 461b 373a
00000030: 9169 0a3a 5644 483a 46f2 963a fba2 8e3a
00000040: c50e 8e3a bf35 a23a c2bd c83a abe6 c93a
00000050: 8b48 a33a ccba b73a e9ae d83a 5fbe f43a
00000060: e654 c73a b2e6 7339 9754 8539 7c86 8a39
00000070: 783c 6639 a257 1839 9570 8639 4ed2 7a39
00000080: d3d9 6c39 c68a 4d39 9bff 2a39 255c 4339
00000090: 05a4 2739 d658 3939 29ed 3539 e72c 3939
000000a0: aea9 0939 058a 1339 65cc 3339 b205 5839
000000b0: 947c 5939 3c0f 1839 4b48 3439 4b92 5b39
000000c0: afe2 7039 357c 6d39 b3d5 e539 d1a6 0c3a
000000d0: ad49 083a bc0b c539 b95c 8339 8f03 033a
000000e0: 1ab6 123a 23ff de39 8e07 6c39 f962 2139
000000f0: bd4d 123a 25dc 023a 9679 6639 6bdc d638
00000100: 28b1 ce38 3756 093a 92a2 b939 9a22 1039
00000110: 7b75 9938 7c7c ec38 0cf1 f539 824b a039
00000120: 8278 1539 dd4a e838 0787 4c39 cf43 ad39
00000130: d976 bb39 7ca9 c139 1d8d ef39 36b3 023a
00000140: f37f 7a39 f349 8b39 87e1 ae39 8535 e939
00000150: eb55 e639 c07d 2f39 c73e 6839 25be ac39
00000160: 58ad cb39 a865 b739 ae77 5f39 acea 9a39
00000170: 4bb5 b639 5001 af39 bc4f 8839 f9c9 9f39
00000180: 6ae6 b939 ed1f b839 c52b a139 bed0 7e39
00000190: d3d6 a239 43f1 2739 414d 1839 0312 1139
000001a0: 39ba 1939 3b76 4b39 fa3c 0f39 624d 3439
000001b0: f3eb 3839 85e4 3239 1a4e 0e39 0836 d638
000001c0: 4aad 1a39 3570 3939 2ac9 4139 d8ac 0c39
000001d0: 363d ef38 f46c 2739 9fb5 4c39 a5dd 6139
000001e0: da58 4a39 47a1 5a39 705b 6339 24ad 5439
000001f0: 562b 6639 8b39 833a 8fa7 823a a448 763a
00000200: 8bfc 7a3a 87a1 823a 3342 6c3a 5fc5 523a
00000210: 6c5f 3c3a 8709 4d3a 0352 5c3a 56e2 193a
00000220: 2c29 e239 6ccd e539 bf5e 193a 15c2 2d3a
00000230: f752 a239 59c4 6339 ef2a 8639 015b d539
00000240: a79b 083a db6f 5a39 d46a 3439 dd64 7839
00000250: f9e0 a639 d314 d539 2673 b038 5a2b da38
00000260: 2d64 1639 a4ab 2e39 d776 3d39 0bab 0939
00000270: 7ca7 2639 5d89 3a39 b860 3139 6068 4439
00000280: 52c5 6a39 771e 8439 f31b 6439 2306 5d39
00000290: 8237 5f39 08a4 9139 dfc3 8d39 4c59 6e39
000002a0: d415 6139 5510 5339 7a94 7c39 4da7 5a39
000002b0: eb37 3739 ae28 2a39 93cc 1039 1611 df38
000002c0: 2214 1539 21f2 bb39 6506 2c3a 61fc 2d3a
000002d0: 800a a038 d284 e038 a951 c639 1f14 3b3a
000002e0: d597 283a 5e53 8738 cbbf e438 d95d ec39
000002f0: 3730 563a 5964 2c3a cb07 9238 6f76 2c39
00000300: b375 153a 86b6 653a fb53 343a 5aec 0339
00000310: 0ae4 b339 7258 323a d425 633a 9bfd 393a
00000320: d964 a739 2be3 3039 8238 bc38 10ed 9738
00000330: 8464 0c39 38d0 2339 8a96 8a38 6715 4838
00000340: c93c 7a38 3393 2539 df92 8d38 51f7 5638
00000350: 6d3e 6938 4082 c438 9532 8d39 6f36 6038
00000360: b6e7 7e38 d425 e338 9a00 8f39 5324 f739
00000370: a5f3 ab38 ce1a 0339 a831 a039 64b5 033a
00000380: ca6e 163a 80c1 9f38 4095 5538 bc02 8938
00000390: 19ba 2a39 148f 9f39 b54d 7a38 aa8d 2c38
000003a0: 799b 9b38 ff0f 5a39 1c2b cc39 11d8 c738
000003b0: 178a d238 f558 2839 b083 ac39 54c6 073a
000003c0: 5f84 2939 9e4b 5839 bdf7 a539 5283 0e3a
000003d0: 2971 1b3a 1805 6039 24ac 9439 61ad e939
000003e0: 1a39 233a ac4a 103a

max_exp_avg_sq f4 [10, 1, 5, 5]
0.0007357106 0.00053417607 0.0003038177 0.0003409568 0.0005181481 0.00081389956 0.00047399063 0.00027664425
0.0003660843 0.00072532985 0.000939308 0.0006993381 0.00052915193 0.00076591055 0.0011571409 0.0010899118
0.0010887549 0.0012427875 0.0015384065 0.0015499288 0.0012515022 0.0014037738 0.0016559815 0.0018732402
0.001533101 0.00023510869 0.00025972415 0.00026579166 0.00022131143 0.0001455435 0.00025888445 0.00024351747
0.00022658042 0.00019682829 0.00016426867 0.00018743762 0.00016086077 0.00017876866 0.00017543169 0.00017823432
0.00013196617 0.00014138033 0.00017228522 0.00020667393 0.0002080205 0.00014677139 0.00017327616 0.00021075997
0.00023146562 0.00022816578 0.00043957634 0.00053791987 0.00052156666 0.00037695258 0.00025124982 0.0005006283
0.0005604297 0.0004268558 0.00022611511 0.00015454258 0.00055832975 0.00049930706 0.00022115278 0.00010261276
9.895521e-05 0.00052721327 0.00036291213 0.00013777368 7.3378455e-05 0.000114057 0.0004698012 0.00030581758
0.00014307602 0.00011298644 0.00019540875 0.000331134 0.000358201 0.00037099564 0.0004586525 0.00050031685
0.00023950693 0.00026693838 0.00033506902 0.00044699846 0.00044182918 0.00016804124 0.00022246383 0.00033099655
0.000390318 0.0003515852 0.00021413065 0.00029919477 0.00035394152 0.00033674555 0.0002626398 0.0003054701
0.00035629 0.00035682556 0.0003100651 0.00024396114 0.00031177307 0.00016300615 0.00014663058 0.00014050871
0.00014993467 0.00019586028 0.00013825312 0.00017229248 0.00017675427 0.00017419373 0.00013822102 0.00010404454
0.00014793007 0.00017727619 0.0001880514 0.00013603356 0.000118194475 0.00015992639 0.00019571444 0.00021597155
0.00019519946 0.00021098735 0.0002180783 0.0002034514 0.00021968216 0.0010068681 0.001002533 0.0009433104
0.0009595362 0.0009978951 0.00090648525 0.0008090076 0.0007222776 0.0007856233 0.0008437767 0.0005912679
0.00043677262 0.00044133316 0.0005877573 0.0006653767 0.0003163741 0.00021800876 0.0002565323 0.00040877308
0.000522531 0.00020866496 0.00017241616 0.00023770182 0.00031936445 0.00040709128 8.448981e-05 0.00010403125
0.00014342433 0.00016703854 0.00018394899 0.00013142197 0.00015893386 0.00017789514 0.0001697317 0.00018979116
0.00022397882 0.000251997 0.00021754186 0.00021078488 0.00021290685 0.00027778768 0.0002703955 0.00022730714
0.00021465804 0.00020136891 0.00024101061 0.00020852424 0.00017473071 0.00016379963 0.0001380912 0.000106710955
0.00014230992 0.00035951755 0.00065959635 0.0006667204 7.6829536e-05 0.000107706495 0.00037962475 0.00071643974
0.0006454076 6.4950415e-05 0.00010928598 0.00045253953 0.0008192175 0.000658061 7.02199e-05 0.00016669137
0.0005722874 0.00087739446 0.0006878969 0.0001277214 0.00034568406 0.00068416074 0.00086898654 0.0007098498
0.0003192786 0.00016902665 8.996817e-05 7.3032184e-05 0.00013484377 0.0001566307 6.632071e-05 4.7927555e-05
6.004773e-05 0.00015881527 6.7912995e-05 5.1483166e-05 5.5776098e-05 9.422586e-05 0.00026931302 5.368053e-05
6.0774117e-05 0.000108312495 0.00027286977 0.00047138575 8.287254e-05 0.00012505462 0.00030647242 0.00050393515
0.0005744899 7.638524e-05 5.162092e-05 6.682974e-05 0.00016313077 0.00030482683 5.991211e-05 4.1214673e-05
7.457135e-05 0.00020831432 0.00039001124 9.629983e-05 0.00010066043 0.00016170609 0.00032965068 0.00051875965
0.00016207012 0.000207782 0.00031947307 0.00054665614 0.0005961259 0.00021633565 0.00028548192 0.00044970884
0.0006295079 0.0005562015
00000000: b4dc 403a f307 0c3a b949 9f39 72c2 b239
00000010: 55d4 073a e05b 553a f281 f839 900a 9139
00000020: 01ef bf39 1024 3e3a e53b 763a c953 373a
00000030: c9b6 0a3a 63c7 483a 35ab 973a 5fdb 8e3a
00000040: 8db4 8e3a 07e5 a23a 5ba4 c93a fb26 cb3a
00000050: 7209 a43a d5fe b73a 850d d93a 8387 f53a
00000060: 55f2 c83a 8287 7639 962b 8839 f459 8b39
00000070: d60f 6839 099d 1839 e2ba 8739 b958 7f39
00000080: 3896 6d39 b163 4e39 893f 2c39 e78a 4439
00000090: bcac 2839 d973 3b39 16f4 3739 69e4 3a39
000000a0: 6660 0a39 7e3f 1439 76a7 3439 9cb6 5839
000000b0: 1420 5a39 a5e6 1939 77b1 3539 73ff 5c39
000000c0: 94b5 7239 c93f 6f39 f076 e639 3103 0d3a
000000d0: bfb9 083a b8a1 c539 2eba 8339 993c 033a
000000e0: cde9 123a 9ecb df39 5019 6d39 b50c 2239
000000f0: e05c 123a eee3 023a 3fe5 6739 ce31 d738
00000100: 2d86 cf38 af34 0a3a 3e45 be39 5777 1039
00000110: c2e2 9938 e331 ef38 a64f f639 2456 a039
00000120: ad06 1639 22f3 ec38 a3e6 4c39 0e9c ad39
00000130: edcc bb39 3182 c239 4c77 f039 b227 033a
00000140: 2724 7b39 ddf3 8b39 34ac af39 1e5b ea39
00000150: 4fa5 e739 3a34 3039 2e45 6939 9b89 ad39
00000160: 98a3 cc39 f754 b839 4288 6039 3edd 9c39
00000170: 3a91 b939 398d b039 ebb2 8939 8127 a039
00000180: 6fcc ba39 5114 bb39 3c90 a239 d2cf 7f39
00000190: 7975 a339 a1ec 2a39 d9c0 1939 8555 1339
000001a0: c837 1d39 d85f 4d39 0af8 1039 69a9 3439
000001b0: 1d57 3939 c6a7 3639 6cef 1039 7d32 da38
000001c0: ad1d 1b39 37e3 3939 aa2f 4539 3ba4 0e39
000001d0: 2ddf f738 eab1 2739 b238 4d39 6c76 6239
000001e0: 75ae 4c39 7c3c 5d39 f3ab 6439 9255 5539
000001f0: 7b5a 6639 e3f8 833a 6d67 833a 7d48 773a
00000200: 6289 7b3a cecb 823a 32a1 6d3a 9513 543a
00000210: 3b57 3d3a 4af2 4d3a e530 5d3a 51ff 1a3a
00000220: a1fe e439 bc62 e739 ba13 1a3a ad6c 2e3a
00000230: 03df a539 4899 6439 2f7f 8639 9850 d639
00000240: 76fa 083a 13cd 5a39 9cca 3439 993f 7939
00000250: 5f70 a739 de6e d539 1f30 b138 5a2b da38
00000260: 2d64 1639 1127 2f39 6ee2 4039 51ce 0939
00000270: 7ca7 2639 5d89 3a39 02fa 3139 ad02 4739
00000280: dbdb 6a39 771e 8439 f31b 6439 2306 5d39
00000290: bf3f 5f39 08a4 9139 dfc3 8d39 4c59 6e39
000002a0: d415 6139 8e26 5339 cbb7 7c39 4da7 5a39
000002b0: eb37 3739 a1c1 2b39 93cc 1039 02ca df38
000002c0: 0739 1539 a17d bc39 c3e8 2c3a d9c6 2e3a
000002d0: 8b1f a138 7ce0 e138 5f08 c739 75cf 3b3a
000002e0: 9230 293a fd35 8838 7730 e538 d442 ed39
000002f0: c1c0 563a ba81 2c3a 0643 9338 e0c9 2e39
00000300: 8f05 163a f200 663a fb53 343a f4ec 0539
00000310: ee3c b539 4059 333a b3cc 633a 3715 3a3a
00000320: d964 a739 bf3c 3139 4bad bc38 db28 9938
00000330: d964 0d39 3c3d 2439 a915 8b38 d205 4938
00000340: c2db 7b38 a687 2639 836c 8e38 a1ef 5738
00000350: 21f1 6938 209b c538 9532 8d39 0827 6138
00000360: b6e7 7e38 d425 e338 f60f 8f39 5324 f739
00000370: dbcb ad38 1821 0339 08ae a039 841a 043a
00000380: 5d99 163a 0331 a038 8a83 5838 f226 8c38
00000390: 150e 2b39 2ad1 9f39 234a 7b38 ebdd 2c38
000003a0: 3063 9c38 f36e 5a39 6c7a cc39 94f4 c938
000003b0: a819 d338 a68f 2939 f7d4 ac39 5ffd 073a
000003c0: 5ef1 2939 0ee0 5939 f37e a739 794d 0f3a
000003d0: 5545 1c3a 29d8 6239 bcac 9539 e6c6 eb39
000003e0: 8f05 253a 0dce 113a

exp_avg f4 [10]
0.011291325 0.0027893977 -0.0034660401 0.0012934215 0.0020700097 0.0076366877 0.0014726329 -0.004951178
-0.0054846206 -0.003224001
00000000: 40ff 383c 54ce 363b 8126 63bb 0688 a93a
00000010: 00a9 073b 2e3d fa3b 5c05 c13a 7e3d a2bb
00000020: 55b8 b3bb c349 53bb

exp_avg_sq f4 [10]
0.00065456016 6.466069e-05 0.00013183254 9.8702054e-05 7.8205914e-05 0.00045680435 6.333525e-05 0.00026940065
0.0002048656 9.334295e-05
00000000: ca96 2b3a 729a 8738 873c 0a39 43fe ce38
00000010: 7b02 a438 3e7f ef39 dad2 8438 583e 8d39
00000020: 31d1 5639 1dc1 c338

max_exp_avg_sq f4 [10]
0.0006590025 6.502428e-05 0.00013207083 9.916459e-05 7.8363366e-05 0.00045920257 6.337982e-05 0.00027135815
0.00020572566 9.404566e-05
00000000: e9c0 2c3a a55d 8838 7e7c 0a39 95f6 cf38
00000010: 0357 a438 20c1 f039 c8ea 8438 1345 8e39
00000020: 10b8 5739 613a c538
