src/saved/models/Mnist_LeNet/1014_083735/checkpoint-epoch4.pth (torch_old, 355460 bytes, 32 tensors)

conv1.weight f4 [10, 1, 5, 5]
000000 ad 6e 56 be 69 83 2e be 35 60 4e be 1e 90 f7 bb
       -0.20940657 -0.17042316 -0.20153888 -0.007555022
000010 14 bc 33 be c3 91 f6 3d e1 70 bd be 5c ed 03 bf
       -0.17552215 0.120395206 -0.37000182 -0.51534057
000020 cb ce d9 be 2b 35 b2 bd 83 56 a0 3d 4e db 39 3e
       -0.42540583 -0.08701547 0.07829001 0.18150064
000030 e6 ce 1d be 43 2d 1c be d0 e8 b6 bd 25 18 06 3e
       -0.15410957 -0.15251641 -0.08931124 0.13095148
000040 b0 2e bf 3d 88 ec bd 3e c2 48 12 3e 74 9a 51 3e
       0.09335077 0.37094522 0.14285567 0.20469075
000050 ad 94 74 3e d6 f8 60 3e 9b f9 8a 3e a6 52 d1 3e
       0.2388484 0.21969923 0.2714356 0.40883368
000060 54 26 a7 3d 0a 64 cc 3d 69 2d 94 3c ed 3a 7c 3e
       0.081616074 0.099800184 0.01808806 0.24631853
000070 c3 af 3e 3e 20 4e 8d be 21 a2 3a 3e b6 46 13 3e
       0.18621735 -0.27598667 0.1822591 0.14382443
000080 c8 ae 28 3e 8b 19 34 3e 11 2a 10 3e 7f b5 c3 bd
       0.16472924 0.17587869 0.14078547 -0.09556102
000090 e6 37 3f be 77 5b 12 3c 06 d9 a5 bc 9d da 8c 3d
       -0.18673667 0.00893294 -0.020245086 0.06877635
0000a0 4b 67 05 be b5 7a bf bd 2f b9 66 bb 70 fa 79 3e
       -0.13027684 -0.093495764 -0.0035205593 0.2441194
0000b0 7f bc 4c 3d 09 ff 0b bd 7f fb 8b bc b5 b8 b6 3c
       0.04998445 -0.034178767 -0.017087696 0.022304872
0000c0 99 59 54 3e e7 bd 71 3e b5 bc 63 3e 35 f2 4a 3e
       0.20737304 0.23607598 0.22239955 0.19818957
0000d0 5f 1f 29 3e 20 8f 41 3e 42 db 48 bc 11 a7 80 3d
       0.16515873 0.18902254 -0.012259306 0.062818654
0000e0 e2 89 63 3d 59 d6 69 3e 83 87 bb bd 9f 86 ac be
       0.055551417 0.22835673 -0.09156706 -0.33696458
0000f0 0b 08 6b 3e 39 57 a3 3e 71 46 15 be 1f bf a1 be
       0.22952287 0.31902483 -0.14577653 -0.31591126
000100 dd dd 85 be 94 c5 30 3e 8c ad 4e 3c da 55 2f be
       -0.2614583 0.1726287 0.012614619 -0.17122594
000110 e5 45 db be 53 0c 0f 3c 54 14 98 3e 34 97 b8 3d
       -0.42826763 0.008730966 0.2970301 0.09013215
000120 6c 2f b1 be 38 4e a8 be 52 cd a2 3d 66 5b 57 3d
       -0.34606493 -0.32872176 0.07949318 0.0525774
000130 be a0 eb 3d 17 b4 f4 bd 4c 19 d7 3d 1c 9d 7d 3e
       0.115052685 -0.11948412 0.10502872 0.24766964
000140 2f 50 9e bc 73 d0 64 bd a0 99 d1 3d 6d 72 12 3e
       -0.019325344 -0.055862855 0.1023438 0.14301462
000150 44 02 17 bc 24 cc 8f be 05 76 26 be 06 dd 8d 3e
       -0.009216849 -0.28085434 -0.16255958 0.2770769
000160 f2 b1 78 3e d9 8a 96 3d e1 3a 9d be 1a f7 54 3e
       0.24286631 0.07350702 -0.30708984 0.20797387
000170 52 17 4a 3e c4 aa 6b 3e 9a 4a 0a be 27 b5 0d 3e
       0.19735458 0.2301436 -0.1350502 0.13838635
000180 a6 c9 83 3e 0c e6 17 3e a2 3d f0 3d da 33 f5 bd
       0.25739783 0.1483385 0.117305055 -0.119727805
000190 90 30 80 3e c1 ea 2c be a6 ca 00 bd 61 a7 1b be
       0.2503705 -0.16886427 -0.03144326 -0.15200569
0001a0 43 2a 9f bd 3f 10 47 bd 69 f6 77 bd ec fb 2e 3e
       -0.07771733 -0.048599478 -0.06053773 0.17088288
0001b0 33 48 f2 3d 25 95 35 bd 35 7e a2 3d a1 28 84 be
       0.11830177 -0.04433169 0.07934228 -0.25812247
0001c0 d4 6d 6d 3d 35 5d f6 3b 08 06 12 bd ed bf ae bd
       0.05796607 0.0075184354 -0.035650283 -0.08532701
0001d0 a0 be 88 be b6 f1 60 bc c2 04 15 3e a1 76 86 3e
       -0.26707935 -0.013729503 0.14552596 0.26262382
0001e0 c5 0b 77 bc 5c 32 1c 3e da 17 60 3e 0d be 8a bd
       -0.01507849 0.15253586 0.21884099 -0.067745306
0001f0 a7 75 6f 3e d9 29 fd 3d 41 4a ab 3e 3e 03 87 3e
       0.23384725 0.123614974 0.3345509 0.2636966
000200 d1 1b 5b 3e 60 67 9e 3e 9f 47 87 3d fa 57 54 3e
       0.2139733 0.30938244 0.066054575 0.20736685
000210 ee b1 f6 3d 48 8b 40 bd e4 53 5b 3d 8d 3d 4c be
       0.12045656 -0.04700783 0.0535468 -0.19945355
000220 c1 62 63 3d 39 fb 5c 3d 5d 5b 8a 3d fe e9 0e 3d
       0.0555141 0.053950522 0.067557074 0.03489112
000230 d1 e0 5c be 06 ca 59 be 1d bc 9a bd d8 03 15 3e
       -0.21570136 -0.21268472 -0.07555411 0.14552248
000240 a2 d0 d9 3d b5 f0 95 be 9e bd c7 be db e0 8a be
       0.10635497 -0.29285207 -0.39011854 -0.27124676
000250 c5 83 c2 be 3c 9c 86 be cc c4 8d be 86 01 1f be
       -0.37991157 -0.26291072 -0.27689207 -0.15527925
000260 4e 56 04 bd 46 1c db 3d 3a 1d 11 3d b6 85 57 bc
       -0.03230887 0.10698752 0.035428263 -0.013154438
000270 2a 7a 04 be aa ff 7a 3c 79 3c 4b be 74 78 f3 3d
       -0.12937227 0.015319744 -0.19847287 0.11888209
000280 4f 79 a3 3b b5 97 84 3e b3 62 c9 bd b3 d4 4e 3e
       0.0049888263 0.25896993 -0.098332785 0.20198326
000290 e2 3d 80 3e 7a ea 6b 3e b2 d8 0e 3e b0 72 6a 3e
       0.25047213 0.23038664 0.1394985 0.22895312
0002a0 66 35 3f 3e 08 44 6e 3e e6 cb 4c bc 00 a8 1d be
       0.18672714 0.2326814 -0.012499785 -0.15396118
0002b0 52 11 e7 bd e3 93 91 bd 19 d6 57 be c2 3a 88 be
       -0.112826005 -0.07108285 -0.21077766 -0.2660733
0002c0 76 1d 8c be 33 c7 4b bc 62 34 91 3e 4b d7 d0 3d
       -0.27366227 -0.0124376295 0.28360277 0.10197314
0002d0 50 4a a7 be 05 fb 53 be 22 3b 47 3e 08 9d 62 3b
       -0.32673883 -0.20701225 0.19456151 0.0034578461
0002e0 81 48 30 bd 7a b2 a0 be 76 63 89 be f6 eb 2d 3e
       -0.043037895 -0.31386167 -0.26833695 0.16984543
0002f0 e2 d9 95 3e 3c 74 b7 bd b0 9a b0 be 2a 65 8f be
       0.29267794 -0.08957717 -0.34493017 -0.2800687
000300 e0 85 fe 3d 16 ff 9d 3e e6 a7 12 3b ba 34 95 be
       0.124278784 0.30858678 0.0022377907 -0.2914179
000310 c7 5b b3 bc 50 ba d3 bd 85 44 a0 3e 3e da 73 3e
       -0.021894349 -0.10338271 0.31302276 0.23813722
000320 87 23 8e 3c 1a 66 dd 3c 0d b4 a6 bd 8c 8a b3 be
       0.017350925 0.027026225 -0.08139811 -0.3506664
000330 c1 f2 f1 be e0 7d a4 3c f0 0e 2a be ef 3b b9 be
       -0.4725552 0.020079553 -0.1660726 -0.36178538
000340 01 3d b5 be 60 e9 eb bc 16 fb 46 be 76 09 c5 be
       -0.35398105 -0.028797805 -0.19431719 -0.3848378
000350 c3 fd 70 be 1a ca 5f be 00 d1 42 3e f5 91 ae be
       -0.23534302 -0.2185444 0.1902504 -0.3409573
000360 70 e9 67 be 3b 49 41 be a4 63 12 3e 14 2e 6f 3e
       -0.22647643 -0.18875591 0.14295822 0.23357421
000370 5b 2d 09 bf 3c 4d 64 be bf 13 42 3e 3e cf 04 3e
       -0.5358483 -0.22295088 0.18952845 0.12969682
000380 29 65 7d 3e a6 13 6f be 2d 90 4d be 34 54 c3 be
       0.24745621 -0.23347339 -0.2007453 -0.3815018
000390 60 be 93 bd 43 86 69 3c c7 c9 2a be e6 e7 40 be
       -0.072140455 0.014253202 -0.16678534 -0.18838462
0003a0 80 8f 9a be 53 8f d3 3a 4c ea 91 3d d6 ad 9e be
       -0.30187607 0.0016140736 0.07124767 -0.30992
0003b0 89 66 1b bd 42 dd 02 bd 29 44 c9 bd fd 63 6a 3e
       -0.037939582 -0.03194929 -0.09827454 0.22889705
0003c0 82 fc 86 bd ac 15 92 bd 79 7a b1 bd 48 25 0a 3e
       -0.06591131 -0.0713304 -0.08665938 0.13490784
0003d0 35 fa 99 3e e2 36 b5 3d ee c5 02 be 1b 61 3a 3c
       0.30073705 0.08848359 -0.12770817 0.011375691
0003e0 b3 57 91 3e be 35 8d 3e
       0.28387222 0.27580065

conv1.bias f4 [10]
000000 6a 3d 71 3e 1d 2d de bc 4f 02 c6 3d 4d 13 3a be
       0.23558584 -0.027121121 0.09668409 -0.18171425
000010 e1 60 d8 3d 01 2b 27 3e a1 04 bc 3d 9f d2 6a be
       0.10565353 0.16324998 0.091805704 -0.22931908
000020 8d d1 2a 3e 0a 9b c9 3d
       0.166815 0.098440245

conv2.weight f4 [20, 10, 5, 5]
000000 c2 ad 7b 3c 8b 93 88 3b 88 5a 6e bd 91 b2 b3 bb
       0.015361251 0.004167979 -0.058191806 -0.0054839333
000010 d5 6a a0 bd 8d 72 f2 3d cc 93 09 3e c1 f1 93 3d
       -0.078328766 0.11838255 0.13435286 0.07223845
000020 b8 02 7c bc 80 cb c7 bd a1 ad 35 3d bf a3 c4 3d
       -0.015381508 -0.097556114 0.04435504 0.096015446
000030 de 9f 34 3d 3a ea 0c bd 5e 20 db bc 69 64 d1 3c
       0.044097774 -0.034403063 -0.026748832 0.025560575
000040 7c 15 d7 3b a3 55 1c bd d6 d5 fd bc cb 9e ba bd
       0.0065638404 -0.038167607 -0.030985754 -0.091123186
000050 b1 20 21 3e ba c7 c8 bd eb 83 6c bc 07 9f 64 bd
       0.15735127 -0.0980372 -0.014435749 -0.055815723
000060 d7 d9 b5 bd 9d ec 86 bc ac 88 d7 bc 29 88 80 bd
       -0.0887944 -0.016470248 -0.026310287 -0.062759705
000070 ed b7 92 bc 6d 79 60 bc c3 5e 88 3d de f6 c2 3a
       -0.017909968 -0.013700825 0.06658699 0.0014874598
000080 3d 7e 00 3d 39 9b 43 bc e3 7f 49 3a 47 5d 70 3d
       0.03137039 -0.011938863 0.0007686598 0.058682706
000090 6f 4a fb 3c 15 43 de ba 27 00 5b 3d d4 90 1b 3d
       0.030675141 -0.0016957248 0.053466942 0.037979916
0000a0 83 d2 2a 3b 88 c5 8a 3d 8f 24 5c 3d 14 3f 95 3c
       0.0026065416 0.06775957 0.053745802 0.018218555
0000b0 4d 0c e3 bc ec dc 30 bd ec ae 47 bd bd 54 8a bd
       -0.027715826 -0.043179438 -0.048750803 -0.06754444
0000c0 17 99 02 bd 24 21 95 bb 82 93 cd bc ec f5 4f 3d
       -0.03188428 -0.00455107 -0.025094751 0.05077164
0000d0 3c c1 a4 bc f0 98 ff 3b ab fa 70 bd 5e ee d7 bc
       -0.020111673 0.007800214 -0.058832806 -0.02635878
0000e0 0d ff 12 be 3a f8 28 bd 4c e6 a4 3d 98 90 4b bc
       -0.14355107 -0.041252352 0.08051738 -0.012424611
0000f0 1f b6 ca bd f9 19 05 be 5e bf 25 3d e1 2b e3 3c
       -0.09898018 -0.12998189 0.040465705 0.027730884
000100 fc 3b 66 bc e5 03 b1 3c 60 90 8c 3b e4 10 3c 3d
       -0.014052387 0.021608302 0.004289672 0.045914546
000110 2b 88 ad bd 2a 55 54 bc c6 b3 99 3d 65 9c 2a bd
       -0.084732376 -0.012959758 0.07504992 -0.041653056
000120 1d e1 1e bb a6 a7 a8 3d 13 ea ca 3d 46 0a a6 3c
       -0.0024243065 0.082351014 0.09907927 0.02026857
000130 ca b7 bf bd dc fb c5 bd 17 50 c1 3d 9e 76 ae 3d
       -0.09361227 -0.09667179 0.09439104 0.08518718
000140 68 4e 89 bc 7d 11 67 3d 89 b7 e0 bc b0 d3 a8 bc
       -0.01676102 0.056413162 -0.027431266 -0.020608753
000150 67 64 04 bd 98 d5 d9 3c b0 bc 8b bb bf 4d cb 3c
       -0.032322314 0.026591107 -0.0042644367 0.024817346
000160 5b 03 50 3d b2 e8 1a 3d aa 4c 03 3d d2 26 ba 3c
       0.05078445 0.03781957 0.032055534 0.02272359
000170 e7 44 28 3d 0c e7 09 bd 44 1c 3f bc 78 c1 d7 3b
       0.041081335 -0.03366761 -0.011664454 0.0065843426
000180 08 1b 80 bc 91 fa e6 bb 73 17 bc bc 46 08 b0 bd
       -0.01563789 -0.007048913 -0.0229604 -0.08595328
000190 01 96 08 3d 37 73 99 bc ba 33 87 bd 82 d7 fc 3c
       0.03334618 -0.018731697 -0.06601663 0.03086448
0001a0 bb 69 02 3d d6 aa ac 3d d5 58 af 3d e4 3f 5d 3d
       0.031839114 0.08431022 0.08561865 0.05401601
0001b0 c1 f9 24 3d 13 1a 5f bd 98 17 84 3d c6 ea c8 3c
       0.040277246 -0.054468226 0.06449813 0.024526011
0001c0 d4 be 94 3d 3f 72 61 3d d8 7f 21 bc 09 93 55 3b
       0.0726296 0.055040594 -0.0098571405 0.003258886
0001d0 69 b8 45 3d 35 68 35 3d 68 f5 77 bd 5a 09 58 bd
       0.04827157 0.044288833 -0.060536772 -0.052743293
0001e0 b8 b6 44 bc 81 34 ae bb 8b d0 46 bb 4d 68 57 bd
       -0.012006454 -0.0053163175 -0.0030336704 -0.052589703
0001f0 ed 4b 40 be 3e 17 11 bd 63 c9 30 be 67 ce 4c be
       -0.18778963 -0.035422556 -0.17264323 -0.20000611
000200 f6 41 2c be 71 40 f2 bd bb 96 29 3d a6 d6 53 bd
       -0.16822037 -0.118286975 0.041403513 -0.051718377
000210 0f 83 17 be 50 36 81 bd 1b e5 49 3c 91 01 dc 3c
       -0.14796089 -0.063091874 0.012322689 0.026856216
000220 a9 0c 9d 3c eb a7 85 3d 4a b0 87 bc 67 1c d4 bb
       0.019171076 0.065261684 -0.016563553 -0.0064731124
000230 cc 9f 0d 3e ad c3 a9 3d 9b 6b 44 bb b1 34 d2 3d
       0.13830489 0.08289275 -0.0029971364 0.10263956
000240 e9 f7 22 3d 80 5b c2 bc a8 fb 24 3d 54 fc 62 bd
       0.039787207 -0.023725271 0.04027906 -0.05541642
000250 75 a7 49 3d b1 f6 a8 3d 86 86 9e 3d ee 65 68 bb
       0.049231965 0.08250178 0.07740502 -0.0035461145
000260 31 f0 94 bd 11 13 6b 3d ff 62 76 bc 56 60 4f bc
       -0.072723754 0.05739123 -0.015038251 -0.012657246
000270 96 ec 09 bd e7 5d 33 3d 63 1d dc 3c 4f 0b 51 3d
       -0.03367289 0.043790724 0.026869481 0.051036175
000280 1c c4 71 3d f4 8d 67 3d f5 85 6a 3d d9 87 95 bc
       0.059024915 0.05653186 0.057256658 -0.018253254
000290 3f 39 e5 bc 25 1d ca bc 64 3d a0 3d 5f d5 c3 3d
       -0.027981399 -0.0246721 0.07824209 0.09562182
0002a0 0f 1c 0c 3d f7 3a 98 3d 7e 69 30 bd a1 b5 91 bc
       0.034206446 0.07433122 -0.043069355 -0.017786803
0002b0 b7 68 ec bb 98 fb 7f bd 0d 25 dc bd 30 d3 6e bd
       -0.0072146314 -0.062495798 -0.107492544 -0.058306873
0002c0 55 89 0f be 9f 95 16 be d3 b0 c8 3d 98 64 b3 3c
       -0.14017232 -0.14705513 0.097993515 0.021898553
0002d0 9a b7 6a bd be fd 28 bd f6 a1 17 be 3e 36 57 3c
       -0.057304002 -0.041257612 -0.14807877 0.013135491
0002e0 50 94 8e 3d 68 c3 da bd de ef 35 bd 9f 7f a2 bd
       0.06961882 -0.10681802 -0.04441821 -0.07934498
0002f0 05 03 17 3d cf e0 40 3d 42 0d a7 bd 4c 74 0b be
       0.036868114 0.047089394 -0.081568256 -0.13618582
000300 9e 9e 46 bd ab ec c3 3d f6 c1 37 bd ef 09 24 bd
       -0.048491113 0.09566625 -0.04486271 -0.040048536
000310 7c d4 bc bd f0 2c 21 bd 8a 03 68 bc fe 46 79 bd
       -0.09220216 -0.039349496 -0.014161 -0.06085872
000320 57 d2 87 bc 54 a6 08 be e5 e9 69 bd b7 84 95 ba
       -0.01657979 -0.13344699 -0.057107825 -0.001140735
000330 c1 94 ea 3d 4c 09 99 bd fe 53 e0 bd 03 6c 89 bb
       0.11454154 -0.07472476 -0.1095352 -0.004193784
000340 38 7b 65 3c ec 66 ec 3d fa 0e a3 bd ab a8 f4 bd
       0.014006428 0.11543068 -0.07961841 -0.11946233
000350 f1 f8 cc bd 16 ec f2 bd 4a 2c 0d bc c7 d0 0b 3c
       -0.10008419 -0.11861436 -0.008616516 0.008533663
000360 6d 18 97 3b 75 5c 3d bd 42 10 59 bd 1a 04 53 3d
       0.004611066 -0.046230752 -0.05299402 0.051517583
000370 09 5c 03 3e dc 1b e6 3c 48 ef 1e 3d c6 13 c0 3d
       0.12828077 0.028089456 0.038802415 0.093787715
000380 40 65 8e bc 96 7c 6d bd aa 87 23 be c7 b7 c4 bb
       -0.017382264 -0.057980143 -0.1596972 -0.0060033533
000390 27 d3 bc 3d 0a 79 01 3d 33 4c a5 bd cf b2 b1 bd
       0.092199616 0.031609572 -0.080711745 -0.08676683
0003a0 72 ea f2 3b f3 90 c8 3d fb 2f 90 3c 16 dd cf bc
       0.007413202 0.09793272 0.017601004 -0.025373977
0003b0 9f f4 44 bd e8 2d df bc 64 34 b5 3d a6 99 96 3d
       -0.04808485 -0.02724357 0.08847883 0.07353525
0003c0 fa 72 c7 3c 6d 69 df 3a d9 50 95 3c 2a 01 5a 3d
       0.024346817 0.0017044969 0.018227028 0.053223766
0003d0 d0 ed 66 bd 22 20 94 3c 44 d3 a5 bd ed 3d 01 3d
       -0.05637914 0.018081728 -0.08096936 0.031553198
0003e0 a6 b8 47 3d 5d 40 43 bd da 2a 05 bd 43 5b fb bc
       0.04876008 -0.047668803 -0.03251157 -0.030683165
0003f0 15 c5 7d 3d b5 1b 33 bd b0 20 0c bd 5d 45 81 3d
       0.06195553 -0.043727595 -0.03421086 0.06312058

conv2.bias f4 [20]
000000 8a 6f 73 3c df de 89 bd 2b a1 2b bb 80 e5 1a bb
       0.014858136 -0.067319624 -0.0026188593 -0.0023635328
000010 03 d1 1c 3d c4 a0 9b 3c 8f 9d f1 bb f4 ba 6b 3d
       0.038285267 0.018997557 -0.007373519 0.05755134
000020 39 7b 1c 3d e3 63 bc 3d ba 70 0a bd 82 85 8e 3d
       0.03820345 0.091987394 -0.03379891 0.06959058
000030 e6 f2 80 bd 2a 40 7c 3c a7 74 2f 3d 6d 40 e2 3c
       -0.06296329 0.015396157 0.042835858 0.027618611
000040 9e 4a 01 bd d4 a1 7d bd a6 2c 28 bb 25 fd a4 3d
       -0.0315653 -0.06192191 -0.0025661378 0.08056096

fc1.weight f4 [50, 320]
000000 8b cd 65 3d d8 65 e1 3c 1c 52 69 bc f0 18 a5 3d
       0.056104224 0.027514383 -0.014240768 0.08061397
000010 7a c7 ac 3d f9 0e 5f 3d a4 cb 33 bd bb 6c 20 bb
       0.08436485 0.05445764 -0.04389538 -0.002447887
000020 8f ec f2 bc c5 36 13 be 27 8f ff bd db 8a 62 bd
       -0.029653816 -0.14376362 -0.12478476 -0.055308204
000030 16 fd 33 bd 51 c9 58 bd 44 a6 0b 3b 2c f7 b1 bc
       -0.043942533 -0.052926365 0.0021308819 -0.021724306
000040 c2 64 b2 3c ab 92 8a bc d9 04 73 3d 41 5c c6 3d
       0.02177656 -0.01691564 0.059330795 0.09685565
000050 d1 ad bd bb 6b 16 f5 bc c5 2a 0b 3d b6 47 55 bd
       -0.005788543 -0.029917916 0.033976335 -0.052070342
000060 6c 09 9d 3c 5b 38 b9 bc 0f b0 09 3d ac 94 3f 3d
       0.019169532 -0.02260988 0.03361517 0.046772644
000070 61 3e a4 bc 5d 4a 39 bd 45 6b b6 bd 09 e1 6a bc
       -0.020049276 -0.045236934 -0.08907179 -0.014335879
000080 06 8e 03 3d 8d f7 2c 3d 52 17 48 bc 86 d5 ba bc
       0.032117866 0.04222827 -0.012212591 -0.022806894
000090 bf 97 ea bc 2b 9c 8a bc 17 e0 08 3d 36 c4 b1 bd
       -0.028636811 -0.01692017 0.033416834 -0.086800024
0000a0 88 4b aa bd 90 f7 9f 3c eb 88 c1 bc e4 0d 9c bd
       -0.08315188 0.019527227 -0.023624858 -0.07619837
0000b0 2c 50 4a bd c2 69 b7 3b 78 7e f4 bc bc 6d 8c 3d
       -0.049392864 0.005597324 -0.029845461 0.06856868
0000c0 2b b9 a0 bd 02 c7 f5 bb 46 ba ca bd 19 52 17 be
       -0.07847818 -0.00750053 -0.0989881 -0.14777412
0000d0 3a 28 58 b9 d9 bf 0d bd b6 ec 95 3c cc f8 6b 3d
       -0.00020614351 -0.03460679 0.01830135 0.057610318
0000e0 f2 75 87 bb b9 45 a3 bd 43 db 51 3c 10 aa a6 3d
       -0.004133933 -0.07972283 0.012808624 0.081379056
0000f0 51 a8 91 bd 42 90 12 bc 40 be 84 3d 46 23 43 3d
       -0.07112182 -0.008945527 0.064816 0.04764106
000100 d6 80 97 bd 1d f2 80 bd dc 3c b3 bd 4a 0e 65 bc
       -0.073976204 -0.062961794 -0.087518424 -0.013980458
000110 f3 b2 ab bc d0 d9 01 be 75 ed a0 3d c0 58 07 3e
       -0.020959353 -0.12680745 0.07857791 0.13217449
000120 b9 fb a9 3d 30 8a b1 bc 2c 97 44 bd 4a 72 fb bc
       0.082999654 -0.021672338 -0.04799573 -0.030694146
000130 f7 19 d4 3d 0d c1 b9 3b 88 e5 6f bd a2 bf 0c bd
       0.10356515 0.0056687654 -0.058568507 -0.034362443
000140 f1 e4 49 3d 2a fb 26 3d 48 99 a9 3b e0 e0 42 3b
       0.0492906 0.040766872 0.0051757433 0.0029736087
000150 4a 5c 63 3c 7d c5 3f be d2 36 d3 bd 3d 89 69 bd
       0.013876984 -0.1872768 -0.103131905 -0.057015646
000160 41 3f 1a be 25 c9 19 3c 50 6f fa 3b 1d 52 7a 3b
       -0.15063192 0.0093863355 0.007642664 0.0038195916
000170 54 8e 23 3d 2e 44 86 3d af b9 f1 ba ed 6d b6 bd
       0.039930657 0.06555973 -0.0018442179 -0.089076854
000180 2a eb 2a 3a 65 ce 83 3d b6 b1 c4 3d 5b 51 37 3d
       0.00065200275 0.06435851 0.09604208 0.04475532
000190 c7 21 1e bd a2 78 61 bd aa 4a 84 3c 6c e9 03 be
       -0.03860643 -0.055046685 0.016148884 -0.12882012
0001a0 5a 4f 94 bd 5e b1 32 38 fc 06 92 3d a1 43 0a bd
       -0.072416976 4.2603693e-05 0.071302384 -0.033755902
0001b0 0a ea 34 3d f8 84 b3 3c 7b cc 8c 3c f1 f3 2f bd
       0.04416851 0.02191399 0.017187348 -0.04295725
0001c0 b7 5e bc 3c cb bc 05 bd 59 90 29 bd fd 04 ac 3d
       0.022994382 -0.03265075 -0.041397426 0.08399389
0001d0 16 7d 01 3d 0e bd 9d bd a9 cc e6 ba a7 1d 7f 3d
       0.031613432 -0.07702075 -0.0017608601 0.062284138
0001e0 0b ba ed bc 7b a3 40 3d 0d 1d e9 3c 1f 98 e9 3c
       -0.029019376 0.047030907 0.028456235 0.02851492
0001f0 1e c9 b3 3a 61 b8 b4 ba dd 93 f0 bc 88 f2 7e 3b
       0.0013716554 -0.0013787859 -0.029367382 0.0038901884
000200 ad f7 bb 3b e1 ac b3 bd a2 36 76 bd a2 a7 26 3c
       0.0057363124 -0.087732084 -0.060110696 0.010171803
000210 f8 12 d8 bc a9 19 9b bc 68 bf 65 bd 0e c2 c2 3d
       -0.026376233 -0.018933134 -0.056090742 0.09509669
000220 b7 ca 67 bc c1 6d 49 3d 54 0f c4 bd d9 a1 05 3c
       -0.014147452 0.049176935 -0.09573236 0.008156263
000230 18 4e 20 3d b0 c0 61 3d 2e 4c 6d 3c fc 7e 87 bc
       0.039136976 0.0551154 0.014483495 -0.016540043
000240 82 22 3b 3d 73 bf 1e bd 75 ae d1 bc 0d 1f 81 3d
       0.045687206 -0.0387568 -0.025595883 0.063047506
000250 56 ea 9d 3d dc b6 8b bd d1 58 50 3d 68 3c 73 3d
       0.07710712 -0.06821987 0.050865952 0.05938378
000260 06 69 f3 bc 61 6c 83 bd 40 07 b9 bd a6 ef 82 bd
       -0.029713165 -0.06417156 -0.09034586 -0.063933656
000270 04 db 4c bc b0 cb 10 bd 24 9a 17 be f6 b4 b3 bd
       -0.012503389 -0.0353505 -0.14804894 -0.0877475
000280 f7 d2 a0 bd 80 01 26 bd 8f 81 d4 bd ce 4d 05 bd
       -0.07852738 -0.040528774 -0.10376274 -0.032544903
000290 03 7c 6f bd ef f6 49 38 bf f8 a5 bd 04 b0 98 3a
       -0.058467876 4.815211e-05 -0.08104085 0.0011649136
0002a0 a0 44 5f 3b 28 31 10 3d 24 53 aa bd c5 25 11 3b
       0.0034068003 0.03520313 -0.08316639 0.0022147757
0002b0 ef a3 80 3d 18 27 d1 3d 5f fd a3 3a e6 38 fb bc
       0.06281268 0.10212535 0.0012511424 -0.03066678
0002c0 3a 99 8a 3d f8 49 04 3d 7a 00 e2 bc f8 71 09 bc
       0.06767507 0.032297105 -0.027588118 -0.008388989
0002d0 a0 ba 0f be 0b 2e c1 bd 39 b8 30 be dc 36 59 3c
       -0.14036036 -0.0943261 -0.17257775 0.013257708
0002e0 59 66 bb bd 23 f2 d7 bc b0 75 84 bc 27 89 8f bd
       -0.09150381 -0.026360577 -0.016169399 -0.070085816
0002f0 c1 fe 7e bd 5c 2c c1 3d 7b 5f 2e bc 42 dc 20 be
       -0.06225467 0.09432289 -0.0106428815 -0.15709022
000300 a6 bf 27 3d be 09 a0 bd 79 de 55 bd fb 79 b9 3c
       0.040954255 -0.07814358 -0.05221412 0.022641173
000310 1e 81 13 b9 fc cf 01 3c 89 70 0f 3c b5 a0 d2 3c
       -0.00014067112 0.0079231225 0.008754858 0.025711397
000320 2a cf c7 3d 8b d5 0d bc f7 a9 6b 3b 65 e9 da bc
       0.0975631 -0.00865687 0.0035959461 -0.02672262
000330 cf 94 f6 3c 84 ec 99 bc 07 48 64 bd 3b 1f 1e bd
       0.030100254 -0.018789537 -0.055732753 -0.038604002
000340 43 f0 23 bd 16 9c 7a bd a7 85 69 bd 0c 42 20 bd
       -0.040024053 -0.06118401 -0.057012226 -0.039125487
000350 83 38 da bb 18 48 12 3d 44 56 0c bd 3e 72 41 bd
       -0.0066595688 0.035713285 -0.034261957 -0.04722809
000360 6e 9c be 3d b8 5d e7 3c 98 14 22 bd c1 9d 32 3d
       0.0930718 0.02824293 -0.03957042 0.043607477
000370 5e 1c 61 3c c3 43 14 bd 3f 0c a3 3d 7b 4a 1f 3c
       0.013739673 -0.036197435 0.0796132 0.009722347
000380 ca c3 d2 3c 0c 1b a3 bd 4f 65 8a bd 84 73 aa bc
       0.025728125 -0.07964143 -0.06757604 -0.020807035
000390 18 3f 23 3b e3 7f e2 3d 9e c2 f0 3d 04 28 72 3c
       0.0024909433 0.11059549 0.1175587 0.014780048
0003a0 c9 f9 22 3d 65 9f 1c 3e 42 62 c6 3c 3e 34 ab bb
       0.039788995 0.15295179 0.024216775 -0.0052247336
0003b0 d9 cd bb 3c 93 92 15 3d 6f db 63 3d 0f 17 30 3c
       0.022925304 0.036516737 0.05562919 0.010747685
0003c0 41 c1 a6 bd 5e 5e 13 3c 2a df f6 bc 2d 05 a5 bd
       -0.08142329 0.008994667 -0.03013571 -0.08057628
0003d0 70 08 fe 3c af c2 34 bd 54 2a bb 3d 35 52 52 bc
       0.031009883 -0.044130977 0.09138933 -0.0128369825
0003e0 b4 39 e8 bc 9a 8c 3c 3d 39 db 25 3c 8d 7f 83 3c
       -0.028347827 0.046032526 0.010123068 0.016052032
0003f0 25 38 46 3d 1a af b6 3d 3d 50 9f 3d 10 88 5a bd
       0.048393387 0.08920117 0.07778976 -0.053352416

fc1.bias f4 [50]
000000 3f 10 1d 3d 9e 62 0e bc 9c f6 72 3d 73 00 b7 3d
       0.03834557 -0.008690504 0.059317216 0.089356326
000010 8d 41 5d 3c fc a9 c6 3d 86 cc 1e 3d 44 4d 99 3d
       0.013504398 0.09700391 0.038769267 0.074854404
000020 9c a9 4d 3d 3f fc 99 bc 7d db 87 3c ff 59 73 3c
       0.05021058 -0.018797038 0.016584152 0.014853
000030 05 65 0a 3e 5a fb 0a 3e f0 b0 9f 3d 5c 0e c1 3d
       0.13515098 0.13572446 0.0779742 0.09426567
000040 d0 89 46 3d 40 8d 5f 3d ab ec 14 bd f7 9b c1 3d
       0.048471272 0.054578066 -0.036358517 0.09453576
000050 a6 e1 c6 3d 01 29 3b 3d 4b 68 b1 3c 74 1d de 3b
       0.09711008 0.0456934 0.021656176 0.0067784134
000060 c3 28 1f 3d 50 4a ce 3b 1a c7 27 3c cb 0f 50 3d
       0.038857233 0.00629548 0.010240341 0.05079631
000070 c9 54 59 3d bb 0d 53 3d ad 50 39 3d 28 55 7c 3d
       0.053059373 0.051526766 0.045242954 0.06160465
000080 66 e2 21 3d 00 ad 3e 3d f9 8c fe 3c 18 6c 9f 3c
       0.03952255 0.046551704 0.03107308 0.019460723
000090 b1 53 ce 3d cb ab 39 3d 6d 18 18 3c 8c 20 4d 3d
       0.100745566 0.04532985 0.009283167 0.050079867
0000a0 2a 46 29 3d 30 51 75 3d 0b 74 0d bc 21 1c 52 bc
       0.04132668 0.05989188 -0.008633624 -0.012824089
0000b0 b5 67 a3 3d 4b 9d 8d 3c 33 51 b5 3d 07 7e 1e 3d
       0.07978765 0.017286917 0.08853378 0.038694408
0000c0 21 47 7d bb bb 8b 99 3d
       -0.0038647132 0.074973546

fc2.weight f4 [10, 50]
000000 84 42 43 3e 7a 1e 8c be 0b ab df 3d f3 f5 85 be
       0.19068342 -0.27367002 0.10921296 -0.26164207
000010 52 a2 3a be 62 dd 90 be 12 98 a9 3d 22 75 1e be
       -0.18225983 -0.28293902 0.08280958 -0.1547437
000020 06 90 aa bd db b5 56 bd c5 56 4b be 72 fd b3 3d
       -0.083282515 -0.052419525 -0.19857319 0.08788575
000030 40 01 be bd 1e 2a 06 be 77 9e 59 bc 41 6a 59 be
       -0.09277582 -0.13102004 -0.01328241 -0.21231939
000040 50 51 62 be 8a b5 37 be 21 4a 0d 3e e5 8c ce bd
       -0.22101331 -0.17940345 0.13797809 -0.10085467
000050 27 ee 0a 3e de 99 74 3b 44 c0 3d be 88 fe e2 3d
       0.1356741 0.0037323157 -0.18530375 0.11083704
000060 6b a3 5c be e5 22 12 3e 2c 05 1f be 35 fc ae bd
       -0.21546714 0.14271124 -0.15529317 -0.085441984
000070 02 88 3c be 51 17 fc 3d a2 7a 27 be f7 df d8 3d
       -0.18411258 0.12309135 -0.16355374 0.10589593
000080 cc dd 0b 3e 59 f9 8e bc 2b e1 e2 bd 26 75 8b 3d
       0.13658828 -0.017452883 -0.11078104 0.06809454
000090 b9 9c e8 3d a7 aa e2 3d c8 14 c5 3d be d1 19 3e
       0.113580175 0.110677056 0.09623104 0.15021417
0000a0 2c bd 95 3d b7 cf f9 3d b0 97 d5 bd fd 2e 2b 3e
       0.07311472 0.121978216 -0.10429323 0.16717143
0000b0 59 1a f5 bd 1e 4f 9b 3d 14 71 07 3e 75 2d d9 bd
       -0.11967916 0.0758345 0.1322673 -0.10604373
0000c0 6c 9d ec bd ef 1d 9d 3d db a6 f2 bc 84 8c 5e bd
       -0.11553463 0.07671725 -0.029620579 -0.054333225
0000d0 2e 36 58 be fc 98 14 3e 5d ff f1 3d 57 80 b9 3d
       -0.21114418 0.14511484 0.11816285 0.09057682
0000e0 83 80 0e 3e 4a c1 20 3e fa f6 63 be 60 fb bd bd
       0.13916211 0.15698734 -0.22262183 -0.092764616
0000f0 78 88 49 bd 1f 86 db bd 27 49 c6 3d 18 78 bc 3d
       -0.049202412 -0.10718941 0.096819215 0.092025936
000100 97 08 3c be af c3 1f 3e 12 77 04 be 22 9e f9 3d
       -0.18362652 0.15601991 -0.12936047 0.121883646
000110 b6 86 93 3d a9 64 a5 3d d9 e1 1e be 80 38 57 be
       0.072034284 0.0807584 -0.15515842 -0.21017647
000120 69 88 4b be 80 d0 16 3e a5 9a c4 3d 90 98 59 be
       -0.19876255 0.14727974 0.095998086 -0.21249604
000130 4e 49 10 be e4 10 f2 bd a3 3c d6 3d 29 b1 b7 bc
       -0.14090464 -0.11819628 0.10460784 -0.022423344
000140 b9 d3 96 3d c0 dd d6 3d e8 0f da 3d 46 86 67 3d
       0.07364602 0.10491514 0.10647565 0.056524538
000150 6f bc b3 3d 29 37 fa bd f4 e3 68 be 8a bf 2f bd
       0.08776175 -0.12217552 -0.22743207 -0.042907275
000160 86 42 85 be 32 65 51 be 6b ea 36 be 6f d0 c5 bd
       -0.26027316 -0.20448759 -0.17862861 -0.09658896
000170 d7 8d 4f be 50 0a 48 bd 83 be ae 3d 2f 0d 7e be
       -0.20268951 -0.04883796 0.08532431 -0.24809717
000180 9f 93 13 3e dd 7d 90 be 17 4e 15 3e 67 07 77 be
       0.14411782 -0.28221026 0.1458057 -0.24123918
000190 d3 6e 39 3b f6 95 96 bd 80 18 5c be 46 cf 07 3e
       0.0028294816 -0.073528215 -0.21493721 0.13262662
0001a0 9f 8e e2 bd 4d 8c bb be 21 bc 0e 3e f7 f1 e3 bd
       -0.11062359 -0.36630479 0.13938953 -0.111301355
0001b0 4c 3a 32 be b2 f8 0d 3e 3f 8d ef bc c1 99 29 3d
       -0.17405051 0.13864401 -0.029242156 0.041406397
0001c0 60 38 cc bd 53 03 13 be 4a d0 67 be e2 6b 57 3d
       -0.0997169 -0.14356737 -0.2263805 0.05259312
0001d0 f8 37 86 bd 1e da 5a be c6 c1 27 3e 7b ef 02 3e
       -0.06553644 -0.21372268 0.16382512 0.12786667
0001e0 bf 34 10 be 1e 23 23 3d e0 b1 01 3d 67 c5 5a 3d
       -0.14082621 0.039828412 0.031663775 0.053410914
0001f0 0d be de 3d 67 33 fc 3d d5 bc f1 3d f0 41 22 be
       0.10876093 0.12314492 0.11803595 -0.15845466
000200 00 65 d6 3d 2c 50 e3 3d 56 5e bb 3d 05 80 fd 3d
       0.10468483 0.11099276 0.091488525 0.123779334
000210 f2 79 c7 3d 73 33 66 3d 3d 27 86 be b1 88 d4 bb
       0.09740056 0.05620141 -0.2620181 -0.0064860214
000220 3b 3d 17 be ce 6a dc 3d a6 f8 a5 3d 88 81 37 bd
       -0.14769451 0.10762559 0.081040666 -0.044801265
000230 37 b6 0b bd 2a 05 3c 3d 5a e5 fd 3d 84 e3 18 3e
       -0.03410932 0.045903362 0.12397261 0.1493054
000240 0a c6 62 3d 27 79 99 3d 67 9a 12 be 55 dc 94 bd
       0.055364646 0.07493811 -0.14316712 -0.072685875
000250 5c 1d f0 bd 73 83 21 bd 7b 53 c2 bd c2 f4 ca bc
       -0.1172435 -0.039432 -0.09488579 -0.024774913
000260 18 5d 34 be c9 e0 a7 bd 95 60 e3 bd 71 b6 2f bd
       -0.17613637 -0.08197171 -0.11102406 -0.0428986
000270 60 f8 0f be cd 54 4f be bd 63 ab 3d b1 03 1c 3e
       -0.14059591 -0.20247193 0.08368633 0.15235783
000280 fc df dd 3d 59 29 f9 3d 11 e6 e1 3d a0 0f 6b be
       0.10833737 0.121660896 0.1103021 -0.22955179
000290 81 12 2e be 6d 0e 16 3e 9f a6 48 3d 7e 31 f6 3d
       -0.16999246 0.1465394 0.048987027 0.12021159
0002a0 94 ae 2d 3c d9 70 cd 3d ef ed 00 be 8a 12 21 3e
       0.010600705 0.100312896 -0.12590764 0.15729728
0002b0 88 bc 26 be cf 16 35 be 6d 1a 45 bd a3 4e 04 be
       -0.16282856 -0.17684482 -0.048120905 -0.12920623
0002c0 d6 7d c5 bd 8f 00 0b 3e f0 e0 f9 3d 76 c7 06 3e
       -0.09643142 0.13574432 0.122011065 0.13162026
0002d0 be d9 a8 3d e7 65 96 bb e7 8f 13 be 2c 96 46 3d
       0.08244656 -0.0045897844 -0.14410363 0.04848306
0002e0 b4 a7 a9 bc 63 a6 86 bd 86 cc bb 3d fa 65 04 3e
       -0.02070985 -0.065747045 0.09169869 0.12929526
0002f0 5e b6 3f bc ed d4 ed ba 5f 01 f0 3c 34 e9 a5 bc
       -0.011701195 -0.0018145122 0.029297529 -0.020252801
000300 48 37 86 3c 41 dd e3 bc 3d 38 cb 3d ca 5f 86 bd
       0.016383782 -0.027815463 0.09922836 -0.06561239
000310 67 44 0f be c6 43 51 be 46 3e b6 bd 4e 18 81 3d
       -0.13990937 -0.2043601 -0.088985965 0.06303464
000320 51 8a 6d 3c e9 3e c5 3d 08 38 20 be ee 8c aa 3d
       0.014498309 0.0963114 -0.15646374 0.083276615
000330 b7 25 f6 3d d5 a9 35 3b 93 fd 03 3e c2 33 26 3e
       0.12018912 0.0027719636 0.128897 0.16230682
000340 a0 16 f6 3b 43 ee 09 3e 60 a8 dc 3d 1f b0 88 be
       0.0075100213 0.13469796 0.107743025 -0.2669687
000350 2f 29 91 bc 77 5d 45 3d bf c9 a2 3d 8d a4 fa 3d
       -0.017719833 0.04818484 0.07948636 0.12238417
000360 48 fc ec 3d 9b da 00 bd 45 6b 9f 3d a1 a0 43 be
       0.11571556 -0.03145848 0.07784132 -0.19104244
000370 0e f1 12 3d 5c 57 ee bd 5a 6f 0e 3e fd 29 15 3e
       0.03587442 -0.11637756 0.13909665 0.14566799
000380 4f 43 4b bd 2a 11 7d 3d f5 52 08 3e 48 37 f8 3d
       -0.049624737 0.061783947 0.13312896 0.12119919
000390 cc 99 3f bd b2 aa 15 be 42 34 20 be b8 f5 c9 bd
       -0.04677753 -0.14615896 -0.15644935 -0.0986132
0003a0 45 ee 3b 3d 2b 4b 24 be ff 5e c7 3d 04 f0 08 be
       0.04588153 -0.160443 0.09734916 -0.13372809
0003b0 3b 55 89 3d 3e a4 20 be 6f a2 e3 3d bb f4 9b 3d
       0.067057095 -0.15687653 0.11114966 0.07615038
0003c0 22 ab fc bd 27 c6 54 be 03 b0 69 be 97 7c b3 bd
       -0.123373285 -0.20778714 -0.2282105 -0.08763998
0003d0 a1 96 2e be 84 c0 a1 3d 47 d9 16 be 18 14 17 3e
       -0.17049648 0.078980476 -0.14731322 0.14753759
0003e0 0b 2f 34 3e ed d1 93 be 1c ce b0 bd b6 19 a4 3d
       0.1759607 -0.28871098 -0.08633062 0.080127165
0003f0 0d 5c f3 3d 8c 38 f1 3c bb 4f 17 3e 94 97 a6 3c
       0.11882792 0.029445909 0.14776509 0.02033595

fc2.bias f4 [10]
000000 b3 1b 4a be 7c 80 43 3e f5 86 5d 3d e0 d0 47 3d
       -0.19737129 0.19091982 0.054083783 0.048783183
000010 56 87 79 be df 59 de 3d e7 23 39 bc 46 ed 5f bd
       -0.24368033 0.10856985 -0.011300064 -0.05466964
000020 2c 01 09 3e 74 aa 64 be
       0.13379353 -0.22330648

exp_avg f4 [10, 1, 5, 5]
000000 02 db 3b bc 20 d6 be bb d8 33 5f bb e7 ff eb ba
       -0.01146579 -0.0058238655 -0.0034058 -0.0018005342
000010 56 98 87 bb 13 28 1c bc 0e fd 53 bb 49 4e e1 b9
       -0.004138033 -0.009531039 -0.0032346877 -0.0004297367
000020 bb 3a 77 ba 62 af b9 bb 56 fa 21 bc 06 c4 bf bb
       -0.0009431054 -0.005666659 -0.009886345 -0.0058522252
000030 b4 8b c9 bb 74 28 0f bc 11 84 31 bc aa 48 37 bc
       -0.006150687 -0.008737672 -0.01083471 -0.011186758
000040 d3 df 7f bc cb 2c 91 bc f7 67 8e bc ce 51 5d bc
       -0.015617329 -0.017721554 -0.017383559 -0.013508273
000050 32 13 84 bc 09 1f b1 bc e9 b5 b8 bc 44 63 c1 bc
       -0.016122434 -0.021621244 -0.022547679 -0.023606904
000060 bc db 55 bc 9e 24 b6 bb a9 cd 03 bc 21 99 d2 bb
       -0.013052877 -0.0055585643 -0.008044639 -0.006426946
000070 65 cd 6a bb 98 41 08 bb 06 32 f6 bb 4f 92 c6 bb
       -0.003582799 -0.002079105 -0.0075132875 -0.006059922
000080 dc 03 43 bb 33 88 ff ba eb 29 0b ba 07 e1 a7 bb
       -0.002975694 -0.0019495547 -0.00053086755 -0.005123261
000090 3f d5 44 bb 7d db 1b ba 82 a5 00 ba bc 18 8f 3a
       -0.003003433 -0.0005945487 -0.0004907475 0.0010917406
0000a0 fd 9d 1d bb 68 b8 c1 ba df 2e 81 39 c5 cb 46 3b
       -0.0024050467 -0.0014779689 0.0002463972 0.0030333858
0000b0 db 5f 6c 3b dd a6 85 ba e8 83 34 3a e1 ca 1e 3b
       0.0036067876 -0.0010196824 0.00068861106 0.0024229812
0000c0 cb 69 c2 3b f2 9e cd 3b 98 0a 23 3c 9c 74 16 3c
       0.0059330217 0.0062750513 0.009951256 0.009183075
0000d0 f4 1b 28 3c 62 cc 35 3c 3b 0d 26 3c 59 18 06 3c
       0.010260571 0.011096092 0.01013499 0.008184516
0000e0 d4 e9 19 3c 59 76 07 3c eb 3c d0 3b a1 64 a4 3b
       0.009394128 0.008267962 0.0063549182 0.0050168787
0000f0 78 32 23 3c 4c 24 26 3c 06 0c 51 3b 13 59 23 3a
       0.009960763 0.01014049 0.0031898036 0.00062312296
000100 8c cf ef 3a 73 d2 1c 3c f9 88 e6 3b 17 4c 00 3a
       0.0018296107 0.009571659 0.0070353714 0.0004894151
000110 18 6d d9 ba 52 1d 97 3a 23 73 ea 3b bf 5b 56 3b
       -0.0016588299 0.0011529124 0.0071548386 0.0032708494
000120 65 75 40 3a fa 6b 1e ba b9 3e 3c 3b c2 b3 cf ba
       0.0007341712 -0.00060433114 0.002872391 -0.0015846419
000130 4e bb 00 bb f6 c1 59 bb f9 32 0b bb 99 6b 04 3b
       -0.0019642892 -0.0033227182 -0.00212401 0.0020205735
000140 1f ce d5 b9 d0 9f f4 ba 77 e1 1f bb b0 1b 2b bb
       -0.00040780098 -0.001866335 -0.0024395862 -0.0026109032
000150 c7 62 8c 3a 59 72 3c 3a e8 fb eb b9 b6 38 82 3a
       0.001071059 0.000718867 -0.00045010378 0.0009935114
000160 c5 61 42 3b 6d 82 60 3a d1 65 3d 3b 81 84 46 3b
       0.0029660326 0.0008564357 0.0028899799 0.003029138
000170 d9 4f 68 3b 6e 74 1a 3b fb 6f 6d ba a1 15 6b 3b
       0.0035447984 0.0023567933 -0.0009057519 0.0035871046
000180 02 5f b0 3b c0 40 99 3b 27 bf 44 3b 1f 3f c0 ba
       0.0053824196 0.0046769083 0.0030021162 -0.0014667249
000190 a6 56 f8 bb bd 29 86 bb 2c f4 1e bb ea de 87 b8
       -0.0075786887 -0.004094331 -0.0024254424 -6.4788226e-05
0001a0 f4 ff d0 3a 30 af dc bb 3e ba 6c bb 12 b4 4e bb
       0.0015945421 -0.006734751 -0.0036121751 -0.0031540436
0001b0 cd 99 14 bb 1c 19 e0 3a c6 1c ab bb 47 54 5d bb
       -0.002267468 0.0017097327 -0.005221936 -0.0033772157
0001c0 df b7 ac bb b2 ba 93 bb 3d ea a6 38 85 4c 63 bb
       -0.0052709426 -0.00450834 7.959127e-05 -0.003468306
0001d0 b0 6f a7 bb 38 5d b0 bb ca fc 98 ba 18 f9 b0 39
       -0.0051097497 -0.0053822063 -0.0011672017 0.00033754925
0001e0 96 e2 b7 bb cc 8b c8 bb 17 77 42 bb b3 66 16 3b
       -0.005611728 -0.0061201807 -0.0029673034 0.0022949397
0001f0 e0 31 85 3a 16 5a 81 bc d5 2f 86 bc ad 78 1d bc
       0.0010161959 -0.015790027 -0.01638023 -0.009611291
000200 4c ca 27 bc 58 0e 13 bc dd 37 6d bc b0 a8 09 bc
       -0.010241102 -0.008975588 -0.014478651 -0.008402035
000210 14 27 98 bb 34 62 5a bb c1 c3 d6 ba 40 05 28 bc
       -0.0046433304 -0.0033322694 -0.0016385244 -0.010255158
000220 78 c6 6f bb 79 e1 76 b8 59 83 02 bb 5f 60 30 bb
       -0.0036586802 -5.886096e-05 -0.0019914715 -0.002691291
000230 99 7c 96 bb a6 96 0e ba a8 f1 67 3a df 4c 4d bb
       -0.00459249 -0.00054393185 0.000884796 -0.0031326336
000240 ae a5 52 bb bb 4b 36 bb d0 34 1b 3b e6 6f af 39
       -0.003214221 -0.0027816135 0.0023682602 0.00033461972
000250 8e e0 66 bb ef ff 05 bb 57 58 57 ba d9 02 ef ba
       -0.003522906 -0.0020446738 -0.0008214763 -0.0018235102
000260 94 3b 8d bb c9 fa 7f bb 21 a5 f3 ba 5e 32 1f bb
       -0.004310081 -0.0039059392 -0.0018588641 -0.0024291496
000270 34 b7 a9 bb cc 49 b4 bb 9c 1a 33 bb ce 5b ae ba
       -0.00517931 -0.0055019613 -0.0027329093 -0.0013302506
000280 f6 d3 a5 bb 09 47 9f bb 95 81 93 bb 66 da 20 bb
       -0.005060668 -0.004860763 -0.0045015314 -0.0024544238
000290 ab b1 d9 ba 42 93 b2 bb 6c c0 b9 bb 6a df 2c bb
       -0.0016608735 -0.0054496834 -0.0056686904 -0.0026378282
0002a0 c8 c6 e1 ba e4 c1 47 ba db d4 b2 ba 37 26 20 b7
       -0.0017225379 -0.00076201395 -0.0013643758 -9.545641e-06
0002b0 c0 59 be 3a f8 1c 6e b9 bb aa 2e b8 34 40 ca 3a
       0.0014522597 -0.0002270824 -4.1643838e-05 0.0015430511
0002c0 53 dd 5b 3b 31 28 e7 3b 40 20 2b 3c 8a 37 2d 3c
       0.0033548668 0.0070543517 0.010444701 0.010572324
0002d0 67 1a 18 3a 87 e6 4f 3b bf 2e 22 3c f2 35 58 3c
       0.0005802274 0.0031723098 0.00989884 0.013196455
0002e0 90 3d 13 3c 4b 64 0b b7 20 fe 8c 3b ed 29 40 3c
       0.008986846 -8.308397e-06 0.004302755 0.011728746
0002f0 94 a8 7f 3c 56 81 0d 3c b0 3e 11 3b a2 0a db 3b
       0.015604157 0.008636793 0.0022162609 0.006684617
000300 fb bd 4e 3c 83 ca 68 3c c4 85 e0 3b 1c ff ac 3b
       0.012618537 0.014208439 0.0068518836 0.005279435
000310 93 44 2e 3c 2c c3 3a 3c 27 82 4c 3c 95 c9 ee 3b
       0.010636467 0.011399072 0.012482203 0.007287214
000320 05 32 31 3a 92 ab a3 ba b3 63 6d 39 88 0d c7 3a
       0.00067594677 -0.0012487045 0.00022639222 0.0015186528
000330 80 ba 79 3a 75 fe 25 bb 5e c1 22 bb 80 94 82 ba
       0.0009526387 -0.002532867 -0.0024834494 -0.0009962469
000340 71 4c d8 3a 57 39 5c 3b aa d6 42 bb 2b e1 0b bb
       0.0016502274 0.0033603513 -0.002973 -0.0021343927
000350 ec 03 8c ba 98 6d 1e 3b 6d 11 58 3b af 25 bf ba
       -0.0010682321 0.002417421 0.003296937 -0.0014583374
000360 ec 18 86 ba 23 13 72 3a d9 20 8f 3a fa b7 7f b9
       -0.0010230816 0.0009234419 0.0010919824 -0.00024387232
000370 0a c1 31 ba 62 6d 72 ba 94 99 32 3a 5b 4e 75 3a
       -0.0006780779 -0.00092478667 0.0006813046 0.0009357684
000380 55 c5 77 3a 79 0a ef ba 36 cb 52 ba e0 dc 98 ba
       0.0009451707 -0.0018237374 -0.0008041145 -0.0011662506
000390 a6 29 90 39 31 42 6a 3b 6f b7 2a bb 7c 2a e0 ba
       0.0002749685 0.003574502 -0.0026049276 -0.0017102505
0003a0 15 2e 23 bb 7d 9a 90 3a 38 f4 ad 3b 47 c7 3d bb
       -0.0024899293 0.0011032369 0.005308654 -0.002895789
0003b0 32 37 72 bb 9d a9 3a bb bd 6d 4e 3b da a5 dd 3b
       -0.0036959169 -0.0028482445 0.0031498515 0.006764156
0003c0 8c 57 bc ba e9 7f 18 bb 4a c8 90 b8 e1 7b a6 3b
       -0.0014369353 -0.00232696 -6.903762e-05 0.0050806855
0003d0 39 a8 ae 3b 31 b8 a8 b9 29 fc ee ba 55 6c 82 36
       0.0053301123 -0.0003218069 -0.0018233109 3.8869134e-06
0003e0 4c 88 8e 3b a3 fa 6c 3a
       0.004349744 0.00090400333

exp_avg_sq f4 [10, 1, 5, 5]
000000 4c 24 f9 39 42 54 ad 39 83 e3 49 39 db e2 66 39
       0.00047520024 0.00033059908 0.00019253608 0.0002201902
000010 55 9e b4 39 78 df 00 3a 7f 52 95 39 64 fc 3e 39
       0.00034450242 0.0004916112 0.0002848096 0.00018213835
000020 d5 17 87 39 c9 04 04 3a 0b fc 1f 3a db 24 f6 39
       0.00025766963 0.00050361134 0.0006102926 0.00046948236
000030 3c 47 c8 39 9f 62 0d 3a a6 07 55 3a d5 41 4a 3a
       0.00038200046 0.0005393419 0.0008126445 0.0007715498
000040 8b 74 56 3a 6b 27 7d 3a ca 4b 96 3a 7c 7e 97 3a
       0.00081808184 0.0009657058 0.0011466679 0.0011558081
000050 e5 2b 71 3a 0b a3 8c 3a 5e 37 ac 3a 5c c7 c0 3a
       0.0009199961 0.0010729743 0.0013139059 0.0014707851
000060 b7 bf 9e 3a 16 87 36 39 4d 04 41 39 16 bf 43 39
       0.0012111579 0.00017407196 0.00018407516 0.00018667834
000070 68 8f 2b 39 65 23 05 39 11 6b 43 39 d0 43 34 39
       0.00016361254 0.00012697054 0.00018636535 0.000171914
000080 68 0d 24 39 24 2c 1b 39 4f 45 0e 39 63 d4 16 39
       0.00015645253 0.00014798396 0.00013567995 0.00014384235
000090 c0 bb f8 38 6f df 03 39 2a 0b 09 39 a0 c7 0b 39
       0.00011860533 0.00012576369 0.00013069497 0.00013330439
0000a0 c5 24 e1 38 47 8b de 38 0c 90 05 39 a6 1a 20 39
       0.00010735685 0.00010611727 0.0001273753 0.00015268716
0000b0 00 07 1d 39 89 c3 ed 38 9f 9d 05 39 25 84 24 39
       0.00014975294 0.00011337462 0.00012742587 0.00015689486
0000c0 b8 a8 37 39 d2 08 2e 39 27 d9 96 39 a7 fd c0 39
       0.00017515093 0.00016597219 0.0002877202 0.0003681008
0000d0 cc 43 b4 39 66 45 86 39 13 1f 36 39 9e 08 af 39
       0.00034382788 0.00025610178 0.00017368449 0.0003338502
0000e0 83 b1 cb 39 c8 47 9e 39 d3 95 2d 39 0b 2c ff 38
       0.00038851434 0.0003018959 0.0001655438 0.00012167551
0000f0 fb 1c c2 39 62 b6 b8 39 ad 4b 31 39 ad 00 ac 38
       0.00037024156 0.000352311 0.00016908227 8.201725e-05
000100 e8 61 a4 38 5a 16 be 39 d5 72 90 39 ca 1f d7 38
       7.838366e-05 0.00036256277 0.00027551377 0.0001025792
000110 75 d5 6a 38 dd 7f 9f 38 b0 a5 ae 39 a8 04 69 39
       5.5988745e-05 7.605527e-05 0.00033311313 0.00022222346
000120 91 82 dc 38 ae 3a a4 38 41 d1 f2 38 a4 53 4b 39
       0.000105147374 7.831059e-05 0.00011578436 0.00019390747
000130 b9 3f 5d 39 b3 6b 6d 39 c0 77 9d 39 4d f5 b2 39
       0.00021099941 0.00022642202 0.00030034594 0.0003413357
000140 08 88 26 39 d2 74 40 39 8c f4 77 39 00 1d a7 39
       0.00015881669 0.00018354066 0.00023646856 0.0003187433
000150 e4 fd 9b 39 4e e8 02 39 d2 eb 29 39 65 e3 81 39
       0.00029753067 0.00012484306 0.00016204946 0.0002477422
000160 15 61 94 39 23 0a 79 39 b9 7c 21 39 7a b8 5d 39
       0.00028301092 0.00023750267 0.0001540062 0.00021144925
000170 4c f8 7b 39 cd 4c 66 39 02 0d 3a 39 36 51 4e 39
       0.00024029723 0.0002196312 0.00017743188 0.00019675944
000180 b8 02 7b 39 97 79 75 39 09 d9 4d 39 d2 f2 27 39
       0.00023938238 0.00023410316 0.00019631175 0.00016016819
000190 4c b2 35 39 42 43 e7 38 37 29 e8 38 fa a0 f4 38
       0.00017327926 0.00011027466 0.00011070299 0.00011664811
0001a0 ef cb 0c 39 58 53 ff 38 8b b1 ee 38 00 85 0d 39
       0.00013427412 0.000121748715 0.00011381794 0.00013496354
0001b0 44 27 0f 39 46 d7 16 39 ca 58 e7 38 4e fd ce 38
       0.0001365217 0.0001438531 0.000110314766 9.870027e-05
0001c0 a2 a7 f9 38 e9 3a 06 39 5a 27 11 39 c7 77 e7 38
       0.00011904469 0.00012801182 0.00013842937 0.000110372486
0001d0 87 8b df 38 eb 8c 05 39 ef c4 11 39 ea e3 1e 39
       0.000106594576 0.00012736364 0.00013901641 0.00015152959
0001e0 b6 86 0d 39 fe 17 27 39 4a e6 28 39 33 25 1a 39
       0.00013496992 0.00015935299 0.00016107518 0.00014700442
0001f0 c3 71 22 39 71 52 23 3a 2a 85 2e 3a 7d 17 2a 3a
       0.00015491903 0.0006230241 0.0006657416 0.00064884854
000200 d8 a3 29 3a 54 80 33 3a 03 54 1f 3a f7 3b 1b 3a
       0.0006471253 0.00068474305 0.00060778874 0.0005921716
000210 93 c8 0e 3a 32 39 10 3a 41 88 18 3a a2 57 d4 39
       0.0005446758 0.0005501687 0.0005818643 0.00040501083
000220 7c b0 a5 39 70 cc b1 39 6f 5f e1 39 7b fb f1 39
       0.00031602744 0.0003391239 0.00042986448 0.0004615447
000230 65 93 68 39 b2 87 29 39 81 93 57 39 52 3f 9e 39
       0.00022180153 0.00016167646 0.00020558947 0.00030183286
000240 39 12 b8 39 0e f9 1a 39 40 3f 0d 39 60 28 45 39
       0.00035108792 0.00014779365 0.0001347037 0.00018802425
000250 8c 0b 67 39 24 de 8b 39 b7 74 9d 38 d2 61 a0 38
       0.00022034178 0.00026677654 7.508083e-05 7.647615e-05
000260 67 5d c8 38 f9 39 ec 38 98 a6 07 39 70 29 f0 38
       9.554141e-05 0.00011264155 0.00012936664 0.0001145181
000270 5c 82 e9 38 ea 5c f8 38 51 22 fa 38 4f 08 14 39
       0.00011134587 0.00011842868 0.00011927321 0.00014117475
000280 e3 be 2d 39 94 43 2f 39 44 f1 18 39 83 04 16 39
       0.00016569677 0.00016714475 0.00014585728 0.00014306795
000290 0a 3a 1c 39 25 5a 42 39 f5 9f 39 39 e3 fc 25 39
       0.0001489894 0.00018534863 0.00017702563 0.00015829834
0002a0 5f a0 1f 39 46 36 19 39 0f 1a 23 39 33 7b 15 39
       0.00015223165 0.00014611435 0.00015554599 0.00014255643
0002b0 e9 d3 0c 39 a9 19 08 39 0b 88 e8 38 14 eb 8d 38
       0.00013430383 0.0001297953 0.00011087962 6.767191e-05
0002c0 41 1f ba 38 93 4d 82 39 e2 03 f6 39 7b 1c f9 39
       8.874993e-05 0.0002485333 0.0004692367 0.000475142
0002d0 57 89 5f 38 7b 39 a2 38 16 f5 95 39 f1 d3 08 3a
       5.329525e-05 7.7354685e-05 0.00028602098 0.000521957
0002e0 60 3d f2 39 36 48 46 38 fd 50 b3 38 31 8a be 39
       0.00046203565 4.727413e-05 8.5504704e-05 0.00036342585
0002f0 3b a4 21 3a 41 42 ef 39 27 a3 70 38 e0 78 0e 39
       0.0006166135 0.00045634995 5.7372406e-05 0.00013587205
000300 c5 8f f2 39 70 98 26 3a 90 9a ec 39 f4 f1 e5 38
       0.00046264954 0.00063551124 0.00045128586 0.00010964638
000310 e2 74 96 39 cf 0a 06 3a 88 e1 18 3a f0 0b e9 39
       0.00028697314 0.0005113305 0.00058319466 0.00044450117
000320 bc f7 2b 39 24 8f c0 38 50 93 7d 38 6a ed 62 38
       0.00016400119 9.1819355e-05 6.0457096e-05 5.4103708e-05
000330 8c 1a da 38 bd c4 9c 38 b2 ea 1e 38 5b 3c 0b 38
       0.00010399995 7.475305e-05 3.7888713e-05 3.3196393e-05
000340 b9 41 40 38 eb 73 fe 38 7a 5a 20 38 28 a6 0b 38
       4.5837576e-05 0.00012133255 3.8231236e-05 3.3294928e-05
000350 61 84 15 38 16 74 88 38 85 53 4d 39 fa 81 06 38
       3.5647656e-05 6.506608e-05 0.00019581437 3.206914e-05
000360 1f 23 26 38 ec f6 83 38 6a 3c 36 39 5a 48 ab 39
       3.9610193e-05 6.2925596e-05 0.00017379379 0.00032669568
000370 7f eb 56 38 d2 eb 8c 38 df 7a 31 39 de 19 a8 39
       5.12409e-05 6.719645e-05 0.00016925808 0.0003206273
000380 c2 93 c8 39 d8 6f 5c 38 63 d0 09 38 15 65 4a 38
       0.0003825706 5.255625e-05 3.285742e-05 4.8254693e-05
000390 9b c7 ec 38 eb d5 56 39 d9 ff 18 38 dd 70 d4 37
       0.00011290536 0.00020488321 3.64779e-05 2.5324925e-05
0003a0 d0 2e 60 38 4c c7 12 39 51 52 89 39 ac 66 7a 38
       5.344936e-05 0.00013997889 0.00026192007 5.9700265e-05
0003b0 77 b8 8e 38 0a d9 ef 38 e0 e4 61 39 7e f3 b3 39
       6.805447e-05 0.00011436835 0.00021542935 0.00034322956
0003c0 55 0c ef 38 0f f0 11 39 ec 2a 5e 39 ac b8 b8 39
       0.00011398705 0.00013917706 0.0002118756 0.00035232806
0003d0 81 a5 cf 39 49 e6 24 39 fd 18 51 39 7b a4 a1 39
       0.00039605427 0.00015726047 0.00019941102 0.0003083086
0003e0 c2 27 e3 39 b8 7a c9 39
       0.00043326436 0.0003842914
