src/saved/models/Mnist_LeNet/1014_083735/checkpoint-epoch1.pth (torch_old, 355460 bytes, 32 tensors)

conv1.weight f4 [10, 1, 5, 5]
00000000: 156d 4abe 2302 1abe cc8a 50be c585 6ebb
00000010: a09f 7bbe 8ad8 bc3d 7897 92be efad acbe
00000020: 984c 9cbe 1262 03bd e246 36bb 1372 ff3d
00000030: 7869 21be 4c29 fbbd 4f53 8fbd bfea b73d
00000040: 823d 84bc d567 913e 36ab b53d 8274 363e
00000050: 70a0 873e ac2d 3b3e ea2d 5d3e 1eed b03e
00000060: 1857 563d 58da f53d 25e6 5e3c 6294 7b3e
00000070: 905f 663e 624f 32be 67f5 573e f499 363e
00000080: 0fb7 3f3e 02b3 293e 468f 533e cd42 7bbd
00000090: 37a3 0fbe a578 8a3c 3150 7bbd 3e31 9a3d
000000a0: 5a5a efbd 0bd2 c9bd 9390 d33c fb4c 853e
000000b0: 880a 7d3d 4e72 95bd 96f7 5bbd 188c 6f3d
000000c0: 74b2 793e ab04 623e 6773 433e e525 323e
000000d0: 7461 093e f987 043e 9004 91bc 4136 10bd
000000e0: 2a5b 13bc c81a 553e 9ae3 40bd d01b 8abe
000000f0: 0fac 143e 6551 833e e226 2abe 7034 76be
00000100: 3e07 47be 9d5b e13d a4d6 943c ee65 bdbd
00000110: 1d1c a8be 24d6 d83b dc03 953e cc53 1d3e
00000120: 8321 87be e5fc 97be f3a2 1e3d e4b7 043c
00000130: 9a73 993d 9271 1abe 012c b53d 489a 763e
00000140: aeb0 023d e1d2 f0bc 921d c83d 3578 af3d
00000150: 0a1b 38bd a2ff 31be facf 08be d825 873e
00000160: f23a 573e 8d11 b03d 165f 57be 6f9a 603e
00000170: 63e4 343e 18f1 6c3e 7d45 a9bd a1b0 fa3d
00000180: df34 933e 67b6 6b3e 336f 573e 0870 63bd
00000190: 683e 5c3e 5bd1 14be ff9d 093c 6135 ccbd
000001a0: de60 a8bc 58c0 57bd 4047 c7ba 92af 3f3e
000001b0: 293a e73d 549c 883c 9479 f23d 843e 09be
000001c0: aa4e fa3d 5304 7b3c 6697 593c 24e1 8ebc
000001d0: 4230 29be fb3c 973d 0f17 293e a8d9 883e
000001e0: c0dd 52bd 3069 063e 864a 8c3e 8317 49bb
000001f0: 210a 893e 87dd ef3c 054f 773e c91a 5c3e
00000200: 5686 323e 6313 893e c031 c0ba df9a 233e
00000210: 6907 ce3d b784 84bd 874a 1e3d 2a98 31be
00000220: 1bae c83d f77b 613d 1008 7b3d d10b b03b
00000230: 0891 07be 39d9 18be 4e7a c53b 3221 423e
00000240: c9af cf3d 4641 82be 0232 8dbe eacf 09be
00000250: 0c8b 88be afc1 4fbe a9c0 3fbe 3e8f e8bd
00000260: f428 d7bb f977 173e 505e be3d 79e9 eb3d
00000270: f459 01be ac23 163d 2b3c 09be 00e1 263e
00000280: 4c2f 893d 4f31 743e e2d1 a4bd b852 7d3e
00000290: c007 8a3e 0054 5b3e a61e c63d 5fb6 823e
000002a0: 0d37 643e 56eb 7b3e 4c70 debc 6302 14be
000002b0: 0e70 ea38 50d3 423d 62ae 06be 5b13 5fbe
000002c0: 3e8a 85be 3eb0 8fbc 95f7 853e e81c e53d
000002d0: 46e7 40be 05d8 00be 93f4 3e3e 62de 3ebd
000002e0: 121f 30bd 4b85 69be 4ab9 5bbe d933 3c3e
000002f0: 7b26 863e 5dfb b9bd 5a3f 92be 73e2 54be
00000300: 5b3b 213e b7b7 8e3e abd1 66bd e59a 43be
00000310: 8d70 a03d 08d8 6cbd 4c6f 8d3e a125 113e
00000320: 229a a5bd 5b26 8ebd 3de0 87bd 5f12 6bbe
00000330: 4c1a 91be ab96 7dbd fd9b f7bd 8bfb 21be
00000340: 33cc 3cbe 9cee 973d 1db5 1fbe dff9 32be
00000350: a14c 97bd 684c 52be 3a4a 043e b5b8 30be
00000360: 6d02 30bd 2649 3fbe dc1f 753d 7d0e 0d3e
00000370: 37a9 a3be fefd 79be f0da a53d db27 563d
00000380: d466 753e 3288 87be a40a 5ebe fa76 a7be
00000390: 882d 3fbd ab11 3abc ac73 1bbe 2e3a 24be
000003a0: 8e56 92be 6c21 09bc fa86 3d3d 03a2 82be
000003b0: e3f1 f3bb 2b2b 59bd 9b2c 1ebe a1a2 4a3e
000003c0: 8a6b 95b9 9499 c1bd 1c66 06be 1b4c da3d
000003d0: 850e 863e efbb 203e 1a1c 14be b697 77bc
000003e0: b182 8a3e eccf 663e
-0.19768174 -0.15039878 -0.20365447 -0.003639565 -0.24572611 0.09220989 -0.28631186 -0.3372645
-0.30527186 -0.03207595 -0.0027813246 0.1247293 -0.1576289 -0.12263736 -0.06998312 0.08980321
-0.01614261 0.2839953 0.088705465 0.17817882 0.26489592 0.18279141 0.21599546 0.34555906
0.052329153 0.120045364 0.013604675 0.24568322 0.22497392 -0.17413095 0.21089707 0.17832166
0.18722175 0.16572192 0.20660123 -0.061343003 -0.14027105 0.01690323 -0.061355773 0.075289235
-0.11687155 -0.09854516 0.025825774 0.26035294 0.06177762 -0.072971925 -0.053702913 0.058483213
0.2438448 0.22072093 0.19086991 0.17397268 0.13416082 0.12942494 -0.01770237 -0.03520799
-0.008993903 0.20810997 -0.047092058 -0.26974344 0.1451876 0.25648037 -0.16616395 -0.24043441
-0.19436356 0.11003802 0.018168755 -0.09247957 -0.3283395 0.0066173244 0.29104507 0.15363997
-0.26392755 -0.2968513 0.03872962 0.008100484 0.074927524 -0.15082386 0.08846284 0.24082291
0.031906776 -0.02939743 0.09771265 0.085678495 -0.04494766 -0.17382672 -0.13360587 0.2639606
0.2101858 0.085970975 -0.21032366 0.21933912 0.17665248 0.23138845 -0.08265207 0.122407205
0.28751275 0.230188 0.21038513 -0.055526763 0.21508181 -0.14532988 0.008399486 -0.09971119
-0.020554002 -0.052673668 -0.0015203729 0.18719319 0.1129039 0.016676106 0.118395954 -0.13402754
0.12222035 0.015320855 0.013280725 -0.01744134 -0.16522315 0.07384678 0.16512702 0.2672856
-0.05148101 0.13126063 0.27400607 -0.003068418 0.2676554 0.029280437 0.24151237 0.21494593
0.17434058 0.26772603 -0.0014663264 0.15977047 0.10060007 -0.06470626 0.038645294 -0.17343202
0.09798833 0.055049863 0.061286986 0.0053725024 -0.13238919 -0.14926614 0.0060265427 0.18957976
0.1014095 -0.25440425 -0.27577215 -0.13458219 -0.26668584 -0.20288728 -0.18725838 -0.11355446
-0.0065661613 0.1479186 0.092953324 0.11519141 -0.1263197 0.036655113 -0.13401859 0.16296768
0.06698474 0.23846935 -0.080478445 0.24738586 0.26959038 0.21418762 0.096738145 0.25529763
0.22286625 0.24601492 -0.027153157 -0.14454035 0.00011178861 0.047564805 -0.1315246 -0.21784727
-0.26082033 -0.017540094 0.26165453 0.11187154 -0.18838224 -0.12582405 0.18647985 -0.0465988
-0.04299838 -0.22804753 -0.21457401 0.18379153 0.26201233 -0.09081147 -0.28563958 -0.20789509
0.15745299 0.27874538 -0.0563523 -0.19102056 0.07833967 -0.05782321 0.27623975 0.1417451
-0.08086039 -0.069409095 -0.06634567 -0.22956227 -0.28340375 -0.061911266 -0.12090299 -0.15818612
-0.18437271 0.07418558 -0.15596433 -0.17478131 -0.07387663 -0.20536959 0.1291894 -0.1725796
-0.042971063 -0.18680248 0.059844837 0.13775058 -0.31965038 -0.24413297 0.080984 0.052284103
0.23965007 -0.26471096 -0.21683747 -0.3270796 -0.04667428 -0.011356751 -0.15180844 -0.16037819
-0.2858166 -0.008369785 0.0462713 -0.2551423 -0.0074446066 -0.053019684 -0.15446703 0.197886
-0.00028499617 -0.09453121 -0.13124889 0.10659047 0.26182953 0.15696691 -0.14463845 -0.015111854
0.27052835 0.22540253

conv1.bias f4 [10]
00000000: 5fc5 763e 532e 75bc e5b2 663e afaf c1bd
00000010: 3f88 be3d b1a7 053e 2f5e f23d ca0a 00be
00000020: 2536 6f3e 97f7 893e
0.24098729 -0.014964658 0.2252918 -0.09457337 0.09303331 0.1305225 0.1183437 -0.12504116
0.23360498 0.2694671

conv2.weight f4 [20, 10, 5, 5]
00000000: 546c c93c 3ca3 733c 216a 41bd 8fd5 363d
00000010: a875 ccbb a2f5 de3d beae c93d 4bcb 5e3d
00000020: 9a77 e53c 5d81 17bd 7bec ad3c 76c7 733d
00000030: 88ba b33c f332 85bc 0946 dd3c 3e5b 5bbd
00000040: 1fea 2fbd b742 a3bd f42d 48bd 16e5 85bd
00000050: 732b d63d 6a26 35bd d866 cc3c 3147 81bd
00000060: db1f 5ebd 7681 123c 2341 cabc ca14 2cbd
00000070: 305e 10bd 1746 01bd 8f3d 8a3d 770e b13b
00000080: e24a 8c3d 8d0d 58bc b408 b8bb 4b7d 863d
00000090: 63d0 163d 9f07 923c d247 7e3d 4cd2 3a3d
000000a0: f292 9e3c 84ab 843d be32 a73d c772 1e3d
000000b0: 4cf1 3fbc a4cc db3b b01c e2bc 3979 a9bd
000000c0: 9ffb 1bbd 8801 203d 1cf2 883a bed1 e83b
000000d0: 46eb debc fe5e a03c 0450 61bd 6fde 14bc
000000e0: 5ce7 b8bd b958 43bd 3184 6a3d 1c31 203c
000000f0: 4c18 9abd ff1b e4bd 86a5 903c a279 123d
00000100: 1929 a33c 4d4e c5bc ca36 983c 49e1 033d
00000110: 23a1 56bd fe15 36bc 0c4b 113d 0653 8ebc
00000120: 8485 2f3c ef98 e13d c25b 2a3d 8e96 bf3c
00000130: e27b 85bd 5029 bebd 113d 7e3d cf75 7c3d
00000140: a801 413c cbad 5b3d 65c7 83bc 8aaf e9bc
00000150: 603e 49bd cd67 193d 437a 063c 07c7 833d
00000160: 762f 863d 6cb3 2f3d 732d 1d3d 2fbc 0d3b
00000170: 2225 8a3d f80d d5bc f4ff 0cbc 46b0 863c
00000180: 97b3 04bd 7a82 b43c bc06 08bd aac0 61bd
00000190: 4c2f 523d 3367 ae3b 625d 77bd 0e05 893c
000001a0: 696e b43c bd88 b73d 8030 973d 29b5 7e3d
000001b0: 235a 383d 3b1a 60bd 390c 903d 8ab6 e93c
000001c0: f3a3 973d f328 6f3d e982 193b fdab 56bc
000001d0: 2ab7 c03c 4b84 0a3d b029 49bd a1ef 4939
000001e0: 68ac 093c 3822 223c 3990 40bc 10db 16bd
000001f0: ffe1 c7bd ed6c 48bc 9634 f9bd f03c 08be
00000200: 80b1 82bd d1e7 a1bc 65c4 cc3c 0cac febc
00000210: 8277 d7bd 903b 08bd 6b1c 563c a336 e4bc
00000220: 1bdb 4dbd 3eee a03c 46c1 32bd fcd6 25bd
00000230: b8bd db3d f5f5 b83c 1d14 0d3b 30b3 d53d
00000240: 8e5d 753c baf4 9c3c 05d3 873d 5d59 0abd
00000250: 600c 993d 8607 cc3d c81a 6a3d d50c 7d3a
00000260: f55c 88bd 623e 273d 7d47 bcbc 134f b5bc
00000270: c9e6 dcbc 55e7 243d 0c35 7a3c 40cc 313d
00000280: 0d3f 963d c33c 283d 39fc 8d3d 894f 98bc
00000290: 9d1c 1fbd e919 00bd 4812 7d3d 7211 a33d
000002a0: 59fd 6a3c 6a9f 8f3d adb1 6cbd e467 5bbb
000002b0: 55ce ddbb 8c80 4bbd aaaf 87bd ddbd 85bc
000002c0: 36d4 bfbd b194 09be 12b9 0f3d bb00 9bbc
000002d0: f089 fc3b cd2a ad3b f171 ffbd ee75 23bd
000002e0: 7fce e83c 2c11 d5bd 2fbf 02bd 609d 98bd
000002f0: 94f9 81bc 3309 ae3c 21f0 9dbd 3f80 edbd
00000300: b624 f5bb efd6 413d 4a4f 66bd 0450 aa3b
00000310: ee87 83bd 2e4a 153c 6bd4 5cbd 671c 003d
00000320: 7208 bd3c 7c8f 01be a832 b7bc 92af ef3c
00000330: 8ddd f93d 5bb0 56bd 86d2 08bd aa1a 053d
00000340: 5e41 afbc e0d7 983d 00e0 babd 2a3c 80bd
00000350: ad1e 87bd 982e c3bd 3123 6fbd 0a1c 52bd
00000360: 42b4 41bd cc69 26bd 4571 15bd 599c 393c
00000370: f65f 373d 6675 1cbc 5163 86bb bd3c a93d
00000380: 8549 20bd d235 36bd dd07 febd 91d7 a43c
00000390: a4bb a73d 9cb1 963c 30cf 7cbd cb89 7fbd
000003a0: f496 923c 7b56 933d 8f5a 953b f717 4fbd
000003b0: c52e 31bd ac74 aabc d9c4 ef3c f1ba 563d
000003c0: fe02 16bd 5c6e a9bc 23a4 31bc 8750 1ebb
000003d0: 772b 7fbd 980a 8dbc bfcf 46bd 991c f33c
000003e0: df80 263d f898 2a3d 8474 1fbc 033e e3bc
000003f0: 3ee2 f43b 877b cebd a906 21bd ceac b73c
0.024587788 0.014870461 -0.047220353 0.04463726 -0.0062396117 0.108866945 0.098477826 0.054393094
0.028011132 -0.036988605 0.021230927 0.059516393 0.021939531 -0.016259646 0.027010934 -0.053553812
-0.042947885 -0.07971709 -0.04887195 -0.06537835 0.10457506 -0.044226088 0.024951383 -0.06312407
-0.0542296 0.008941999 -0.024689263 -0.042012013 -0.035246074 -0.031560984 0.067500226 0.0054033357
0.0685022 -0.0131868245 -0.005616272 0.065668665 0.036819827 0.0178259 0.062080212 0.04561071
0.019357178 0.064780265 0.08163975 0.03868368 -0.0117152445 0.0067077447 -0.02760157 -0.082750745
-0.03808176 0.03906396 0.0010448131 0.0071050813 -0.027211796 0.019576546 -0.05500795 -0.009086235
-0.09028503 -0.047692034 0.057254974 0.009777334 -0.075241655 -0.11138152 0.017657053 0.03576053
0.019917058 -0.024085188 0.018580813 0.03219727 -0.052399766 -0.011113642 0.03547196 -0.017373573
0.010712985 0.11015498 0.041591413 0.02338722 -0.065177694 -0.092852235 0.062069956 0.06163579
0.01178018 0.05363254 -0.01608629 -0.028526086 -0.04913175 0.037452508 0.00820786 0.06434446
0.06552021 0.04289572 0.038373422 0.0021627059 0.06745364 -0.026007637 -0.008605946 0.016441476
-0.032397833 0.022034872 -0.033209547 -0.05511538 0.051314637 0.005322361 -0.06039179 0.016726043
0.022025304 0.08961628 0.073822975 0.062184487 0.045007836 -0.054712515 0.07033581 0.028529424
0.07404318 0.05838866 0.0023423976 -0.013102529 0.02352484 0.03381757 -0.049112022 0.00019258122
0.008402921 0.009895854 -0.011753135 -0.036830008 -0.09759902 -0.012233001 -0.12168233 -0.13304496
-0.06381512 -0.019763859 0.024995992 -0.031087898 -0.10520841 -0.03325993 0.013068299 -0.027858084
-0.050257783 0.019644853 -0.04364135 -0.04048823 0.10729545 0.022578219 0.002152688 0.10434568
0.014975918 0.019159663 0.06632046 -0.03377663 0.074730635 0.099623725 0.057154447 0.0009653096
-0.06658355 0.040830977 -0.022983307 -0.022132432 -0.026965516 0.040259678 0.015271436 0.04340768
0.07336245 0.041073572 0.06932873 -0.018592613 -0.038845647 -0.03127471 0.061785012 0.07962312
0.014342629 0.07012828 -0.057786632 -0.0033478672 -0.0067689815 -0.04968314 -0.06625302 -0.016325885
-0.09366648 -0.13435628 0.035088606 -0.018921247 0.007706873 0.0052846433 -0.124729045 -0.03990739
0.028418778 -0.10403666 -0.031920608 -0.07451892 -0.015866078 0.02124462 -0.077118166 -0.115967266
-0.007481183 0.047324117 -0.05622796 0.005197527 -0.06422411 0.009111924 -0.053913515 0.031277087
0.023075316 -0.12652391 -0.022363022 0.029258523 0.122004606 -0.05241428 -0.033403896 0.032496132
-0.021393474 0.0746305 -0.09124756 -0.062614754 -0.06597648 -0.095303714 -0.05838317 -0.05129627
-0.047291048 -0.04062824 -0.036484975 0.01132878 0.04476925 -0.009549474 -0.004101195 0.08263538
-0.039132614 -0.04448492 -0.124038436 0.020122321 0.081900865 0.018395238 -0.061721027 -0.06238727
0.017894246 0.07194229 0.0045579146 -0.050559964 -0.043257494 -0.020807587 0.029268669 0.052424375
-0.036623947 -0.020682506 -0.010842356 -0.0024156885 -0.06229731 -0.017216966 -0.048537966 0.029676722
0.040650245 0.04164979 -0.009732369 -0.02773953 0.0074732592 -0.10082155 -0.039312992 0.022421267

conv2.bias f4 [20]
00000000: 2371 f4bb e103 5bbd 3391 1e3d c2ef 0c3b
00000010: 9d26 9b3c 8d58 313c de05 5d3c babf 4a3d
00000020: e300 c93c 480f 563d 2514 6cbd 951b 193d
00000030: e147 2ebd 8ae5 c5bc 5b96 413d 18d7 313d
00000040: 26c5 a8bc a5b3 66bd fece 19bd a38a 8e3d
-0.007459776 -0.053470496 0.03871269 0.0021505211 0.01893931 0.010824335 0.013490168 0.04949925
0.024536556 0.052260667 -0.0576364 0.03737982 -0.042549018 -0.024157304 0.04726253 0.04341802
-0.02060182 -0.056323666 -0.03755092 0.069600366

fc1.weight f4 [50, 320]
00000000: 70a6 903d ec09 093d 004d 04bd b3a0 503d
00000010: c958 4a3d 9ea2 f13c 4aa7 e2bc ae0d bc3c
00000020: 6532 aabc 1a37 5ebd 03e9 88bd 2b08 e2bc
00000030: 8ea1 52bc 4b07 2cbd 563f b43c cc16 0c3b
00000040: 6e76 163d f94b 8d3b 6d45 993c 5f11 313d
00000050: 5255 33bd 9424 e1bc 5693 823d d82d 093c
00000060: 73fe bb3c ab78 0fbc e5c2 533d c5d0 753d
00000070: 67e3 9fbb 9273 1dbc 0be3 67bd 07a0 e0bc
00000080: 4877 a039 f0de 783c e237 e9bc 0edd f6bc
00000090: 5149 703b 372d f8bb e8f0 243d 9857 45bc
000000a0: 04f8 d2bc d0fc 143c 231f 02bd 8e35 923b
000000b0: 2095 d5bc fa29 f4bb 8a00 a3bc 65b6 ce3c
000000c0: b950 60bd f50f 60bb 108e b9bd 724a 9bbd
000000d0: 484c 033d cc10 7bbc 796a 8c3c dd32 0d3d
000000e0: b29e 9a3c aebd 46bd 5598 7f3b 20c7 c83d
000000f0: db2b 13bd d1cf aabb a804 6b3c 8173 0d3d
00000100: 09bf 8dbc 3515 00bd eb76 86bd bdf3 e3ba
00000110: 0b3b a5bc 8a18 82bd c64a d83c 5ed0 f43d
00000120: 7aed a03d 4543 c9bc 0ed7 e7bc 8d10 633b
00000130: 7973 cf3d c819 36bc b25c e9bc d791 95bc
00000140: 4d03 363d d1d5 663c 367e 66bd 0d94 abbc
00000150: 43c6 d03c ed84 e9bd 351d 36bd cca5 cbbc
00000160: f416 e3bd 4086 c13c 3b87 34bc 0fc0 85bd
00000170: 9b31 e63b 85e8 603d 3a9a 2e3b 50b1 88bd
00000180: 881b 29bb 6e93 063d 3b87 9b3c 0103 393c
00000190: 84e2 12bd 4e0c 07bc eec9 843c 2ead d4bd
000001a0: 1248 8abd c2c8 2ebc 1d0c a93d 3fb2 c2bc
000001b0: 01f1 cd3c ec1f 2f3d 45a6 0ebb e6b9 abbc
000001c0: 8d1f 833d 7830 03bc c35b 293b 5412 d03d
000001d0: 45d8 123d 5927 35bd de23 84bc 25d4 853d
000001e0: 5e18 a937 7b39 1d3d ac21 a5bb 7233 883d
000001f0: d3a9 063d 28a7 51bd fb83 2ebd a523 c03c
00000200: db4d 2fbc 1ffd 6bbd dd85 28bd c735 ab3b
00000210: d2bc ccba 5586 bb3c 07e4 b1bd b3ca 373c
00000220: 3b7c f83a 5743 9a3d c160 b1bd 7559 26bd
00000230: 50f6 703d e916 c23d 6104 b4bc 1206 5ebc
00000240: 432d 6c3a 7376 48bd 56fe 05bd 2207 443d
00000250: 6427 0b3d c35c bcbd 78f6 da3b 8b7c 8d3d
00000260: 2c47 a4bc 56cf 8ebd 589d 99bd a97d b4bd
00000270: d606 1ebc b17a 3ebc 0924 c7bd e40d 54bd
00000280: 15d9 1dbb 8b9d a33a d462 45bd bf95 ebbc
00000290: cefa 07bd c0a4 ca3c d1a3 84bd e23c b4bc
000002a0: e2f6 233c 2ad9 f83c a8e0 a6bd b6ce 34bc
000002b0: 49ab 1a3d 5128 d83d 93b7 fd3a 3b08 303b
000002c0: ef50 903d 3425 033d e6a6 1dbd 4124 2ebd
000002d0: 882c 36bd eefd babc e829 dbbd 5877 eb3c
000002e0: 6e37 62bd c911 ddbc b1b2 98bd 0ce4 52bd
000002f0: a190 59bd eb6e 9f3d 3b84 973b a1a6 a0bd
00000300: 75d6 893d a787 1dbc b084 c3bc bfcf df3c
00000310: e281 be3c abfd ba3c 25ec 3c3d c03b 9c3d
00000320: 41ee ab3d bf50 363c c661 f03c c5d1 ed3c
00000330: a04b 8bbb 580b 12bd 15fb 0dbc 8d95 01bd
00000340: 929d 2bbd 47ca 02bd 39a2 f5bc 8496 c3bc
00000350: 2b49 d739 569a ea3c 0d3d cbbc 7764 543b
00000360: b209 5c3d 8bcd d93b 3b1f f9bc 9ef3 183d
00000370: 1806 1b3b 71c8 13bd 0482 4b3d 9d81 cdbc
00000380: ffb8 88bb 9025 703d 9172 f03c ef04 a03c
00000390: 890b 0b3d 3978 ce3d 4212 8c3d a4aa 18bd
000003a0: 9bfe 703d 2b22 d63d 4e04 28bd 256d d23c
000003b0: 8263 2f3d f8be 6d3d 884c fb3c 0d58 5f3d
000003c0: 494a 62bd d61f 2dbc fedd 7e3c 31b5 a43c
000003d0: a5bc a03c e3ce 8a3a e0ad ce3d a6e0 02bc
000003e0: 8ea1 43bd 3812 103d 010f 103c 7d7d debb
000003f0: 0138 45bc a32b c33d 45b6 4d3c a480 06bd
0.070629954 0.033456728 -0.032299995 0.050934505 0.04940108 0.029496487 -0.02766766 0.022955742
-0.020775983 -0.054251768 -0.066850685 -0.027591785 -0.0128559 -0.041999143 0.022002857 0.0021375893
0.036734037 0.004312035 0.018709863 0.043229457 -0.04378254 -0.027483262 0.06375758 0.008372746
0.02294848 -0.008756797 0.051699538 0.06001355 -0.0048794034 -0.009610074 -0.05661301 -0.027420057
0.0003060645 0.015189871 -0.02846903 -0.030134704 0.0036664794 -0.0075737494 0.04026881 -0.01204481
-0.025753029 0.009093478 -0.031767976 0.0044619506 -0.026072085 -0.007451293 -0.019897718 0.025233457
-0.054764483 -0.0034189199 -0.090602994 -0.07582559 0.03205517 -0.015323829 0.017140614 0.034472335
0.0188745 -0.048520736 0.003900071 0.09803605 -0.035930496 -0.005212762 0.014344372 0.03453398
-0.017303007 -0.031270225 -0.065656506 -0.0017391365 -0.020169755 -0.06352337 0.026402842 0.119538054
0.07857795 -0.02456821 -0.028300788 0.0034647316 0.101294465 -0.011114545 -0.028486583 -0.018258018
0.04443674 0.014089064 -0.056272708 -0.02094462 0.025485164 -0.11402307 -0.044461448 -0.024859332
-0.11088362 0.023623586 -0.01101857 -0.06530773 0.0070249564 0.054909248 0.002664222 -0.06674445
-0.0025803763 0.032855444 0.018985381 0.01129222 -0.035860553 -0.00824268 0.016209569 -0.10384594
-0.067520276 -0.010667982 0.082542636 -0.023766635 0.025139334 0.042755052 -0.0021766585 -0.020962667
0.06402502 -0.008007161 0.0025842048 0.10159746 0.035850782 -0.044226978 -0.016130384 0.06534604
2.0157717e-05 0.038384896 -0.0050394144 0.066504374 0.0328768 -0.051184803 -0.042606335 0.023454497
-0.0106997145 -0.057614442 -0.041143287 0.0052249166 -0.0015620238 0.022891203 -0.08686071 0.011217761
0.0018957922 0.07532375 -0.086610325 -0.040612657 0.058828652 0.09477026 -0.021974744 -0.013551252
0.000900943 -0.048941087 -0.032713257 0.047858365 0.033973113 -0.091973804 0.0066822134 0.0690852
-0.020053469 -0.0697314 -0.07500714 -0.0881303 -0.0096451845 -0.011625932 -0.0972367 -0.05177106
-0.002408569 0.0012482865 -0.048189953 -0.028757928 -0.03319817 0.024736762 -0.06476558 -0.022001687
0.010007592 0.03037699 -0.081483185 -0.011035612 0.037761007 0.10554565 0.0019357078 0.0026860374
0.07046687 0.0320179 -0.038489245 -0.042515043 -0.044476062 -0.022826161 -0.10701352 0.028743431
-0.055228643 -0.02698602 -0.07455958 -0.051487014 -0.053116444 0.07784828 0.0046239174 -0.07844282
0.067303576 -0.009614862 -0.023866981 0.02732074 0.023255292 0.022826036 0.046123642 0.07628584
0.08395053 0.01112765 0.029343497 0.02903069 -0.0042509586 -0.03565535 -0.00866582 -0.031636763
-0.041898318 -0.031931188 -0.02998458 -0.023875482 0.0004106251 0.028638046 -0.024809385 0.0032408515
0.053720184 0.006646817 -0.0304104 0.037341706 0.0023654755 -0.036079828 0.04968454 -0.025086218
-0.004172444 0.058629572 0.029351505 0.019533603 0.033946548 0.100815244 0.0683942 -0.03727211
0.05883656 0.10455736 -0.04101973 0.02568681 0.042819507 0.05804345 0.030676141 0.05452733
-0.055246625 -0.010566672 0.015555857 0.02010593 0.019621203 0.0010590222 0.10091758 -0.007988131
-0.047761492 0.035173625 0.00879264 -0.0067898617 -0.012037278 0.095298074 0.0125556635 -0.032837525

fc1.bias f4 [50]
00000000: e0dc b13c 7f4d a9bc edbd 073d 641f 313d
00000010: 1895 7fbc ecd8 7a3b f76a 0cbc fe98 093d
00000020: 4350 0a3d f32f 0abd 8b35 0dbb 0361 71bc
00000030: bb35 6b3d 4981 553d 99a7 423d 440f 353d
00000040: 14ea 133d 0cd0 1e3c 0f77 41bd 9e82 073d
00000050: ccb9 8e3d 5822 0d3d 05fa af3c 4bda c5bc
00000060: b72c f3bc 35ef 9c3b dca6 e8bb 4987 2c3d
00000070: dfb0 8abc 8793 e3bb 4854 47bc 20c1 d83b
00000080: 894e 1b3c 56d9 67bc efd8 a1bb 7cee 06bd
00000090: 9b7b 6a3d c435 b63a 36d6 cd3c 6112 ba3c
000000a0: f4c1 9ebb 326e 323a 78f7 cdbc 6072 b4bc
000000b0: faf3 b23c f518 cb3c 197d b63c 9b99 8c3c
000000c0: 0b3c 1e3c 2544 f03c
0.021711767 -0.020666836 0.03314011 0.043242827 -0.015599512 0.0038276268 -0.008570424 0.03359317
0.03376795 -0.033737134 -0.0021546807 -0.014732602 0.05742429 0.05212525 0.047523115 0.04420401
0.036111906 0.009693157 -0.047232684 0.03308355 0.06969032 0.03445658 0.021481523 -0.024151942
-0.029684408 0.004789258 -0.0070999693 0.042121205 -0.016930042 -0.006945077 -0.01216609 0.006614819
0.009479173 -0.014150938 -0.0049391906 -0.03294228 0.057246786 0.0013901521 0.025126558 0.022713842
-0.0048448984 0.00068065815 -0.025142416 -0.022027194 0.021844853 0.024792174 0.022276448 0.017163089
0.00965787 0.029329369

fc2.weight f4 [10, 50]
00000000: e2e8 393e 68c2 49be 40eb c73d 922d 4cbe
00000010: 81f0 3dbe 0f35 14be 02dc c03d 18b2 05be
00000020: 6879 78bd 7458 42bd 869a 26be 5f65 ba3d
00000030: 591f 3fbd 7f6a d5bd 4776 25bb e234 2abe
00000040: 2e66 51be 100f 65be 3d6f db3d 6164 80bd
00000050: 8deb fe3d 12a7 d33b 48e1 07be 8554 c13d
00000060: 441d 00be 7f5f e03d 2748 2abe a372 aabc
00000070: 6e16 f6bd f729 e83d 40dd 0fbe fa06 823d
00000080: a158 123e 0a58 df3b a892 743c 3d76 fc3c
00000090: 1ed8 c53d df6b ef3d 3e5c 123e beb6 ff3d
000000a0: 73da 2c3d ea61 0f3e c548 83bd 1e76 2a3e
000000b0: 8b1d febd 24ce 333d e719 e63d 8617 9ebd
000000c0: 6637 00bd 3162 a33d 82eb a5bd a881 b9bc
000000d0: 0af8 14be ebdf 2b3e 36a8 bc3d 16b3 d13d
000000e0: e596 063e 864f 273e e63f 44be 1815 f6bd
000000f0: 75cc 0ebd c7f3 bfbd 98f4 a63d 81a5 bf3d
00000100: 0cfe 02be 66fc 283e a19f 83bd 38b1 093e
00000110: 51f9 9f3d 5b58 b93d 04c3 c6bd 3d31 3abe
00000120: e93d 21be 28c8 0c3e 2707 ab3d 7e79 1cbe
00000130: ffc5 f1bd 573d 01be 71b5 d73d d1cd b83c
00000140: 5ad2 213d 782a f03d 7e1a c03d e3e5 8b3d
00000150: 61da bf3c 5045 b8bd a65c 26be eb2e 44bd
00000160: 1e52 41be 9663 0dbe c1f9 37be ffd7 fbbc
00000170: 0775 2ebe c35e 35bd 12e4 953d f069 4bbe
00000180: 5498 153e f21f 62be 2b6e f8ba 8b18 3dbe
00000190: efc3 6e3c 04c0 b1bd 83d5 2abe aa57 083e
000001a0: dca5 40bd 5c38 81be c9f1 fe3d 7259 b0bd
000001b0: 7c9a 0cbe 61a1 003e eff5 09bc 50d4 8b3d
000001c0: 6c49 29bd b1ed f2bd 5b41 2abe 97b1 333d
000001d0: 3edf c1bd 37d8 0ebe 3027 2e3e 510f e03d
000001e0: 0dbe 12be 81bd b8bb 6739 663c f4c5 a83d
000001f0: 29c9 ca3d 7514 c93d 1f51 bf3d 1437 08be
00000200: b288 9f3d 019c eb3d d7cf af3d b44a 0b3e
00000210: 3f8b e43d 3586 423d 1497 73be 46dc 1ebd
00000220: 60e7 e1bd a8e8 e53d 1b43 6b3d f09f 2bba
00000230: e22a 05bc 5b3b 193c d0a4 d03d 2c05 f63d
00000240: 283e 003c 4cc4 a13d ee8c 09be fc03 d1bd
00000250: 6c8c d2bd 62d9 a5bd 9efb bfbd 6a41 0ebd
00000260: de6e f0bd 3935 b7bc e7f9 89bd a680 5dbd
00000270: dfc9 01be b91e 3cbe 7123 a63d 7b94 f23d
00000280: 450e c73d cf03 c73d bda8 dd3d 7572 48be
00000290: 8808 e9bd 1548 213e 9382 663d 8b27 d53d
000002a0: 4731 5b3d 3407 8f3d ee11 12be 35a2 053e
000002b0: 3b15 23be 1308 fabd e03d 2cbd ad65 e8bd
000002c0: 992c b3bd 93aa 023e 2b44 c13d 19a1 093e
000002d0: dd50 a23d 8d5d 3cbd 0c52 e6bd b474 b13d
000002e0: 598c 82bc d421 d1bc 88c6 bb3d dbcd 053e
000002f0: 564e e2bd 9591 0a3c 2a8f f33c 71bb f2bc
00000300: 7582 4dbd d620 b83c f010 be3d 55af fbbc
00000310: 9ffb d9bd a643 16be 3cb2 6bbd 0d5d 3a3d
00000320: 161d 863d 525f b73d b8ee 19be bd50 7a3c
00000330: fa50 f73d 3049 cfbd e475 d23d 9dba 253e
00000340: 3f19 393d cb67 ff3d 2dd4 993d a343 56be
00000350: 6655 9ebc 2b3e 033d c8c1 883d 4d87 c93d
00000360: 5e4a d53d 17ad 75bd a03b fb3c 228f 34be
00000370: 12e4 873d d22c 1dbd fa58 003e f3da 043e
00000380: 13d3 bdbd 269b b03d 2034 fb3d 5b6a dc3d
00000390: 0e07 59bd 1bd4 ccbd ac50 0cbe 0eba 4ebd
000003a0: b911 e73c 8ad0 02be 3b47 c33d cc5c 6dbd
000003b0: cbb2 8b3d 73ef ddbd 08dc c03d 1eb1 693d
000003c0: a38f 87bd 7208 30be ed26 60be 358e dabd
000003d0: 7636 04be 6612 8f3d f98b 02be 362f 123e
000003e0: a2be 303e 633a 6dbe 9c82 9fbd 5744 853d
000003f0: c859 023e 23b3 c13d bafb 073e a0a6 3dbc
0.18155244 -0.19703066 0.09761667 -0.19939259 -0.18548776 -0.14473365 0.09416963 -0.13056219
-0.060662657 -0.047447637 -0.16269884 0.09101366 -0.046660755 -0.10420703 -0.00252475 -0.16621736
-0.20449135 -0.22369027 0.107145764 -0.06269146 0.124472715 0.0064591253 -0.13269532 0.09439949
-0.12511164 0.109557144 -0.16629086 -0.020806616 -0.12015997 0.11336129 -0.14049244 0.06348987
0.14291622 0.006815915 0.014927544 0.0308181 0.09660362 0.11690497 0.14293 0.12486027
0.042200517 0.14002195 -0.06410364 0.1664662 -0.124079786 0.043897763 0.11235409 -0.077193305
-0.031302832 0.07977713 -0.0810156 -0.022644833 -0.14547744 0.16784637 0.09211771 0.10239236
0.13143499 0.1633893 -0.19165 -0.12015742 -0.034862954 -0.09372669 0.08152121 0.09357739
-0.12792224 0.16502532 -0.06426931 0.1344651 0.07811225 0.090500556 -0.09705165 -0.18182845
-0.15746273 0.13748229 0.083509736 -0.1528072 -0.11805343 -0.12621056 0.10532654 0.022559078
0.039507248 0.1172685 0.09380053 0.06830957 0.02341956 -0.08997595 -0.1624628 -0.047896307
-0.18878981 -0.1380752 -0.17966367 -0.030742643 -0.1703683 -0.044279825 0.073188916 -0.1986463
0.1460889 -0.22082499 -0.0018953731 -0.18466394 0.014573081 -0.08679202 -0.16683011 0.13314691
-0.047033176 -0.2523831 0.124484606 -0.0861081 -0.13730806 0.12561561 -0.008420452 0.06827605
-0.041329786 -0.11861742 -0.16626494 0.043870535 -0.09466408 -0.13949667 0.17007136 0.109404214
-0.14330311 -0.005637825 0.014051772 0.082408816 0.099016495 0.09818355 0.093416445 -0.1330226
0.077897444 0.11504365 0.08584564 0.13602716 0.111593716 0.04749127 -0.237881 -0.038784288
-0.110304594 0.11226016 0.057437044 -0.0006546965 -0.0081279 0.00935253 0.101876855 0.12012705
0.007827319 0.07898769 -0.13432667 -0.10205838 -0.102806896 -0.08098103 -0.09374164 -0.034730352
-0.11739896 -0.022364246 -0.06737118 -0.054077767 -0.12674664 -0.18371095 0.08112229 0.11844727
0.097195186 0.09717523 0.108232 -0.19574912 -0.1137858 0.15750153 0.05627687 0.10407933
0.05351379 0.06983796 -0.14264652 0.13050158 -0.15926068 -0.12208571 -0.042051196 -0.11347518
-0.08748741 0.12760381 0.0943683 0.1344036 0.0792558 -0.045987654 -0.11246118 0.086648375
-0.015936064 -0.025528826 0.09168726 0.13066809 -0.11050098 0.008457561 0.029731352 -0.029630395
-0.05017324 0.022476595 0.09280574 -0.030723253 -0.10643696 -0.14674243 -0.057543024 0.045498896
0.065485165 0.08953728 -0.1503247 0.015278039 0.12075992 -0.10121381 0.10276392 0.16184469
0.045190092 0.12470969 0.075111724 -0.20924239 -0.01932783 0.03204171 0.06677586 0.0984026
0.10414575 -0.059979524 0.03066808 -0.17632726 0.06635298 -0.038372822 0.12533942 0.12974147
-0.09268775 0.08623342 0.122658014 0.10762473 -0.052985243 -0.100013934 -0.13702649 -0.050470404
0.028206693 -0.12774864 0.095350705 -0.057949826 0.068212114 -0.10836687 0.09416968 0.057053678
-0.066191934 -0.17190722 -0.21889849 -0.10671655 -0.129114 0.06985931 -0.12748708 0.14275822
0.1726022 -0.23166804 -0.07788584 0.065071754 0.12729561 0.09457996 0.1327962 -0.011575371

fc2.bias f4 [10]
00000000: 28b4 3bbe 0c12 823d f9ce f83d b0af 2a3c
00000010: 0907 23be 3cbc a03d fdfc 57bc 9d20 0ebd
00000020: 7605 fe3c 5828 fbbd
-0.18330443 0.063510984 0.12148852 0.010417864 -0.15920652 0.07848403 -0.013182876 -0.03469907
0.031008463 -0.12263554

exp_avg f4 [10, 1, 5, 5]
00000000: 33a9 05b9 1dd4 0e3b 3f10 033b 9b64 843b
00000010: bb42 4a3b 7c9b b4ba 58ac b43a 11a8 343b
00000020: 233a 8e3b 55b1 a33b ccd5 50bb b160 36bb
00000030: 7433 b8ba 40c0 923a a772 953b c46e d4bb
00000040: e054 f1bb 1fca acbb 85ba 9339 f4d1 893b
00000050: 8f0f ecbb ad1d debb 0241 abbb dea8 aeba
00000060: a912 523a b62a f23a 2bac d83a 2717 a5b9
00000070: bb64 68bb 1cdf dbb9 e323 b93a f069 5b39
00000080: dade f3ba f760 73bb abda dfba 0e99 b13a
00000090: 74a4 e3b7 0818 10bb 5c37 8bbb 915a 2abb
000000a0: 012c 663a b349 fcb9 ea08 b4ba d8e1 5cbb
000000b0: ec75 3abb ac84 aa3a abd2 c6b8 4eee 98ba
000000c0: fac4 57bb 8918 84bb d6b8 54bb 219c 36bb
000000d0: c339 9438 173d 233a 01ac 4aba 6b7c 3bbb
000000e0: 7849 14bb a707 103a c26a 0d3a 4cee ce39
000000f0: 91d9 ccb9 6f05 45ba ffe1 8db9 5b14 163a
00000100: df48 913a 7702 1a3a 6312 1737 022f 0639
00000110: 31b6 ff39 3abf bb3a ecf9 b9ba aa22 cdba
00000120: 1336 c535 b508 2a3a f18c 603a 5f79 823b
00000130: f903 9b3b 965a 713b dbc8 cbba 7198 58bb
00000140: 74b6 aa3b d962 c13b 1250 593b 080e 7abb
00000150: b4db 6cbb 2195 773b 92c5 593a 3846 42bb
00000160: ebca b9bb cce7 11bb 5985 3f3b abc0 c1ba
00000170: 8319 80bb 5bf0 98bb 9441 f7ba 34a7 f43a
00000180: 770a f1ba 1206 77bb 37d4 44bb 666d cb37
00000190: 70a1 323b f5fb 633b c87a a93b 6a25 c73a
000001a0: 56ed 28bb fe6c 5f3b 23ca 853b 433b b53b
000001b0: 6f70 323a 03bb 3cbb 1f01 293b 656e 5f3b
000001c0: a355 f63a 3af3 5abb 02aa 9ebb 09bf 153b
000001d0: d26a c63a 03eb 70b9 4ec3 a1bb 7b5c 9dbb
000001e0: 8a22 5b3b ea39 cf39 53aa aeba c594 62bb
000001f0: 3901 43bb 5d47 10bc 08c5 21bc c2e0 f6bb
00000200: a96b 92bb 42ca 42bb 2117 00bc 48f9 efbb
00000210: 1700 b5bb e65a 26ba 28b1 a239 0020 bdbb
00000220: 7173 a5bb adef b1bb d623 48bb 2112 25bb
00000230: 105b 82bb f415 31bb bcbc 7ebb e852 82bb
00000240: ed3f 87bb cd73 00bb d796 7ab9 fcbf bf38
00000250: 1e8a d7b9 7951 b6b9 fdce ac3b ea4c 963b
00000260: cc08 a13b 36e3 bd3a 86e8 dbba d90b 823b
00000270: 9b12 363b 1a30 6a3b c540 19ba a3b1 02bb
00000280: 9d4d dd3a c80e 9c3a 0a10 4c3a ab44 19bb
00000290: a0d8 2fbb 7ff8 cfba 8317 b0ba 1a3f 26bb
000002a0: 0d0c 5cbb fba0 0bbb 5a4f 8cba 42f9 24ba
000002b0: 90bd a8ba ca30 00ba 73a1 223a ddf6 2e3b
000002c0: 39b7 403b bd9e 133a 313b fdbb 3d26 27bc
000002d0: ecbe 483b 6266 0c3b 4dbf 0abb 19d5 20bc
000002e0: bd80 10bc 346c 113b 3dad 02b9 64e9 4cbb
000002f0: ed17 fcbb e29c c9bb 6fdc df3a 6c2f 92b9
00000300: ad8c 2abb fc33 a3bb 3b75 77bb d536 a03b
00000310: ab4b 133b 6ee0 a1ba 8dce aabb 5957 4bbb
00000320: df81 e93a 8941 2e3a a856 c63a b128 393b
00000330: 0ff2 143b a4eb f43a 8370 393a 4071 143b
00000340: 7119 4a3b 3361 6f39 77f9 e43a 6be1 aa3a
00000350: a5e2 913a 9bc5 233a ce1c 12bb 8d94 103b
00000360: 06c0 083b 672a d63a c14e 463a b547 2dbb
00000370: 8474 c83a 8fdd c739 0cd1 5c3a 6821 50b8
00000380: 0e51 e8ba 8266 fc3a 31f7 b13a 738b 273b
00000390: c990 633a 1ac2 4ebb dd38 2c3b c48a 0b3b
000003a0: 01e7 043b 0c72 d0b9 ddb6 a0bb 68d7 303b
000003b0: f86f e93a f8b5 a63a 6455 e3ba 81ed a9bb
000003c0: 1334 8a3b 0454 6f3b 5197 623b c05b 4138
000003d0: 85b6 5cbb ac62 b33b 28da 903b 36d6 6d3b
000003e0: cad3 0aba 041c 4abb
-0.000127469 0.002179391 0.0019998697 0.0040403134 0.0030862528 -0.0013779248 0.0013784273 0.0027565996
0.0043404265 0.004995505 -0.0031865714 -0.0027828629 -0.001405342 0.0011196211 0.0045607868 -0.006482931
-0.007364854 -0.005273118 0.00028176993 0.0042059366 -0.007204003 -0.00677844 -0.0052262554 -0.0013325473
0.0008013645 0.0018475864 0.0016530802 -0.00031488502 -0.003546043 -0.00041937164 0.0014125075 0.00020924932
-0.0018605844 -0.0037136653 -0.0017078718 0.0013549642 -2.7137088e-05 -0.002198698 -0.0042485427 -0.0025993923
0.0008780361 -0.00048120096 -0.0013735567 -0.003370395 -0.0028451635 0.001300951 -9.480616e-05 -0.00116677
-0.0032923804 -0.004031245 -0.0032458804 -0.0027864056 7.067949e-05 0.00062270596 -0.0007731319 -0.0028608094
-0.0022626799 0.00054943044 0.00053946313 0.00039468927 -0.00039072012 -0.0007515763 -0.00027061996 0.0005725079
0.0011084339 0.0005875001 9.004582e-06 0.00012796748 0.00048773133 0.0014323958 -0.0014188862 -0.001565059
1.4693381e-06 0.0006486283 0.0008565924 0.0039817537 0.004730698 0.0036827675 -0.001554753 -0.0033049847
0.0052097384 0.005901676 0.0033159298 -0.0038155336 -0.0036141695 0.0037778097 0.00083073333 -0.0029643904
-0.0056699417 -0.0022263406 0.0029223769 -0.0014782151 -0.0039092912 -0.0046673245 -0.0018864148 0.0018665553
-0.001838996 -0.0037692827 -0.0030033716 2.4250428e-05 0.0027256869 0.003478763 0.0051721074 0.0015193645
-0.002577623 0.0034092064 0.0040829345 0.005530746 0.0006806915 -0.002879799 0.0025788022 0.00340929
0.0018793832 -0.0033409134 -0.004842044 0.0022849462 0.0015138036 -0.00022975732 -0.004936612 -0.0048022843
0.0033437335 0.00039525266 -0.0013325907 -0.0034573537 -0.0029755367 -0.008806077 -0.009873636 -0.0075341174
-0.0044684005 -0.0029722606 -0.007818014 -0.007323418 -0.0055236924 -0.00063459424 0.0003103104 -0.005771637
-0.005049162 -0.005430183 -0.0030538938 -0.0025187808 -0.0039781407 -0.0027021142 -0.0038869819 -0.0039771684
-0.0041274936 -0.0019600273 -0.0002389805 9.1433496e-05 -0.000411109 -0.00034774447 0.0052736984 0.0045868056
0.0049143787 0.001448727 -0.0016777671 0.0039686975 0.0027782086 0.0035734237 -0.0005846138 -0.0019942306
0.0016884092 0.0011906261 0.00077843724 -0.0023386877 -0.0026832 -0.0015866904 -0.0013434741 -0.0025367201
-0.0033576519 -0.0021305669 -0.0010704801 -0.0006293246 -0.0012873877 -0.00048900826 0.00062038674 0.0026697435
0.0029406084 0.0005631259 -0.0077280034 -0.010201988 0.0030631376 0.002142333 -0.0021171153 -0.009816431
-0.008819756 0.0022189738 -0.00012462302 -0.0031267041 -0.007693282 -0.006152735 0.0017079244 -0.00027882622
-0.002602379 -0.0049805623 -0.0037759084 0.004889349 0.0022475522 -0.001235021 -0.005212611 -0.0031027405
0.0017815194 0.0006647339 0.0015132027 0.0028253014 0.0022727286 0.0018685949 0.00070739555 0.002265051
0.0030837918 0.00022829026 0.0017469366 0.001303715 0.0011130167 0.0006247402 -0.0022295 0.00220612
0.0020866408 0.0016339541 0.0007564836 -0.0026440446 0.0015293513 0.00038121312 0.00084234844 -4.9622176e-05
-0.0017724351 0.0019256624 0.0013577697 0.0025565296 0.00086809375 -0.00315488 0.002627901 0.0021292428
0.002027929 -0.00039757823 -0.0049046115 0.002698386 0.0017809859 0.0012719026 -0.0017344174 -0.0051857834
0.0042176335 0.0036518583 0.0034575055 4.6100235e-05 -0.0033678126 0.005474409 0.0044205375 0.003629101
-0.0005295841 -0.0030839453

exp_avg_sq f4 [10, 1, 5, 5]
00000000: 24a2 d538 0013 6c38 8751 dc37 2041 1838
00000010: e1a8 6838 2893 d438 e08b 4b38 1549 0338
00000020: f4d5 4c38 2610 ca38 6925 0639 fa65 c738
00000030: c79b a738 216a f038 a608 3639 7283 4c39
00000040: 938f 5339 8428 8239 cf88 9b39 8007 9b39
00000050: a0ef 8d39 ec37 9d39 872f be39 0a1b d139
00000060: 9b52 a039 99cc a238 5997 a438 1898 a938
00000070: ea3b ab38 4a47 8d38 2849 bc38 b643 a738
00000080: 59fa 9d38 ce1c b438 c50d 9638 453e 8a38
00000090: 6305 5538 c576 8738 1307 b338 fffe 9538
000000a0: 5080 6338 c425 3838 9dcf 8338 daac bb38
000000b0: c293 9938 12c3 6e38 8206 7d38 8bc0 ac38
000000c0: c141 cb38 1a5c a838 555b 8138 b6f9 b238
000000d0: b227 a438 c84d 8538 ad17 4138 f8dc 8f38
000000e0: 7003 ad38 c654 8738 b1eb 2538 7ac6 f537
000000f0: 5508 bb38 7b3a a938 e807 0d38 7a7a 8b37
00000100: 426e 9637 89e0 c838 2a28 8e38 72a3 b837
00000110: 83d0 5337 be69 a437 3315 c638 68e9 6f38
00000120: e0ed e837 9176 a537 1ea4 0338 ad60 7738
00000130: 7bfc 8b38 ede7 9f38 6525 cb38 bf85 e638
00000140: 735f 8338 819e 9738 6313 be38 0531 f838
00000150: 121d d738 1529 6838 764c 8538 615d d438
00000160: 597c eb38 a100 b738 7df6 6b38 bd3a a338
00000170: 4910 ea38 5037 c638 e1de 9838 1024 9638
00000180: c3d7 d738 aec4 e938 4af9 b438 8bf0 9738
00000190: 9b9d 9b38 dc45 7838 8a5e 8b38 c31c 9738
000001a0: de90 ab38 fdba 8238 4f6d 8c38 1cee a138
000001b0: 2f68 ab38 96c4 ab38 e633 9038 7ad1 8e38
000001c0: 8f06 9038 c7e2 9b38 6e20 9c38 a50a 8e38
000001d0: c2ef 8638 7b6b a438 d488 cb38 906b d038
000001e0: 9369 8e38 a16d a138 a846 c438 e277 c738
000001f0: 6661 c538 e6e0 ee38 e687 1339 34e4 1f39
00000200: 59c1 1f39 a64a 1d39 7bad f338 f57f 1439
00000210: 0c9e 1e39 7321 0a39 a1b6 fd38 ccca c538
00000220: 5510 ed38 258c 0739 abe8 0939 6e20 ee38
00000230: 308c a338 ef9d ba38 be6f e138 4765 ea38
00000240: 9ef2 d538 41bb 9e38 0051 c138 d7be e638
00000250: 1fde ba38 87db 9738 75e2 5838 211b 5738
00000260: baf3 7538 72ee 8e38 41cc 9538 1529 7e38
00000270: 88bd 7338 0453 8638 dd01 9938 c764 a038
00000280: 40dd 9e38 2544 9838 6d17 9838 ca05 b338
00000290: 27f1 ac38 07fb a538 c01b a338 eb12 a738
000002a0: 1af0 c238 8086 af38 e4b3 9038 f975 8538
000002b0: 9756 9638 ec8c a338 c2bc 7a38 9a9b af37
000002c0: af28 e237 6405 a838 ccd7 2a39 d71d 1a39
000002d0: e254 b537 9b01 fe37 f1f8 d638 eff2 3f39
000002e0: 13cb 1639 f483 c037 c26a 1c38 53eb 1339
000002f0: 2e79 5b39 746f 0839 c940 d337 3f4d 6738
00000300: 56a4 2f39 7447 5039 7bfa 0439 da66 4138
00000310: 3b1c dc38 4880 3239 d800 3339 8f74 fb38
00000320: fe2b dd37 93b1 b437 feab b437 b174 ce37
00000330: 484d 2938 c565 6637 7b84 4e37 53f5 8037
00000340: b43f b537 0438 3938 201e 2f37 f2be 3d37
00000350: 2c81 5737 9b79 aa37 5202 8738 281f 1f37
00000360: de93 3637 cb15 7e37 35e3 3a38 d46c d238
00000370: 123e 4037 2164 7537 5f87 1a38 a199 b438
00000380: 55a1 f638 f1eb a237 9e0e 4a37 d702 a337
00000390: c790 3a38 7790 a838 44cd 6837 df66 2a37
000003a0: ce01 9537 5b53 4038 bc4e e138 67b3 c037
000003b0: e797 d837 03dc 0d38 018d 8638 e55d 1e39
000003c0: d6c8 3c38 ad22 5138 5d05 8538 f1f3 ff38
000003d0: a143 3d39 248a 8f38 3dd2 9338 a051 d438
000003e0: 2fcf 3039 35bd 3e39
0.000101868325 5.628448e-05 2.6264008e-05 3.6300276e-05 5.547039e-05 0.00010136358 4.852924e-05 3.1300897e-05
4.883665e-05 9.6351185e-05 0.00012793172 9.508054e-05 7.992196e-05 0.0001146386 0.00017360094 0.00019503923
0.00020176014 0.0002482572 0.00029665834 0.00029569492 0.0002707215 0.0002998704 0.00036275035 0.00039883732
0.00030579124 7.762871e-05 7.84832e-05 8.086878e-05 8.165075e-05 6.7366826e-05 8.978165e-05 7.975793e-05
7.532974e-05 8.588434e-05 7.155122e-05 6.5919514e-05 5.0788174e-05 6.459424e-05 8.536703e-05 7.1523704e-05
5.4240518e-05 4.390419e-05 6.285238e-05 8.949051e-05 7.3231306e-05 5.6925295e-05 6.032596e-05 8.237463e-05
9.692042e-05 8.0280195e-05 6.168211e-05 8.534214e-05 7.827523e-05 6.356422e-05 4.6036836e-05 6.85993e-05
8.249923e-05 6.453092e-05 3.955857e-05 2.9298699e-05 8.918407e-05 8.069441e-05 3.3624383e-05 1.6627124e-05
1.7932736e-05 9.578566e-05 6.778569e-05 2.201062e-05 1.2625128e-05 1.9599564e-05 9.4453244e-05 5.7199417e-05
2.7767324e-05 1.9724745e-05 3.138568e-05 5.8979425e-05 6.675065e-05 7.62491e-05 9.6867596e-05 0.00010992167
6.2643456e-05 7.229765e-05 9.063517e-05 0.00011834692 0.00010257414 5.535137e-05 6.356176e-05 0.00010126341
0.00011228835 8.726237e-05 5.6257926e-05 7.7833865e-05 0.00011161023 9.4516785e-05 7.289439e-05 7.1592745e-05
0.00010292188 0.0001114694 8.6295026e-05 7.245046e-05 7.420332e-05 5.919287e-05 6.645646e-05 7.2055984e-05
8.180899e-05 6.233712e-05 6.6960805e-05 7.7214296e-05 8.173321e-05 8.1905324e-05 6.876122e-05 6.810106e-05
6.867677e-05 7.4332165e-05 7.4447e-05 6.77307e-05 6.434276e-05 7.840149e-05 9.7052805e-05 9.938248e-05
6.7907524e-05 7.697498e-05 9.359169e-05 9.511389e-05 9.411834e-05 0.00011390615 0.00014069639 0.00015248434
0.00015235449 0.00015000495 0.00011619456 0.00014162048 0.00015126931 0.00013173166 0.000120979974 9.431466e-05
0.00011304083 0.00012926811 0.00013152014 0.00011354765 7.7985576e-05 8.8985886e-05 0.0001074965 0.00011176854
0.000102018224 7.568906e-05 9.2180446e-05 0.00011002801 8.9105444e-05 7.241131e-05 5.1709318e-05 5.128526e-05
5.863954e-05 6.8155015e-05 7.142919e-05 6.059658e-05 5.811223e-05 6.405081e-05 7.2959556e-05 7.648166e-05
7.575238e-05 7.260618e-05 7.252288e-05 8.5364634e-05 8.246517e-05 7.9145706e-05 7.7776145e-05 7.966704e-05
9.295363e-05 8.369703e-05 6.899962e-05 6.363908e-05 7.168686e-05 7.7986944e-05 5.978044e-05 2.0934083e-05
2.6960244e-05 8.011868e-05 0.00016292854 0.000146977 2.1616408e-05 3.0279907e-05 0.00010250684 0.00018305679
0.00014380766 2.2949629e-05 3.7292724e-05 0.00014106678 0.0002093061 0.0001301149 2.5183328e-05 5.5146633e-05
0.0001675052 0.00019863044 0.00012681812 4.6110574e-05 0.00010495676 0.00017023191 0.00017071085 0.000119903234
2.6365738e-05 2.1540362e-05 2.1537762e-05 2.4611452e-05 4.0364714e-05 1.3732763e-05 1.2309402e-05 1.5373027e-05
2.1606545e-05 4.4159606e-05 1.0437827e-05 1.1309736e-05 1.2845074e-05 2.0322206e-05 6.437734e-05 9.484393e-06
1.0882473e-05 1.5144654e-05 4.455746e-05 0.00010033851 1.1458544e-05 1.4626451e-05 3.6842535e-05 8.6116845e-05
0.000117602445 1.9421774e-05 1.2043542e-05 1.9432437e-05 4.448069e-05 8.037773e-05 1.387607e-05 1.0156741e-05
1.7763025e-05 4.5853998e-05 0.000107435015 2.2971724e-05 2.5819942e-05 3.382192e-05 6.415882e-05 0.00015103033
4.5009736e-05 4.9861777e-05 6.342933e-05 0.00012204785 0.00018049638 6.844502e-05 7.048666e-05 0.000101241516
0.0001686185 0.00018190297

max_exp_avg_sq f4 [10, 1, 5, 5]
00000000: 67f5 d538 da1a 6d38 23ea dc37 2041 1838
00000010: dad8 6838 e343 d538 ecef 4b38 1549 0338
00000020: f4d5 4c38 2610 ca38 5c7a 0639 4c68 c738
00000030: c79b a738 bfcc f038 1b5f 3639 3cde 4c39
00000040: a8a5 5339 3832 8239 6a0b 9c39 8395 9b39
00000050: d62e 8e39 ee78 9d39 258f be39 5205 d239
00000060: 7305 a139 6f7a a338 410c a538 7cc3 a938
00000070: d760 ab38 c569 8d38 c5f8 bc38 d6c0 a738
00000080: 8321 9e38 ce1c b438 c50d 9638 e0f1 8a38
00000090: c229 5638 5ac0 8738 e231 b338 c7ff 9538
000000a0: 8569 6438 35e9 3838 d0df 8338 daac bb38
000000b0: c293 9938 afa5 6f38 7a83 7e38 7555 ad38
000000c0: c141 cb38 1a5c a838 f873 8138 741e b338
000000d0: b227 a438 1462 8538 ad17 4138 95ef 8f38
000000e0: 0e15 ad38 be99 8738 5525 2638 7ac6 f537
000000f0: d41a bb38 566b a938 d797 0d38 7a7a 8b37
00000100: 3d7b 9637 89e0 c838 8f4a 8e38 0da6 b837
00000110: 83d0 5337 cb74 a437 9a46 c638 6e1a 7038
00000120: 2794 e937 7fa8 a537 15c4 0338 ad60 7738
00000130: 7bfc 8b38 7100 a038 bdd5 cb38 588a e638
00000140: 735f 8338 819e 9738 6313 be38 67ae f838
00000150: 0bab d738 1529 6838 764c 8538 14bb d438
00000160: 933a ec38 0f2d b838 1905 6c38 ecaf a338
00000170: 0aa6 eb38 3ff4 c638 88fd 9838 d539 9638
00000180: ab08 d838 aec4 e938 4af9 b438 6a14 9838
00000190: a4f7 9b38 2bce 7838 8a5e 8b38 c31c 9738
000001a0: 8e9f ab38 fdba 8238 4f6d 8c38 1cee a138
000001b0: 2f68 ab38 c6e1 ab38 e445 9038 7ad1 8e38
000001c0: 0a55 9038 8e0a 9c38 6c25 9c38 a50a 8e38
000001d0: c2ef 8638 60fa a438 d488 cb38 906b d038
000001e0: ea33 8f38 5ef5 a138 a846 c438 e277 c738
000001f0: 6661 c538 8cf5 ee38 e687 1339 6927 2039
00000200: 27c4 1f39 a6a4 1d39 7bad f338 f57f 1439
00000210: f3a3 1e39 957d 0a39 d45d fe38 ccca c538
00000220: 5510 ed38 258c 0739 abe8 0939 6e20 ee38
00000230: 308c a338 0bfc ba38 be6f e138 4765 ea38
00000240: 9ef2 d538 842b 9f38 5a7f c238 d630 e838
00000250: 8d72 bb38 df11 9838 75e2 5838 211b 5738
00000260: baf3 7538 310d 8f38 89f2 9538 1529 7e38
00000270: 88bd 7338 0453 8638 2b0f 9938 ce8b a038
00000280: 2e6a 9f38 2ab7 9838 8c99 9838 4d30 b338
00000290: c964 ad38 334a a638 81bf a338 fe20 a738
000002a0: 1af0 c238 8086 af38 1cc3 9038 f975 8538
000002b0: 9756 9638 ec8c a338 c2bc 7a38 27d6 af37
000002c0: 9624 e337 442b a838 2afe 2a39 1b1e 1a39
000002d0: e254 b537 15df fe37 fc39 d738 371a 4039
000002e0: 72e0 1639 f483 c037 c26a 1c38 4708 1439
000002f0: 1aac 5b39 70a1 0839 c940 d337 3f4d 6738
00000300: 8ddd 2f39 117a 5039 9f15 0539 da66 4138
00000310: 8a7e dc38 4011 3339 712d 3339 95b9 fb38
00000320: fe2b dd37 03ba b437 2ee5 b437 d845 cf37
00000330: 484d 2938 c565 6637 8497 4e37 2934 8137
00000340: ede3 b537 cc47 3938 201e 2f37 27c7 3d37
00000350: 67bf 5737 a646 ab37 b816 8738 281f 1f37
00000360: de93 3637 cb15 7e37 35e3 3a38 2d97 d238
00000370: 123e 4037 bd71 7537 5f87 1a38 01d8 b438
00000380: 53fb f638 93fe a237 9e0e 4a37 ae17 a337
00000390: 49aa 3a38 bab0 a838 44cd 6837 df66 2a37
000003a0: ce01 9537 5b53 4038 ec78 e138 67b3 c037
000003b0: e797 d837 03dc 0d38 018d 8638 646e 1e39
000003c0: d6c8 3c38 ad22 5138 5d05 8538 f1f3 ff38
000003d0: 11c9 3d39 248a 8f38 3dd2 9338 a051 d438
000003e0: 7b31 3139 aa81 3f39
0.00010202341 5.653021e-05 2.6335072e-05 3.6300276e-05 5.551507e-05 0.00010169276 4.8622416e-05 3.1300897e-05
4.883665e-05 9.6351185e-05 0.00012824818 9.508486e-05 7.992196e-05 0.00011482229 0.00017392302 0.00019537745
0.0002018424 0.00024832948 0.00029763143 0.000296753 0.00027119246 0.00030035473 0.00036346275 0.00040058285
0.00030712373 7.795251e-05 7.8700956e-05 8.09496e-05 8.171953e-05 6.743105e-05 9.0108755e-05 7.999099e-05
7.540269e-05 8.588434e-05 7.155122e-05 6.6254055e-05 5.1060466e-05 6.47313e-05 8.5446765e-05 7.152516e-05
5.445771e-05 4.408621e-05 6.288255e-05 8.949051e-05 7.3231306e-05 5.7136345e-05 6.0680766e-05 8.2652004e-05
9.692042e-05 8.0280195e-05 6.1728e-05 8.5410575e-05 7.827523e-05 6.360203e-05 4.6036836e-05 6.863397e-05
8.2532046e-05 6.465938e-05 3.9612252e-05 2.9298699e-05 8.921852e-05 8.078541e-05 3.375843e-05 1.6627124e-05
1.793878e-05 9.578566e-05 6.784975e-05 2.2011833e-05 1.2625128e-05 1.960471e-05 9.454526e-05 5.7245074e-05
2.7844753e-05 1.9747995e-05 3.141545e-05 5.8979425e-05 6.675065e-05 7.629477e-05 9.719606e-05 0.00010993023
6.2643456e-05 7.229765e-05 9.063517e-05 0.000118580465 0.00010283858 5.535137e-05 6.356176e-05 0.00010143794
0.00011264267 8.7821965e-05 5.6271532e-05 7.805214e-05 0.000112366004 9.48687e-05 7.295149e-05 7.1633294e-05
0.00010301297 0.0001114694 8.6295026e-05 7.251727e-05 7.4371026e-05 5.9319817e-05 6.645646e-05 7.2055984e-05
8.183635e-05 6.233712e-05 6.6960805e-05 7.7214296e-05 8.173321e-05 8.195969e-05 6.879473e-05 6.810106e-05
6.882295e-05 7.4406256e-05 7.44563e-05 6.77307e-05 6.434276e-05 7.8667654e-05 9.7052805e-05 9.938248e-05
6.828441e-05 7.7227814e-05 9.359169e-05 9.511389e-05 9.411834e-05 0.00011394461 0.00014069639 0.0001527347
0.00015236494 0.00015034023 0.00011619456 0.00014162048 0.0001512913 0.00013207489 0.00012129141 9.431466e-05
0.00011304083 0.00012926811 0.00013152014 0.00011354765 7.7985576e-05 8.916118e-05 0.0001074965 0.00011176854
0.000102018224 7.589816e-05 9.274362e-05 0.000110717185 8.9381916e-05 7.2512536e-05 5.1709318e-05 5.128526e-05
5.863954e-05 6.8212285e-05 7.150049e-05 6.059658e-05 5.811223e-05 6.405081e-05 7.298434e-05 7.655435e-05
7.601488e-05 7.282042e-05 7.276525e-05 8.544382e-05 8.2680555e-05 7.9293175e-05 7.808116e-05 7.969326e-05
9.295363e-05 8.369703e-05 6.902797e-05 6.363908e-05 7.168686e-05 7.7986944e-05 5.978044e-05 2.0961348e-05
2.7077545e-05 8.018923e-05 0.00016307147 0.000146978 2.1616408e-05 3.038304e-05 0.00010262799 0.00018320313
0.00014388727 2.2949629e-05 3.7292724e-05 0.00014117463 0.0002094958 0.00013030111 2.5183328e-05 5.5146633e-05
0.00016771835 0.00019881899 0.00012691923 4.6110574e-05 0.00010513987 0.00017077196 0.00017087699 0.0001200318
2.6365738e-05 2.154429e-05 2.1564392e-05 2.4708846e-05 4.0364714e-05 1.3732763e-05 1.2313834e-05 1.5402287e-05
2.1683018e-05 4.4174303e-05 1.0437827e-05 1.1311647e-05 1.2859563e-05 2.0417687e-05 6.441533e-05 9.484393e-06
1.0882473e-05 1.5144654e-05 4.455746e-05 0.00010041739 1.1458544e-05 1.462962e-05 3.6842535e-05 8.623303e-05
0.00011777007 1.943045e-05 1.2043542e-05 1.9442141e-05 4.4504446e-05 8.043782e-05 1.387607e-05 1.0156741e-05
1.7763025e-05 4.5853998e-05 0.000107513595 2.2971724e-05 2.5819942e-05 3.382192e-05 6.415882e-05 0.00015109178
4.5009736e-05 4.9861777e-05 6.342933e-05 0.00012204785 0.00018099348 6.844502e-05 7.048666e-05 0.000101241516
0.00016898468 0.00018263483

exp_avg f4 [10]
00000000: fc18 963b 4f3a d6ba 2496 973a a177 d4b9
00000010: 3a18 63ba 6919 8ab9 cf3e 51ba 3a42 623a
00000020: a451 2f39 6717 16ba
0.004580615 -0.0016344282 0.0011565131 -0.00040524921 -0.0008662973 -0.00026340343 -0.00079820765 0.00086310843
0.00016719714 -0.0005725533

exp_avg_sq f4 [10]
00000000: 1d06 d438 61d1 6137 8d67 0438 71b6 8c37
00000010: 83dc 9d37 0b0e 2738 5d4d 5d37 6b34 2438
00000020: 1cc2 1738 cc1c f537
0.000101100864 1.3459795e-05 3.156769e-05 1.6774256e-05 1.8818542e-05 3.982898e-05 1.3190639e-05 3.9149465e-05
3.6181984e-05 2.9219686e-05

max_exp_avg_sq f4 [10]
00000000: 1d06 d438 b9f6 6137 09cf 0438 e742 8d37
00000010: ff6c 9e37 a9a2 2738 da29 5e37 f572 2438
00000020: fde8 1738 b56b f737
0.000101100864 1.346849e-05 3.166407e-05 1.6839664e-05 1.8885823e-05 3.996739e-05 1.32419755e-05 3.920771e-05
3.6218193e-05 2.949485e-05
