src/saved/models/Mnist_LeNet/1014_083735/checkpoint-epoch2.pth (torch_old, 355460 bytes, 32 tensors)

conv1.weight f4 [10, 1, 5, 5]
00000000: 522c 5dbe e23a 2cbe 5f1b 58be 9ef6 42bc
00000010: 46d0 61be b903 b83d 002c adbe 4b13 d8be
00000020: a837 bbbe 88ff 85bd 925d f83c 1780 1f3e
00000030: ce80 15be 5a02 0abe b762 9cbd c8d6 003e
00000040: 8244 323d 801c a83e 5add f33d bac4 4e3e
00000050: c61e 8d3e 0aa1 563e 117c 7c3e 8079 c13e
00000060: 1bc4 a13d cb82 e03d f611 7d3c 7680 783e
00000070: 7370 4f3e bd45 69be 5381 453e 6853 243e
00000080: 9b0c 393e a748 2c3e 3e8d 2f3e 746e 9dbd
00000090: 5508 21be e2d0 da3c 262b 17bd 4821 a23d
000000a0: a18e f2bd c2c9 bdbd 5f72 933c 269c 883e
000000b0: 0704 953d 506c 83bd b07a 3dbd eeff 1b3d
000000c0: 7b87 743e 34d4 793e b69b 5c3e 0b31 483e
000000d0: 71cf 2a3e 2b50 2e3e f375 52bc fa57 823c
000000e0: 0fb5 dc3c dfa0 683e 1e38 67bd 59ca 9abe
000000f0: feac 3e3e 6310 943e 9ba7 0fbe de87 8abe
00000100: 4b95 6dbe 305c 183e 42da dc3c ea7d f5bd
00000110: 5447 c1be 5f80 6f3b 451c a33e 3198 143e
00000120: b97b 98be 9e69 a3be 034a 723d fd06 9c3c
00000130: cd56 ab3d 568c 0dbe c15a c23d fa25 783e
00000140: 7cff 32bb 4c5a 51bd 97da ce3d 20b6 e43d
00000150: 3eeb eebc 5729 6dbe 6efd 26be a777 893e
00000160: 905a 683e 731d 993d a9d9 84be 0ccb 553e
00000170: 5ab1 3c3e 1137 723e 970d e1bd 972a 043e
00000180: 698a 8f3e 41d5 503e b564 323e 1f28 bbbd
00000190: e8ee 5f3e 7071 22be 3e50 19bc a00b f3bd
000001a0: 72d7 d5bc e03d 8ebd cf4e f2bc d1c9 373e
000001b0: 0cf0 ef3d 8546 403b 5011 ce3d 3fd8 33be
000001c0: 502e d33d 4cbb 753c e357 30ba 0974 2abd
000001d0: 97b5 4ebe 532b 1a3d 2bc2 2b3e cbc5 8e3e
000001e0: a226 24bd 1aa5 0a3e 8827 823e 234f 89bc
000001f0: f677 873e a63e ac3d 41a9 933e 2766 783e
00000200: 6375 493e aac3 983e 6160 ff3c c941 363e
00000210: 11c8 de3d fee0 6bbd 64a7 663d 0019 3dbe
00000220: 93ee 963d 1e27 333d cb6d 7e3d 1789 e53c
00000230: 3d6f 29be 29cd 3ebe 7ad9 27bd ad2f 293e
00000240: 5298 de3d 6604 90be c33c aabe 3c05 58be
00000250: 356e a6be 3f48 6cbe e387 66be 7b38 13be
00000260: 03a8 a6bc 41f2 133e dd7d a83d 7d5f 8c3d
00000270: dea1 08be 8446 993c 56a8 1abe 902f 1d3e
00000280: 37ba 233d 630a 793e 652f b5bd cc02 743e
00000290: f6bf 8d3e 9960 603e 5a04 e83d aa99 7c3e
000002a0: a44f 5e3e 13b0 863e 334b 4bbc de48 07be
000002b0: 912d 1bbd b7e5 4e3c bf22 12be b693 7fbe
000002c0: e82e 92be 5ffe 3bbc 8c16 8e3e b238 e33d
000002d0: f827 79be 95f3 27be 4eaa 473e ade4 6ebc
000002e0: 98a5 11bd 863b 84be bf16 73be 6a88 3f3e
000002f0: d42c 933e af11 a1bd ebbb 9abe 6393 6cbe
00000300: 6ed1 1c3e e528 9d3e 2ce1 9cbc f037 62be
00000310: 7d6c 383d a2db 91bd 872f 9a3e ee9a 403e
00000320: e180 bbbc a198 0fbd 5f10 afbd b03d 99be
00000330: 9cfe c1be ff87 b8bc 9e46 1ebe 3172 77be
00000340: 0a58 85be 9a21 cf3c 1c7c 33be 07af 82be
00000350: fb20 14be 50c3 5bbe 4504 263e ce73 6dbe
00000360: 119d ecbd 689a 3fbe 029a d93d 4f9b 3f3e
00000370: 00fb d9be d688 82be 38b2 003e 67ca ba3d
00000380: ac4a 823e 6c32 83be 198e 5abe ee12 b8be
00000390: ac30 80bd 8c8a e4bb 0fd7 38be 9891 3ebe
000003a0: 2de0 9bbe b877 c63b d3de 663d 1543 92be
000003b0: d5f9 a9bc 8cb7 1ebd 732e f5bd f6ff 613e
000003c0: aa98 23bd 29a0 c9bd fb0f f6bd afed fe3d
000003d0: 1b8f 903e 7be7 d23d b2e8 24be 251b 72bc
000003e0: 8780 8b3e d58e 793e
-0.21598938 -0.16819337 -0.21104191 -0.011899618 -0.22052106 0.08985085 -0.33822632 -0.4220222
-0.365659 -0.06542879 0.030318055 0.15576206 -0.14599916 -0.1347746 -0.07636016 0.12581933
0.043522365 0.32834244 0.11907454 0.20192233 0.2756254 0.20959869 0.24656703 0.3778801
0.07898732 0.10962447 0.015446177 0.24267754 0.2025774 -0.2278051 0.19287615 0.16047442
0.18071215 0.1682459 0.17143723 -0.07687083 -0.15725835 0.026710931 -0.036906384 0.07916504
-0.118436106 -0.09266998 0.017998872 0.26681632 0.07276159 -0.06417143 -0.046259582 0.03808587
0.23879807 0.24397355 0.21543774 0.19549958 0.16680695 0.17022769 -0.012845504 0.015911091
0.026941804 0.22717617 -0.056450002 -0.30232504 0.18620679 0.28918752 -0.1402878 -0.27056783
-0.23201482 0.14878917 0.026959542 -0.11986907 -0.37749732 0.003654502 0.31857505 0.14511181
-0.29781893 -0.31916517 0.059152614 0.019046301 0.08366165 -0.13823065 0.09489966 0.24233237
-0.0027312925 -0.051111504 0.101002865 0.1116755 -0.029164907 -0.23160301 -0.16307613 0.268491
0.22690797 0.0747632 -0.25947312 0.20878237 0.18427029 0.23653819 -0.1098892 0.12906872
0.28035286 0.2039385 0.17421229 -0.09138512 0.21868479 -0.15863585 -0.00935751 -0.11867452
-0.026103709 -0.069453955 -0.029578594 0.1794808 0.11715707 0.0029338908 0.10061896 -0.1756296
0.10311568 0.014998268 -0.00067269633 -0.041614566 -0.20186459 0.037638973 0.16773288 0.2788528
-0.040075906 0.13539544 0.25420785 -0.016761368 0.2645871 0.08410387 0.28840068 0.24257718
0.19673686 0.2983678 0.031173887 0.17798533 0.108780034 -0.057587616 0.05631198 -0.18466568
0.07369723 0.043738477 0.062116425 0.028019471 -0.1654634 -0.1863295 -0.040978886 0.16522093
0.108688965 -0.28128356 -0.33249483 -0.21095747 -0.32505956 -0.23074435 -0.22512774 -0.14377014
-0.020343786 0.14447881 0.082271315 0.068541504 -0.13342997 0.018710382 -0.15103278 0.15350175
0.03997251 0.24320368 -0.088469304 0.23829192 0.27685517 0.21911849 0.11328955 0.24667993
0.21710068 0.2630621 -0.012408066 -0.1321139 -0.037885252 0.0126280105 -0.14271067 -0.24958691
-0.28551412 -0.011474221 0.27751577 0.11094798 -0.24331653 -0.16401513 0.1949856 -0.014580888
-0.035558313 -0.25826663 -0.23739146 0.18704382 0.2874514 -0.07864701 -0.30221495 -0.23103099
0.15314266 0.30695263 -0.019150339 -0.22091651 0.045025337 -0.0712197 0.30114385 0.18809101
-0.022888603 -0.035057668 -0.085480444 -0.29929876 -0.37889564 -0.022525785 -0.15456626 -0.24164654
-0.2604373 0.025284577 -0.17527813 -0.2552416 -0.14465706 -0.21461225 0.16212566 -0.23188707
-0.115533955 -0.18711245 0.10625078 0.1871159 -0.4257431 -0.25495023 0.12567985 0.091206364
0.25447595 -0.25624406 -0.21343268 -0.35951942 -0.062592834 -0.006974524 -0.18050788 -0.18610227
-0.3044447 0.006056752 0.056364845 -0.28566805 -0.020749012 -0.038749263 -0.1197175 0.22070298
-0.039940514 -0.09845001 -0.12014767 0.12447678 0.2823418 0.10298058 -0.16104391 -0.01477698
0.27246496 0.24370892

conv1.bias f4 [10]
00000000: 2653 743e 0f55 21bb 8b99 3a3e 8d72 0dbe
00000010: 4ce8 f13d 7032 0e3e b092 f43d b53a 1fbe
00000020: c261 5e3e c314 633e
0.23859844 -0.002461735 0.18222634 -0.13813229 0.11811885 0.13886428 0.11942041 -0.15549739
0.21716979 0.22175889

conv2.weight f4 [20, 10, 5, 5]
00000000: 7549 c33c 417f 5c3c 22cc 48bd d22c 9d3c
00000010: 77de 2dbd c32f f73d 6359 e73d 5811 763d
00000020: e7ca 653b 268a 99bd a0e4 5c3d 03c3 b73d
00000030: 28f1 233d 7c78 03bc 4468 963c 908e 68bc
00000040: 1865 c5bc 2df7 99bd fc18 f4bc a8ac 8ebd
00000050: b6f9 0f3e f9ba 67bd a493 6bb9 464f 9abd
00000060: a078 94bd 2ddf 2cbb e3c9 a4bc 5504 46bd
00000070: 34fc 09bd db04 8dbc 29e4 8b3d 1bb9 533c
00000080: 1c81 5a3d 7220 c6bc 6f54 213b 0914 713d
00000090: 0b14 2f3d 8feb 803c 84ce 4c3d 0383 123d
000000a0: a9b0 0c3c 859a 9d3d 5201 ab3d 75ee f03c
000000b0: 9846 e7bc 17b7 8dbc 0db9 f6bc 140c 89bd
000000c0: 782c 0fbd c042 af3c 552f 953b 5d81 a73c
000000d0: e26e 07bd b6ce 953c f245 5ebd 8add 22bb
000000e0: 8e7d f3bd de67 57bd 5136 993d 5520 7f3b
000000f0: 354c 91bd 3f19 18be 603c b73c 5447 273d
00000100: 51e5 813c 6f19 d6bb 6572 19ba 8981 173d
00000110: 0b88 80bd bcfa 023b ea07 733d a8f6 98bc
00000120: 9cd6 183c 8a5e ef3d 6a5d a23d 7f50 af3c
00000130: b9c7 96bd 6eb8 bebd 4f29 8e3d f204 953d
00000140: 5481 8c3b 8f78 4c3d c5ba 9ebc 3dc3 23bd
00000150: 0435 3cbd 46ce 003d 104a 0a3c 42bc 5f3d
00000160: b7b2 703d 9542 443d f7d6 013d 5f86 513c
00000170: 3a20 833d ffef a9bc cbc6 1cbc 7676 c73a
00000180: 60b2 edbc e3e2 563c afd3 c5bc 376b 9bbd
00000190: d853 413d 503e b33b 3376 99bd c667 693c
000001a0: 6497 e23c b03e b33d 0dd7 a03d 80c3 3f3d
000001b0: 40a3 f53c f0eb 4bbd 8340 8e3d defd 0d3d
000001c0: 341f 973d b724 4a3d f137 843b e392 75bc
000001d0: 45f5 0c3d 5ed8 453d 2e2b 4fbd dd1a b4bc
000001e0: 9042 0cbc 4eda b5ba 9ff7 0bbc a3aa 2dbd
000001f0: 1e0d 07be ebad a8bc 54b6 0fbe 1d31 20be
00000200: ff63 b4bd 7634 08bd 37a1 183d 703f c4bc
00000210: a7d9 00be 571b 2ebd 8775 d03c 686f f3bb
00000220: 4200 a3bc eb98 d33c 71ed 60bd b626 43bd
00000230: 53ca 0a3e 7f5d 793d fcfe c3ba 4a8f c03d
00000240: 6e2c 7c3c bb47 a33c a34a 963d 671b cabc
00000250: bf70 943d ed77 d03d f465 873d e5b7 07b9
00000260: e314 81bd 0900 4c3d 7308 2dbc 24d7 a2bc
00000270: c843 e9bc 14a6 fd3c 46fc 643c 385c 2a3d
00000280: d8e1 903d 5459 5e3d f0bf 7d3d ee9c a8bc
00000290: 04f2 1abd 2b74 dbbc ee07 9b3d c733 b73d
000002a0: 15eb ee3c 0462 9d3d 0474 80bd 9105 27bc
000002b0: bb1b 8bbb 5095 6bbd d1c5 c0bd 8061 04bd
000002c0: 8798 ddbd 93a2 13be 5bff 483d 9141 5b3b
000002d0: f4d0 86bc 8899 7ebc 191f 17be bad7 1ebd
000002e0: c563 823d 2d06 e4bd 5823 0bbd 9b84 c4bd
000002f0: f796 21bc 726a 4f3d 583c c8bd ecd5 fabd
00000300: 94a5 0ebd 1df9 8b3d 3a44 68bd 891f f4bc
00000310: df95 a0bd dedb 00bc c247 17bd d582 08bc
00000320: 01c8 203b 673f 03be ba3f 5fbd 0329 403c
00000330: 1e09 073e 782c 8dbd 48cb 92bd a7e8 a6bb
00000340: 7454 b6bb de6d ee3d 04bf c4bd f02b d3bd
00000350: 1086 c0bd 0db8 b2bd 988c 0ebd b59d 11bd
00000360: 7b71 efbc 39c8 fbbc 8b9f 71bc eb92 923c
00000370: 4ec4 983d 1777 1f3c f8dc a03c c860 ab3d
00000380: 996b 2dbd 83f6 48bd e991 0cbe cb86 0bbb
00000390: 99b7 aa3d a9c4 ec3c a35c 92bd 427f 9ebd
000003a0: ea94 84bb 7806 9b3d 6265 823c 435b 43bd
000003b0: 8153 39bd d5ab 1abd d6cd 803d 5229 ab3d
000003c0: eb33 d3bc aa79 46bc 515c 7fba da9b 003d
000003d0: fd09 65bd 1b89 27bc 504e 71bd a2dc 123d
000003e0: 512e 1b3d 518b e5b9 d660 b83b d334 4f3a
000003f0: 6d46 6f3d 939c 97bd 2c92 58bd f320 2d3d
0.023838738 0.013458074 -0.0490228 0.019186411 -0.042448487 0.12069657 0.11296346 0.060075134
0.0035063566 -0.07497053 0.05392897 0.089727424 0.040024906 -0.008024331 0.018360265 -0.014194146
-0.024096057 -0.07517848 -0.02979707 -0.06966525 0.14060101 -0.056574795 -0.00022466347 -0.075346515
-0.0724957 -0.002637814 -0.020115798 -0.048343975 -0.033687785 -0.01721423 0.068306275 0.012922551
0.053345785 -0.024185393 0.0024616977 0.058856998 0.042743724 0.015737323 0.050001636 0.035769474
0.008587041 0.07695488 0.08349861 0.02941058 -0.028231904 -0.017299218 -0.030117536 -0.06691757
-0.034954518 0.021394134 0.0045527616 0.020447427 -0.03306473 0.018287044 -0.054265924 -0.0024851286
-0.11889182 -0.05258929 0.07481063 0.0038929184 -0.070946135 -0.1485338 0.022367656 0.04083951
0.015856417 -0.0065337936 -0.0005853533 0.03698877 -0.06275948 0.0019985875 0.05933372 -0.018672302
0.009328511 0.11687954 0.079279736 0.021400688 -0.07362313 -0.09312521 0.06941473 0.07276334
0.004287878 0.04991966 -0.019376168 -0.039981116 -0.045948997 0.031446718 0.008440509 0.054622896
0.058764186 0.04791506 0.031699147 0.012788384 0.06402631 -0.020744322 -0.00956888 0.0015217799
-0.02901572 0.013115617 -0.02414879 -0.07588809 0.0471991 0.0054700747 -0.07493248 0.014245933
0.02766008 0.08752191 0.07853518 0.046817303 0.02998507 -0.049785554 0.069458984 0.034665935
0.073789984 0.04935142 0.004034989 -0.014988634 0.034413595 0.048302047 -0.05057829 -0.021985466
-0.008560792 -0.0013874264 -0.008542924 -0.04239906 -0.13188598 -0.020590743 -0.14034396 -0.15643735
-0.08808135 -0.033253156 0.03726312 -0.02395603 -0.12583028 -0.042506542 0.025446666 -0.007429052
-0.019897584 0.025829753 -0.05491394 -0.04764434 0.13553743 0.06088018 -0.0014953311 0.0940233
0.015391452 0.019931665 0.073384546 -0.02467127 0.07248067 0.10179124 0.06611243 -0.0001294311
-0.06302812 0.04980472 -0.0105610965 -0.019877978 -0.028474703 0.030962981 0.013976162 0.041591853
0.07074326 0.05428441 0.061950624 -0.020582642 -0.03782846 -0.026788792 0.07569872 0.089454226
0.02916483 0.076847106 -0.06272128 -0.010194198 -0.004245249 -0.057515442 -0.094127305 -0.032319546
-0.10820108 -0.14417486 0.04907165 0.0033455829 -0.016457058 -0.015539534 -0.14757957 -0.03877995
0.06366686 -0.111339904 -0.033969253 -0.09595605 -0.009862653 0.050638624 -0.09777135 -0.122478336
-0.034825876 0.06834624 -0.05670569 -0.029800193 -0.07841086 -0.00786492 -0.036933668 -0.008331974
0.0024533274 -0.12817155 -0.054504134 0.011728528 0.13187072 -0.06893247 -0.07167679 -0.0050936523
-0.005564267 0.11642049 -0.09606746 -0.10311115 -0.094005704 -0.08726511 -0.03480205 -0.03555079
-0.029228916 -0.030735122 -0.014747511 0.017892322 0.07459317 0.009732983 0.019636616 0.08368069
-0.04233894 -0.049063217 -0.13727535 -0.002129006 0.083358 0.028902369 -0.07146575 -0.07739116
-0.0040460723 0.07569593 0.015917484 -0.047694456 -0.04524565 -0.037761528 0.0628926 0.083574906
-0.025781592 -0.012113968 -0.0009741234 0.03139863 -0.05591773 -0.01022556 -0.058912575 0.035854943
0.037885968 -0.00043782083 0.005626778 0.0007904295 0.058416773 -0.07402911 -0.052873775 0.04226775

conv2.bias f4 [20]
00000000: f027 333a 836b 86bd 778b d93c 0ced a53b
00000010: 257c c73c 2839 6b3c 7069 333c c757 823d
00000020: e4b0 f33c eb65 a13d 3c26 47bd 85e5 6a3d
00000030: 5592 3ebd 10ee 29bc cf6d 263d 6241 153d
00000040: e141 d3bc 38df 7ebd 63c9 9ebc d64c a33d
0.0006834259 -0.06563475 0.02655576 0.0050636586 0.024351189 0.014356889 0.010950431 0.063643984
0.029747434 0.078807674 -0.048620448 0.057347793 -0.04652627 -0.0103717 0.040632065 0.036439307
-0.02578825 -0.062224597 -0.019383138 0.0797364

fc1.weight f4 [50, 320]
00000000: 5d48 a53d a9f7 213d 35f3 b4bc f77a 853d
00000010: 52f2 983d 6af9 463d dc7f bcbc 7596 ef3c
00000020: c858 c0bc de3e dcbd 1997 c1bd 787f 00bd
00000030: 7456 9bbc 52a9 72bd e069 063c 948b 41b9
00000040: 2ced d53c b4ff 52bc cfdf f53c a8f5 533d
00000050: fae8 16bd 67e7 f6bc b40e 233d 5a24 54bd
00000060: 7e1c d83c d568 11bc 97f9 0d3d d967 403d
00000070: db1e 40bc d768 93bc a67c 93bd 380c 1ebd
00000080: dce0 9c3c c1c9 0f3d c5db debc ed24 0bbd
00000090: 61d9 a8bc 0693 6bbc dec6 393d 497e 21bd
000000a0: 6adb 24bd 05de b43c 0a86 37bc df8c aabc
000000b0: be90 86bd 0b4d b4bc 9635 bcbc f038 4a3d
000000c0: f1ae 89bd 08a5 a1bc ee6a c8bd 9b6f fcbd
000000d0: 0053 ca3c 0ffa c8bc 5ba3 393c 133d 2a3d
000000e0: 7be5 a63b acf2 6fbd 43dc b63c fbf7 b53d
000000f0: 6512 95bd 64e0 73bb 1a0f 1f3d 13a1 1e3d
00000100: 8e9e 4fbd 9e56 34bd ddfc 84bd 1b7d 9fbc
00000110: 4597 3fbd 108b 87bd 7f09 663d 4a43 003e
00000120: 3a86 6b3d 6214 8dbc b8b9 1dbd f02f 98bc
00000130: 280f cb3d 38a7 843c 2ff4 4ebd feb7 2abd
00000140: 4a82 833d 659a fb3c 6f31 e2bc 7a3d 3dbc
00000150: 2dea 323c abe9 1abe 119b 8abd 9d77 23bd
00000160: 32c0 0cbe 2008 183c 8d2c 97bc 545b 24bd
00000170: 5832 c13c a4a2 5e3d 67a4 13bc 95bf 89bd
00000180: ff25 d7bc 710b bc3c daf4 633d 6baf 953c
00000190: 60c2 4fbd 9359 fcbc d367 5c3c 69f2 febd
000001a0: a096 8abd 3cea 993b e457 a53d f932 f1bc
000001b0: 0962 f13c 12fa 453d dd65 653c 4427 26bd
000001c0: 6f76 033d b95f 2fbc 0160 07bd ec45 d03d
000001d0: 7fc8 f33c 161a 60bd 8a03 34bc 09ca 823d
000001e0: cc17 8dbb 1156 363d e542 043c 54fc 2f3d
000001f0: c45f 113d 8518 9dbc 9118 13bd 8bb0 463c
00000200: dbae a83a 7cbd 8fbd b657 51bd 72cc daba
00000210: 8bbc 373c 9dbb 823c 1e53 8cbd 743f 7c3d
00000220: 37ab 89bc 9959 5d3d 06b5 95bd e8d6 94bc
00000230: 065e 103d 9b8a c63d cdc9 6b3c c857 453b
00000240: c481 483d ecfa c2bc a53f bdbc 1f3a 293d
00000250: 17bc 963d 60af c6bd 48d5 1d3d ae1f 8b3d
00000260: d1f4 0fbd ac7e a3bd 6667 afbd c059 a8bd
00000270: f36c a73b bde4 93bc 1d9a ecbd beb2 66bd
00000280: 760b ddbc 4571 1ebd ef9e 93bd bfeb 1bbd
00000290: bab2 7ebd 6ce1 c83c 114a 51bd 217f b6bb
000002a0: ce7c 4c3b 3d0e 0c3d 9918 78bd 6f6e b93b
000002b0: 7712 3b3d be8a f83d 1ef8 753c 2317 02bc
000002c0: 7d2f a13d bc19 143d 4ef8 f5bc 24ba f4bc
000002d0: 06b5 bbbd 74ef 84bd f539 0fbe 09a8 f53c
000002e0: af36 68bd 4302 0cbd c9bb 85bd a118 80bd
000002f0: d5a1 52bd f6a7 a63d a3b9 0b3c 71c7 ccbd
00000300: 776b 773d e874 f1bc 54ed dcbc a6fd 3b3d
00000310: 537e 4d3c 34c7 fb3c 2fe5 0b3d b4fd 893d
00000320: 5165 b83d 83e2 a83c d784 8f3c 9ee9 e03b
00000330: b729 3f3c 2915 78bc c5d7 bebc 359f e1bc
00000340: 45db 0ebd 7674 13bd 0f19 34bd c1fb b9bc
00000350: 9c92 09bc ac73 fe3c 3cbb c5bc 92f0 dfbc
00000360: e9bc 573d cce3 7b3c 2b4a 39bd 789d 173d
00000370: d233 ccbb 4c2e 2bbd c65b 4e3d 07a8 7cbc
00000380: cfda efbc ee27 f4bc 440c 8bbb 73a2 e4bb
00000390: 58b1 a23c 8886 033e 7a40 9c3d 7fe4 31bb
000003a0: f5cd b23d de7a 143e 0fe7 eebc cdc7 3f3c
000003b0: b2b9 013d ca07 593d 2818 ef3b ba36 f93c
000003c0: 3276 85bd 92de 723b 26a9 8dbc a7a6 dfbc
000003d0: 2281 b83c be36 07bd 1158 ae3d 5139 87bc
000003e0: 601e e4bc ea5a 0d3d 5c4e f4ba 14ad 883c
000003f0: d5d9 cb3c 49a2 c33d 4a48 fa3c f475 1bbd
0.08070443 0.039542828 -0.022088626 0.06517594 0.07468094 0.048577704 -0.023010187 0.029246548
-0.023479834 -0.107541785 -0.09452648 -0.031371564 -0.018962122 -0.059243508 0.0082039535 -0.00018457911
0.026114069 -0.012878347 0.030013947 0.051747948 -0.036843278 -0.030139638 0.039808944 -0.05179248
0.026380774 -0.008875092 0.034661856 0.046974037 -0.0117261065 -0.017994327 -0.07201509 -0.03858587
0.01915019 0.035104517 -0.027204404 -0.033970762 -0.020611467 -0.014378315 0.04535567 -0.039427076
-0.040248312 0.022078523 -0.011201391 -0.020819126 -0.06570576 -0.022009393 -0.02297477 0.049370706
-0.067228206 -0.019732013 -0.0978602 -0.123259746 0.02469778 -0.0245333 0.011330451 0.04156215
0.005093274 -0.05858104 0.022321826 0.08885189 -0.07278899 -0.0037212605 0.03883276 0.03872783
-0.05068832 -0.044027917 -0.06493542 -0.019468835 -0.04677512 -0.06618321 0.0561614 0.12525669
0.057501055 -0.017221633 -0.038507193 -0.018577546 0.09915 0.016193017 -0.05052584 -0.041679375
0.06421335 0.03071327 -0.027611462 -0.011550302 0.01092009 -0.151282 -0.06767858 -0.039908994
-0.13745192 0.009279281 -0.01845386 -0.04012616 0.023583576 0.054354325 -0.009011365 -0.067259945
-0.026263235 0.022954674 0.05565343 0.018272122 -0.05072248 -0.030804431 0.013452488 -0.1244858
-0.06767011 0.0046971124 0.080734044 -0.029443251 0.029465692 0.04833419 0.014001337 -0.04056479
0.03209537 -0.010703974 -0.03305054 0.101695865 0.02975869 -0.054712377 -0.010987172 0.063861914
-0.0043058153 0.044515673 0.0080725895 0.04296525 0.03549172 -0.01917673 -0.0359121 0.012127052
0.0012869494 -0.07018563 -0.05110904 -0.001669301 0.011214386 0.015958602 -0.06851791 0.06158395
-0.016805274 0.054040525 -0.07309918 -0.018168882 0.035245918 0.09694406 0.014391375 0.0030112136
0.04895188 -0.02380129 -0.023101637 0.041315194 0.07360094 -0.09701419 0.03853348 0.06793152
-0.035145584 -0.07983145 -0.085646436 -0.082202435 0.0051094233 -0.018053407 -0.11552832 -0.056322806
-0.026983004 -0.03868224 -0.072080486 -0.038066622 -0.062182166 0.024521552 -0.051096026 -0.005569354
0.003120232 0.034193266 -0.060570333 0.0056589167 0.045671906 0.12135838 0.015012769 -0.007940087
0.07870386 0.036157355 -0.030025627 -0.029873915 -0.09165387 -0.064909846 -0.13986953 0.029987352
-0.056692775 -0.034181844 -0.06529958 -0.062546976 -0.051423866 0.08137505 0.008528146 -0.09998978
0.06040522 -0.02947469 -0.026968636 0.045896195 0.012542325 0.030734636 0.034154113 0.06737843
0.090036996 0.020615822 0.017519398 0.006863787 0.01166766 -0.015141764 -0.023296246 -0.027541736
-0.03487708 -0.035999738 -0.04396921 -0.022703053 -0.008396771 0.031061016 -0.024137132 -0.027336393
0.052670393 0.015374135 -0.045236748 0.03701541 -0.0062317634 -0.0417922 0.05038049 -0.01542092
-0.02927914 -0.029804196 -0.0042434055 -0.0069773733 0.019859955 0.12844288 0.076294854 -0.002714425
0.087306894 0.14499995 -0.029162912 0.011705351 0.031671233 0.052985944 0.007296581 0.030421603
-0.065166846 0.0037058932 -0.01729257 -0.027301146 0.022522513 -0.03301119 0.08512891 -0.016506823
-0.027846515 0.03451053 -0.0018639076 0.016684093 0.024884144 0.09552438 0.030552048 -0.037954286

fc1.bias f4 [50]
00000000: 68ab c83c f705 8dbc b3e0 0d3d 33c3 443d
00000010: 2566 54bc 93b1 0f3d be37 163c 0f30 3d3d
00000020: c635 2e3d 5df4 e5bc 237d b83b f14a d03a
00000030: 0de2 b03d f2ba ae3d a225 463d 2d7d 763d
00000040: 7618 1b3d 151d c13c 3565 43bd dfec 643d
00000050: 9cee 8c3d f802 3b3d 1533 9e3c fc90 5ebc
00000060: ffe5 05bc ccf8 ac3b d95a c7bb 3893 2d3d
00000070: 427d bc3b 1005 b63c 0039 363c 3857 db3c
00000080: cf6c cb3b f507 483c 11c7 c93b 9c88 d6bc
00000090: 1266 8e3d 7c01 b93c cf1b 843c e319 fc3c
000000a0: abec 893c f839 053d 802a 47bc f415 dbbc
000000b0: e6ba 413d edc8 d73c 29a6 1d3d 5475 d03c
000000c0: 0973 0cbb 1f76 443d
0.024495795 -0.017214758 0.034638118 0.04803772 -0.012963806 0.035081457 0.009168563 0.04618841
0.04253175 -0.028070623 0.005630152 0.0015891475 0.08636866 0.08531751 0.048375733 0.06017797
0.037865125 0.023573438 -0.04770394 0.05588996 0.068814486 0.045657128 0.019311467 -0.013584372
-0.008172511 0.0052786823 -0.006083828 0.042376727 0.0057522366 0.02221921 0.011121988 0.026774988
0.0062080394 0.012208928 0.006157764 -0.026188187 0.06953062 0.022583716 0.016126541 0.030774062
0.016836485 0.032525986 -0.012156129 -0.026743867 0.04729738 0.026340926 0.03848854 0.025446571
-0.002143087 0.04796421

fc2.weight f4 [10, 50]
00000000: 8cf0 2d3e 94cf 6abe 5486 da3d 31ca 5abe
00000010: 587f 3bbe 4631 48be 6241 c63d c01a 0ebe
00000020: 0768 61bd 13b2 65bd 417f 2cbe 4cb7 c53d
00000030: 60fe 80bd e403 f0bd 1c5a e83b c6f1 43be
00000040: f7a2 62be dbc1 6fbe ae69 033e baf5 9dbd
00000050: 9179 113e aae6 1e3b 7fd6 26be e862 e33d
00000060: 4431 31be 1ee3 fd3d 36ae 20be eb85 64bd
00000070: 7287 f6bd 2e5a f13d 3099 1abe 3891 a63d
00000080: 6029 083e 4618 86bb f8c5 53bd 89c0 e73c
00000090: 851c de3d d1d9 003e 8800 d83d b081 113e
000000a0: 08be a83d 765d f63d 367c 88bd 3951 283e
000000b0: 4e01 06be 5119 773d cc1b ef3d 18a7 c4bd
000000c0: 9cd0 98bd e889 a53d fc58 5abd 0cc3 9cbc
000000d0: d13d 30be f3d3 2e3e 53e4 c23d c104 bc3d
000000e0: 9522 0b3e f5ec 343e 968b 4ebe 6c35 d5bd
000000f0: 818b 78bd 32c2 c6bd 5387 b73d f222 ba3d
00000100: b88e 0abe 028c 273e cf6d adbd 3c96 ff3d
00000110: 1d04 ae3d 0813 b93d aeb3 01be 958d 49be
00000120: 5269 27be 55ea 133e 7a3a bc3d 5265 34be
00000130: 9cb9 febd 3f12 ffbd 57fc db3d bbd8 cc39
00000140: 30ae 213d dca4 ce3d 79fb ec3d bf66 953d
00000150: eb32 423d b3c7 b7bd 0a72 47be 5276 36bd
00000160: 830b 67be 5a31 2ebe 0a4b 40be 835a 5cbd
00000170: d848 3fbe 88a4 a8bd 7cf7 b43d b24f 64be
00000180: d994 153e d936 68be f76f 893d 9705 5fbe
00000190: c015 003d 1819 9fbd cbc3 39be 3387 e83d
000001a0: e65a a9bd 8c2b 9bbe a0ae 013e 2fe2 b9bd
000001b0: c6e2 1ebe 62aa 043e abc7 6ebb 8cf5 513d
000001c0: bf31 8abd 6a0d 12be 04e2 4dbe 69a6 f53c
000001d0: 698a b0bd 3558 40be 2062 283e 2ebf fc3d
000001e0: bc27 19be e8c3 283d 2394 d03c ab0e 9b3d
000001f0: 87bb ed3d 891c c83d c2c3 cf3d f53d 04be
00000200: 9e60 bb3d cb49 df3d e01b b93d 9d57 003e
00000210: e6ea e63d c995 543d 1f3b 82be a957 65bd
00000220: b2b2 fcbd d6e5 d03d 6f5b 9c3d 3df0 a0bc
00000230: b087 aebc fbcc 8f3c b9b3 e73d f210 0b3e
00000240: 147f 483d aa3d a13d 01a2 05be 07f2 d1bd
00000250: 1c71 eabd 83f8 5bbd 7f28 d3bd 424a 84bc
00000260: e460 13be 979c 5fbd 8f8a 88bd 3d0c 64bd
00000270: f34c 0ebe 94e0 47be 1e19 a53d b271 103e
00000280: b498 f43d 87f1 d63d 5f58 043e e896 5dbe
00000290: 5769 0dbe eb3a 1c3e 043d 693d 8661 e03d
000002a0: 587c 163d 30a9 b23d b3b5 08be 03a2 0e3e
000002b0: 9830 28be a050 20be 5639 9cbd 9696 03be
000002c0: 453a b0bd 0349 013e d164 d23d 8be7 083e
000002d0: 66fd 9c3d a5b3 c0bc 6b06 0cbe f66b 843d
000002e0: a7c2 81bc 793e fbbc 910f a93d aff1 0a3e
000002f0: 4b30 a3bd 9bf7 cd3c 6f89 483c ae47 42bd
00000300: 1684 debc 523f b0ba 8459 cf3d 39a5 22bd
00000310: 70ef 04be bc4a 2abe 117a 84bd d006 583d
00000320: 4674 1e3d 58a1 ac3d d4c3 2ebe b79f 3d3d
00000330: eb1e fe3d 08e1 26bd e71d ff3d 2a60 293e
00000340: aa48 1f3d 219f 083e 0d59 b63d 6adc 77be
00000350: a086 5abc 730d 183d 2951 8c3d e2de 033e
00000360: 5a74 f53d c225 2dbd 6bef 463d eec1 47be
00000370: 231a 723d a1f0 82bd 0c84 043e ab1b 123e
00000380: ffb1 6ebd 0aa6 933d 5c03 ef3d e8bd f23d
00000390: 66f2 68bd b491 04be c411 21be c234 a1bd
000003a0: 63a4 db3c cb3f 18be 18b1 c73d 6c77 9fbd
000003b0: 263c 8a3d e59f 0fbe f5ac e23d bbae 743d
000003c0: dfbd b5bd 6a32 64be 4338 70be 2110 bbbd
000003d0: 7509 15be 1da8 9c3d 22e1 06be 2b4e 1a3e
000003e0: 859e 323e 4bf5 8ebe 9448 bbbd 5193 b33d
000003f0: 9eb2 033e d427 c43d 85aa 083e 25cb 063c
0.16986293 -0.22930747 0.10670152 -0.21366192 -0.18310297 -0.19550046 0.096804395 -0.13877392
-0.05503085 -0.056078028 -0.16845419 0.09654102 -0.06298518 -0.11719492 0.00709082 -0.19135198
-0.22132479 -0.23413794 0.12833282 -0.07712884 0.1420653 0.0024246373 -0.16292761 0.11102849
-0.1730395 0.12396835 -0.15691456 -0.055791777 -0.12037553 0.117847785 -0.15097499 0.08133167
0.13297033 -0.004092249 -0.05170247 0.02829005 0.108452834 0.1258309 0.10546976 0.14209628
0.082393706 0.12029545 -0.06664316 0.16437234 -0.13086435 0.060326878 0.11675224 -0.09602183
-0.07461664 0.08082944 -0.05330752 -0.019135974 -0.17211081 0.1707304 0.09516206 0.09180594
0.13587411 0.17668517 -0.20170435 -0.1041058 -0.060679916 -0.097050086 0.08961358 0.090886965
-0.13531005 0.16362002 -0.0846821 0.12479827 0.08496878 0.09036833 -0.12666199 -0.19682916
-0.1634877 0.1444486 0.09190841 -0.17616776 -0.12437746 -0.12454652 0.107414894 0.0003907139
0.03947276 0.10090038 0.11571402 0.07294988 0.04741184 -0.089736365 -0.19477096 -0.044546433
-0.22562985 -0.17011014 -0.18778625 -0.053797256 -0.18680131 -0.08234507 0.088362664 -0.22296026
0.14607562 -0.22677173 0.06710809 -0.21779476 0.031270742 -0.07768458 -0.18141095 0.11353912
-0.082692906 -0.3030666 0.1266427 -0.09076344 -0.15516195 0.12955621 -0.003643493 0.051259562
-0.067477696 -0.1426293 -0.2010575 0.029986577 -0.0862015 -0.18783648 0.16443682 0.12341152
-0.14956564 0.041202456 0.025461262 0.07571157 0.116080336 0.09771068 0.1014476 -0.1291426
0.09149288 0.10902747 0.0903852 0.12533422 0.11275272 0.05190066 -0.2543573 -0.055991802
-0.12338771 0.10200088 0.07634627 -0.019645805 -0.021304935 0.017553797 0.11313576 0.13580683
0.048949316 0.078730896 -0.13050081 -0.10251241 -0.11447355 -0.053703796 -0.103104584 -0.01614869
-0.1439243 -0.054592695 -0.06667053 -0.055675734 -0.13896541 -0.19519264 0.08061431 0.14105871
0.11943188 0.104952864 0.12924336 -0.21639597 -0.13809715 0.1525685 0.056942955 0.10956101
0.036739677 0.08723676 -0.13350563 0.1392899 -0.16424787 -0.15655756 -0.076281235 -0.12850413
-0.08604864 0.12625508 0.102731355 0.13369577 0.076655194 -0.023523161 -0.13674323 0.064659044
-0.015839888 -0.030669438 0.08254922 0.13568757 -0.079681955 0.025142482 0.012239798 -0.04743164
-0.027162593 -0.0013446605 0.101244956 -0.03970835 -0.12981963 -0.16630071 -0.06468595 0.052740872
0.038685106 0.084292114 -0.1706689 0.046294894 0.12408241 -0.04074195 0.12456875 0.1654059
0.038887657 0.13341953 0.08903704 -0.24205175 -0.013337761 0.0371222 0.068514176 0.12877992
0.11985083 -0.042272337 0.04856817 -0.19507572 0.059106957 -0.063935526 0.12940997 0.14268367
-0.05827522 0.07209404 0.116705626 0.11852628 -0.056871794 -0.12946206 -0.15729433 -0.07871391
0.026811784 -0.14868085 0.09750575 -0.0778645 0.06749754 -0.14025839 0.11068145 0.05973695
-0.08874106 -0.22284856 -0.23458962 -0.09133936 -0.14554389 0.076492526 -0.13171819 0.15068881
0.17443283 -0.2792152 -0.091447026 0.08768333 0.12861106 0.09577909 0.13346298 0.008227144

fc2.bias f4 [10]
00000000: 2d52 48be ca28 c63d 2145 d13d 7275 083d
00000010: e18e 47be 8692 a43d bf0b bbbc c387 52bd
00000020: d818 c13d 7ce4 1dbe
-0.19562598 0.09675749 0.102182634 0.03331513 -0.19488098 0.0803576 -0.02283275 -0.051399004
0.09428567 -0.15419191

exp_avg f4 [10, 1, 5, 5]
00000000: aa34 eb3b f6b3 dd3b bc69 a43b e0a4 403b
00000010: 07b5 ff3a 6df1 973b 851e 343b 7e5a f43a
00000020: bffa 213b e201 b43a b52f d63b d083 143b
00000030: f1c6 a73a 3576 a43a 5b1e 09bb b04a 0f3c
00000040: ae12 833b eac8 10b9 b618 80ba 90d4 8ebb
00000050: 2ec9 003c 152b b63b e94a 193b 28be 613a
00000060: df2a 1039 8eb1 953a faa0 9b3a a36d e8ba
00000070: 492b 86bb 7135 2bbb 6a16 263b 2b60 5a3b
00000080: ff57 673a 7ee9 64ba 1ad6 9c3a 5552 253b
00000090: 689b 763b 4956 023b 751b 0f3b 598b 663b
000000a0: 6579 2b3b a4c4 083b c992 5ab9 4c9c 033b
000000b0: 6e16 8e3b 984d 8bb8 1135 0ebb baaf 1abb
000000c0: a1fa 833a a6b5 803b 7c0c a2bb d42f 8ebb
000000d0: 889a 30bb b401 91ba 9341 7038 d682 d5bb
000000e0: 856f aabb 52be b6ba bf01 cb3a c78b 183b
000000f0: d6fd cabb f80a 3cbb 5a2d 763a e184 1f3b
00000100: 9fa9 643a 7cb1 a1bb 3611 2abb 4b6a 9eb9
00000110: e94e 09ba be15 a4ba d37a ffba 9a2e 5439
00000120: 35a3 c8b9 a517 d6ba f8d0 9fba abf2 1d3b
00000130: 4076 33b9 7dc2 97bb 2bfe b1bb 9871 b6bb
00000140: 0246 213a 1e6d 973a f6fe 92bb 5897 f1bb
00000150: 2732 ecbb 18b3 ec3a a0ed 0dbb f277 afbb
00000160: 7e3e 6fbb 9d97 05bb d7cb 953a b643 4ebb
00000170: 98c7 89bb b672 71ba a300 07ba 4f6b 92ba
00000180: 4dab abba cc8d 9339 d80c 143b 730f 5739
00000190: f69e 4e3a 7e02 22b8 f8d3 70bb 663d bebb
000001a0: fe7e c2bb bc48 393a 6924 8e3a 00a7 2ebb
000001b0: a0f2 d7bb adea bbbb 23bf ecb9 01bf 6e3a
000001c0: 69b6 2fbb 704c b0bb 874a 5dbb 5b47 05b9
000001d0: 5657 9738 fa13 09bb 98c8 14bb 1f46 2fba
000001e0: 508b 69ba deae 83ba be02 bab9 2899 2538
000001f0: b2ea f63a d36b 903a d8e8 3c3b b3f3 743b
00000200: af26 403b a2ed 5f3a 1e95 bd3b 0c37 c63b
00000210: 92be e23b 920e 973b 6238 923b 8286 f13b
00000220: 6601 093c 27a8 f53b 8e28 ca3b 9e71 003c
00000230: 9a60 073c aa1b fc3b 2a38 013c 09b6 063c
00000240: dfce 173c 312f af3b 4424 e43b 789d 003c
00000250: df80 cc3b d397 f53b 7393 473a e99d dbb9
00000260: 5db2 11bb 9697 bbbb d043 bcbb e9fa dc3a
00000270: 403a 24ba b8af 27bb c493 b4bb 3d10 86bb
00000280: 564d 5739 05f7 0ebb 2280 13bb bcab 6dbb
00000290: dabe bbba 41ff 2036 0e31 13ba 4155 a4ba
000002a0: e25c 5dba 5379 1f3a 1046 6f3a 28cd bb3a
000002b0: ba7c b63a fa40 5a3a 490c e63a 65a1 01ba
000002c0: f0ce 39ba 0213 3cbb ed66 53bb 3228 5c3a
000002d0: 02b0 97ba 47a4 36b9 8a57 02bb 2881 27bb
000002e0: c50e 26ba 494f 04bb 10c5 c8ba 46aa f8ba
000002f0: 5522 2dbb 0818 c23a 12eb b3ba 1ed6 caba
00000300: 6d33 39bb 9dc5 73bb 2495 82b9 ae00 cab9
00000310: 0686 ceba 10d3 9aba bfd4 a9ba 3a75 e5b9
00000320: 6dab 8fbb df14 37bb 4aca 01bb 7872 bcba
00000330: 43ff 2cbb d583 3bbb 68ec caba fcab 8cba
00000340: 1003 2fbb 9bc1 9abb b7dd e1ba f728 80b9
00000350: 8ed0 26bb 4730 edbb 3f0e 08bc fd6c deb9
00000360: 0222 d1b9 7a22 91bb 8a21 eebb a840 0bbc
00000370: c91f baba 6af7 64bb ff46 94bb e8c8 66bb
00000380: ebfc 03bb 74e5 e7ba 7a2f 8aba daa0 47ba
00000390: 7718 1abb c943 98bb aa8e 13bb d962 cfba
000003a0: ebaf 1bbb f5e9 77bb bc56 b9bb 7223 38bb
000003b0: 0b00 39bb 6c7c a2bb db12 00bc 63a3 e6bb
000003c0: 9522 d5ba 30a7 7abb 3da2 dbbb d7f5 ffbb
000003d0: e0f9 d1bb 65e4 2cba f451 3dbb d703 60bb
000003e0: b45c 68bb c2cc 83bb
0.007177909 0.006765838 0.0050174873 0.0029395148 0.0019508906 0.0046369345 0.0027484011 0.0018642691
0.0024716107 0.0013733471 0.006536449 0.0022661574 0.0012800378 0.0012547435 -0.0020922634 0.008745834
0.0040000295 -0.00013807756 -0.000977299 -0.0043588355 0.007860465 0.005559335 0.0023390597 0.00086114043
0.00013748881 0.0011420713 0.0011873536 -0.001773287 -0.0040945155 -0.0026124383 0.002534295 0.003332148
0.0008825063 -0.0008732303 0.0011965663 0.0025226076 0.003762925 0.0019887856 0.0021836434 0.0035178273
0.0026164886 0.002086916 -0.00020844782 0.0020082174 0.00433617 -6.6424895e-05 -0.002169911 -0.0023603276
0.00100692 0.003927904 -0.004945336 -0.0043391977 -0.0026947577 -0.001106313 5.728153e-05 -0.006515841
-0.0052012824 -0.0013942218 0.0015488191 0.0023276673 -0.0061948104 -0.0028693061 0.0009390913 0.0024340677
0.0008722785 -0.004934488 -0.00259502 -0.00030215303 -0.0005237894 -0.0012518687 -0.001949156 0.00020235256
-0.0003826857 -0.0016333951 -0.0012193015 0.002410094 -0.00017114822 -0.004631339 -0.0054319105 -0.0055677406
0.00061520946 0.0011552905 -0.00448596 -0.007372778 -0.007208127 0.0018058745 -0.0021656528 -0.005354875
-0.0036505754 -0.0020384558 0.0011428547 -0.0031473464 -0.0042047016 -0.00092105137 -0.0005149936 -0.0011170896
-0.0013097316 0.00028143672 0.0022590663 0.00020509753 0.00078819634 -3.862613e-05 -0.0036747437 -0.005805659
-0.005935549 0.0007068028 0.0010844591 -0.0026649833 -0.0065902025 -0.0057347626 -0.00045155836 0.00091074413
-0.0026811606 -0.005380206 -0.0033766346 -0.0001271045 7.216509e-05 -0.0020916448 -0.002270257 -0.0006686169
-0.0008909004 -0.0010046621 -0.00035478728 3.9481703e-05 0.0018838255 0.0011018462 0.002882531 0.0037376701
0.0029319932 0.0008542185 0.0057855984 0.0060490426 0.0069196904 0.004609891 0.0044622878 0.007370771
0.00836215 0.007496852 0.0061693853 0.007839588 0.008262778 0.0076937275 0.007886926 0.0082221115
0.0092656305 0.005346202 0.006962331 0.0078500435 0.0062409486 0.0074949055 0.0007613219 -0.00041888587
-0.0022231557 -0.0057248576 -0.0057453886 0.0016859445 -0.00062647834 -0.0025586914 -0.005510779 -0.004091291
0.00020532808 -0.0021814716 -0.0022506793 -0.0036265692 -0.0014323846 2.3990435e-06 -0.00056149147 -0.0012537615
-0.00084443216 0.00060834474 0.00091275666 0.0014328109 0.001392267 0.00083257223 0.0017551269 -0.0004945009
-0.0007088026 -0.0028697853 -0.0032257393 0.00083983236 -0.001157284 -0.0001741807 -0.0019888603 -0.002555916
-0.00063345983 -0.002018886 -0.0015317518 -0.0018971644 -0.0026418169 0.0014808187 -0.0013726673 -0.0015475189
-0.0028259412 -0.0037196644 -0.0002490665 -0.0003852895 -0.0015756495 -0.0011812169 -0.001295708 -0.00043765624
-0.004384449 -0.0027936024 -0.0019804412 -0.0014377376 -0.0026397265 -0.0028612514 -0.0015481832 -0.0010732408
-0.0026704706 -0.0047227866 -0.0017232214 -0.00024444584 -0.0025453898 -0.007238421 -0.008304178 -0.00042424342
-0.00039888924 -0.0044291588 -0.0072671818 -0.008499302 -0.0014200147 -0.003493751 -0.004525065 -0.0035214964
-0.0020139765 -0.0017692284 -0.0010542714 -0.00076152163 -0.0023513117 -0.0046467525 -0.0022515454 -0.0015822306
-0.0023755978 -0.0037828658 -0.0056560915 -0.00280973 -0.0028228785 -0.00495868 -0.0078169955 -0.00703852
-0.0016260917 -0.0038246624 -0.00670269 -0.007811289 -0.0064079612 -0.0006595313 -0.002888796 -0.0034181976
-0.0035455646 -0.004022212

exp_avg_sq f4 [10, 1, 5, 5]
00000000: d0ae 6639 8e45 0c39 150f 9c38 7632 c538
00000010: 1d4c 2939 d4b0 6739 3f77 fa38 c4f6 a338
00000020: 0ca8 0239 fdff 8739 b69b 9239 5b3d 6639
00000030: 6ff3 4a39 a3b3 9939 a8fa f439 8b18 d039
00000040: fc56 e239 190e 123a 3fd4 353a 5d0d 3e3a
00000050: e71b 093a b416 223a 5559 4d3a b6e0 653a
00000060: 6bcd 3a3a 9615 fc38 eae8 0339 1162 0739
00000070: 79de fd38 7a39 cc38 8730 0e39 2649 fb38
00000080: c4d0 e738 7321 eb38 cfb8 cc38 5040 db38
00000090: 6849 a638 2937 be38 f4b2 db38 5419 ce38
000000a0: 8a23 a638 6595 9338 d09d bb38 e5b7 f038
000000b0: f84c db38 c9bd b238 1732 be38 2139 ea38
000000c0: b14f 0639 5a8e f538 7784 0739 2709 3439
000000d0: 65db 3239 79fa 1339 8d3c d438 5a39 1d39
000000e0: 9572 3939 7612 1a39 a612 b138 0d4d 8638
000000f0: 48b0 3c39 fea5 2b39 45b3 a638 de4a 2338
00000100: 81c6 2338 3a0a 3b39 e2d6 0539 192d 4538
00000110: b530 f537 40a2 2d38 019c 2e39 a2d0 e938
00000120: 7ebd 6b38 afa1 3a38 f777 8f38 63ad e238
00000130: 7697 fa38 ac14 0639 04d9 2e39 115a 4639
00000140: 51b3 ce38 7224 ee38 3fde 1839 0069 4839
00000150: cdaf 3039 8803 a738 45e5 c338 d68b 1e39
00000160: 55bf 2e39 df8a 1239 d1da b238 73ce ea38
00000170: f38c 1c39 0c45 0c39 df30 e338 af9c df38
00000180: 4e9d 1339 da2c 2139 4281 0339 9765 d738
00000190: 3875 f838 095d b738 2626 c538 1cc0 d838
000001a0: 0bf2 f738 1a91 c438 62e7 c738 bfdc e838
000001b0: 6ab0 f438 a9a9 f838 e14e c938 02bf c038
000001c0: 59a6 c538 77d8 c438 aa76 d138 64ca b638
000001d0: cab6 b038 3b6d c638 2181 dd38 0ac0 fb38
000001e0: e8aa cc38 0f33 e938 6c02 ff38 8ead f738
000001f0: 5e8b 0039 f75c 8a39 2c42 a439 54f6 ac39
00000200: b77a b039 7ad2 b939 f831 9039 8252 9f39
00000210: 7f59 9e39 b4c3 9639 302e 9b39 1364 5b39
00000220: e4ca 4a39 db58 5a39 4201 8139 a847 8039
00000230: 6720 0d39 d39c 0039 1024 2239 5a45 4e39
00000240: e574 5639 7b21 d638 6db1 ee38 3c4a 2339
00000250: 5de6 2039 165b 2339 1bae 7d38 39a9 7b38
00000260: 7558 9638 b55f b238 f230 c138 7f30 aa38
00000270: b68b a238 754c ae38 548e b538 0c01 c538
00000280: e3f1 de38 c54a d838 d033 c238 daa7 cb38
00000290: 2206 d038 5fa0 ef38 6208 e938 1dfc da38
000002a0: 2148 e438 c7e0 d838 8496 d338 30d8 c938
000002b0: c70c cd38 88aa d638 2c8f ac38 f33d 2538
000002c0: f888 5338 796e 2039 c683 9c39 3fde 9939
000002d0: 438e 0d38 0621 4e38 0ad9 4739 9fdd b039
000002e0: a331 9439 8c91 0038 a525 7338 7446 8439
000002f0: 2540 cd39 ace4 8839 857c 1d38 2bfb ca38
00000300: da39 a639 bb3f cc39 f8ad 8339 049b a138
00000310: c07f 4c39 eccf b039 531e b539 b43a 8039
00000320: 54f1 6a38 36a3 2c38 4242 0338 ec2d 0738
00000330: 6d6f 9138 116b f337 cfb1 a337 312c a837
00000340: 75a1 f437 3e6f a438 a948 9a37 7086 9337
00000350: 73a5 a637 1842 1938 64f1 0539 2d3a 8b37
00000360: ce12 9e37 b91a f337 6ed4 c238 7e95 4c39
00000370: 8eac c337 32a0 0a38 0b6a ac38 dd05 3a39
00000380: 196e 7439 8fc0 0538 93a8 9737 460f db37
00000390: 70c1 8938 77ca 0139 0458 b437 e751 7437
000003a0: 8465 e137 4691 9a38 efaf 2439 214b 1738
000003b0: 85ca 2a38 2a88 7738 efef e538 61e0 5c39
000003c0: d899 9438 8e3a ae38 9f17 f138 b064 4a39
000003d0: b6f5 8239 82f1 e138 dbbd fa38 7a61 3139
000003e0: d8d6 8339 d13b 8239
0.00021999632 0.00013377352 7.441469e-05 9.403091e-05 0.0001614545 0.0002209575 0.0001194314 7.818409e-05
0.00012460368 0.00025939933 0.00027963304 0.00021957366 0.00019354907 0.00029316274 0.0004672606 0.00039691137
0.00043170888 0.0005571559 0.0006936229 0.0007249916 0.0005230293 0.00061831926 0.0007833441 0.0008769141
0.00071259466 0.00012020317 0.00012579901 0.00012911136 0.00012105419 9.738184e-05 0.00013560253 0.000119822376
0.00011053824 0.000112119036 9.761901e-05 0.00010454713 7.92917e-05 9.0701804e-05 0.000104760664 9.827563e-05
7.9221165e-05 7.037333e-05 8.94625e-05 0.00011478345 0.0001045707 8.523052e-05 9.069236e-05 0.000111686306
0.00012808923 0.000117090254 0.0001292395 0.00017169547 0.00017057134 0.00014112321 0.00010120226 0.00014994052
0.0001768566 0.00014693462 8.443491e-05 6.40397e-05 0.00017994747 0.00016369668 7.9488884e-05 3.8931954e-05
3.90471e-05 0.0001783752 0.00012763918 4.701046e-05 2.9228957e-05 4.139752e-05 0.00016652049 0.00011149167
5.6204844e-05 4.4496435e-05 6.8411166e-05 0.000108088156 0.00011949141 0.00012786937 0.00016674778 0.00018916304
9.856246e-05 0.00011355513 0.00014578643 0.00019112602 0.00016850159 7.963838e-05 9.341029e-05 0.00015120147
0.0001666521 0.00013975379 8.528459e-05 0.00011196444 0.00014929827 0.00013377162 0.000108333064 0.00010662653
0.00014077613 0.00015370865 0.00012541286 0.000102709215 0.00011847395 8.743449e-05 9.400798e-05 0.00010335466
0.00011822962 9.3730356e-05 9.532158e-05 0.00011103739 0.00011667686 0.00011857163 9.599119e-05 9.1908514e-05
9.424677e-05 9.386328e-05 9.9879995e-05 8.7161345e-05 8.426381e-05 9.4617215e-05 0.00010562153 0.00012004383
9.759312e-05 0.00011119816 0.00012159799 0.00011810205 0.0001225895 0.00026390675 0.0003132982 0.00032989925
0.00033660766 0.00035442767 0.0002750305 0.00030388316 0.00030202788 0.0002875604 0.00029598316 0.00020922748
0.00019339804 0.00020823201 0.00024605735 0.0002446745 0.00013458879 0.00012265453 0.00015462958 0.00019671526
0.00020452177 0.000102105514 0.000113817725 0.00015572546 0.00015344606 0.00015578824 6.048205e-05 6.0000664e-05
7.169034e-05 8.505528e-05 9.212074e-05 8.115265e-05 7.750785e-05 8.311208e-05 8.657263e-05 9.393887e-05
0.0001063084 0.000103136095 9.260292e-05 9.711059e-05 9.919355e-05 0.000114262795 0.00011111867 0.0001044201
0.00010885322 0.00010341551 0.000100893 9.624695e-05 9.777542e-05 0.00010236079 8.228267e-05 3.939676e-05
5.0433882e-05 0.00015299943 0.00029852818 0.0002934802 3.374951e-05 4.9144983e-05 0.00019058972 0.00033734457
0.00028265742 3.065313e-05 5.7970774e-05 0.00025229494 0.00039148438 0.00026110315 3.7547685e-05 9.678894e-05
0.0003170509 0.00038957395 0.00025115884 7.705952e-05 0.00019502547 0.0003372425 0.00034545604 0.000244578
5.6014702e-05 4.1159998e-05 3.129454e-05 3.2229276e-05 6.9348935e-05 2.9017714e-05 1.9513913e-05 2.0047739e-05
2.9162251e-05 7.84085e-05 1.8392066e-05 1.7586368e-05 1.9865785e-05 3.6539597e-05 0.00012773793 1.6597181e-05
1.8843824e-05 2.8980301e-05 9.290209e-05 0.00019510646 2.3326164e-05 3.3050957e-05 8.221351e-05 0.00017740527
0.00023310668 3.1889005e-05 1.8079101e-05 2.6113947e-05 6.5686996e-05 0.00012377823 2.1498658e-05 1.4562603e-05
2.6869362e-05 7.3703515e-05 0.00015705799 3.6071175e-05 4.071977e-05 5.90162e-05 0.00010964262 0.00021064423
7.0858456e-05 8.307873e-05 0.00011496175 0.0001930173 0.000249786 0.000107738204 0.00011956292 0.00016916348
0.00025146338 0.000248401

max_exp_avg_sq f4 [10, 1, 5, 5]
00000000: d0ae 6639 8e45 0c39 150f 9c38 7632 c538
00000010: fc71 2939 d4b0 6739 3f77 fa38 c4f6 a338
00000020: c9db 0239 063c 8839 b69b 9239 4a8d 6739
00000030: 654e 4b39 27f5 9939 a8fa f439 d722 d039
00000040: 4d28 e339 2736 123a 3fd4 353a 5d0d 3e3a
00000050: c76b 093a 0b44 223a 92ab 4d3a b6e0 653a
00000060: 6bcd 3a3a d09c fd38 7f11 0439 6577 0739
00000070: 6169 fe38 5622 cf38 4069 0e39 b94b fb38
00000080: c4d0 e738 7085 ec38 1d33 cf38 767c db38
00000090: 6849 a638 2937 be38 c760 dc38 895d ce38
000000a0: a45d a638 6595 9338 c7b6 bb38 5af5 f038
000000b0: 5c51 db38 c9bd b238 1732 be38 7d75 ea38
000000c0: 8a8f 0639 5a8e f538 7784 0739 1527 3439
000000d0: 9c14 3339 2533 1439 8999 d438 5a39 1d39
000000e0: 137f 3939 3b42 1a39 b351 b238 051a 8738
000000f0: 48b0 3c39 c4cb 2b39 45b3 a638 45a1 2338
00000100: c41c 2438 4354 3b39 11ee 0539 2b59 4538
00000110: d8b0 f537 70fa 2d38 b013 2f39 184b ea38
00000120: c32d 6c38 7ff5 3a38 0eba 8f38 878c e338
00000130: 137d fb38 c99b 0639 fe61 2f39 c9f7 4639
00000140: 05f8 ce38 9da0 ee38 42f0 1839 cda0 4839
00000150: d5f4 3039 8803 a738 45e5 c338 a1bd 1e39
00000160: ee28 2f39 8990 1239 d1da b238 1221 eb38
00000170: e85f 1d39 9857 0c39 df30 e338 e3df df38
00000180: 7d7c 1439 b75d 2139 4281 0339 9765 d738
00000190: abe9 f838 093a b938 7f21 c738 8059 d938
000001a0: 537f f838 a27a c538 69ae c938 c2a5 e938
000001b0: eb33 f538 ba2f f938 96c2 c938 0416 c138
000001c0: 3cb5 c538 2227 c538 72d5 d238 64ca b638
000001d0: cab6 b038 1aa3 c738 29d8 df38 50dc fe38
000001e0: e8aa cc38 0b53 e938 14b8 0039 7cc4 f838
000001f0: bf7c 0139 847d 8a39 133b a539 2f48 ae39
00000200: 49e8 b039 61d3 b939 f831 9039 4993 9f39
00000210: 7dc7 9e39 dc10 9739 0271 9b39 1364 5b39
00000220: e4ca 4a39 03a5 5a39 4a37 8139 df7f 8039
00000230: 6720 0d39 d39c 0039 1024 2239 9a6d 4e39
00000240: f0a5 5639 d29e d638 8abc ee38 cd9d 2339
00000250: 5e46 2139 4782 2339 7201 8038 d829 7d38
00000260: b7bb 9738 3688 b238 705f c138 8371 aa38
00000270: 2dda a238 11b7 ae38 0668 b638 b453 c838
00000280: e3f1 de38 c54a d838 527b c238 611e cc38
00000290: 4307 d438 f6e0 ef38 5d65 e938 7d5d db38
000002a0: f5a9 e438 6132 da38 834a d438 f354 ca38
000002b0: 6a8b cd38 a7cf d738 7c9a ac38 f33d 2538
000002c0: f888 5338 2f23 2139 9e1d 9d39 183e 9a39
000002d0: 438e 0d38 0621 4e38 62c5 4839 5c40 b139
000002e0: 614e 9439 8c91 0038 a525 7338 47b0 8439
000002f0: 2696 cd39 ace4 8839 857c 1d38 7430 cb38
00000300: fd93 a639 bb3f cc39 f8ad 8339 84ae a138
00000310: 4012 4d39 eccf b039 531e b539 b43a 8039
00000320: a329 6b38 ee13 2d38 56fe 0338 ec2d 0738
00000330: 6d6f 9138 116b f337 cfb1 a337 312c a837
00000340: 75a1 f437 3e6f a438 a948 9a37 7086 9337
00000350: 73a5 a637 1842 1938 6509 0639 2d3a 8b37
00000360: ce12 9e37 b91a f337 6ed4 c238 cf17 4d39
00000370: 8eac c337 32a0 0a38 d493 ac38 d85b 3a39
00000380: 196e 7439 50e1 0538 93a8 9737 460f db37
00000390: e5d7 8938 57ea 0139 0458 b437 e751 7437
000003a0: 8465 e137 d1b4 9a38 aabb 2439 214b 1738
000003b0: 85ca 2a38 2a88 7738 d006 e638 61e0 5c39
000003c0: 02a8 9438 2c44 ae38 9f17 f138 6b98 4a39
000003d0: b6f5 8239 2123 e238 98f5 fa38 a68e 3139
000003e0: d8d6 8339 d13b 8239
0.00021999632 0.00013377352 7.441469e-05 9.403091e-05 0.00016159558 0.0002209575 0.0001194314 7.818409e-05
0.00012479642 0.00025984662 0.00027963304 0.00022082511 0.00019388793 0.00029365087 0.0004672606 0.0003969881
0.0004332684 0.00055775273 0.0006936229 0.0007249916 0.00052421953 0.0006189949 0.00078456954 0.0008769141
0.00071259466 0.00012093189 0.00012595019 0.00012919081 0.00012131292 9.876925e-05 0.00013581384 0.00011982717
0.00011053824 0.000112782116 9.88005e-05 0.000104659164 7.92917e-05 9.0701804e-05 0.00010508444 9.840268e-05
7.932939e-05 7.037333e-05 8.9509e-05 0.00011489792 0.00010457888 8.523052e-05 9.069236e-05 0.000111798734
0.00012832708 0.000117090254 0.0001292395 0.00017180697 0.00017078448 0.00014133433 0.00010137546 0.00014994052
0.00017690314 0.00014711257 8.502919e-05 6.442148e-05 0.00017994747 0.0001638374 7.9488884e-05 3.9012422e-05
3.9127437e-05 0.000178651 0.00012772555 4.7051504e-05 2.9288625e-05 4.1479652e-05 0.00016696635 0.00011171977
5.6309404e-05 4.457449e-05 6.853427e-05 0.00010850379 0.000119919096 0.0001283727 0.00016725805 0.00018975059
9.869043e-05 0.00011378641 0.00014585353 0.0001913339 0.00016875875 7.963838e-05 9.341029e-05 0.00015138696
0.00016704548 0.00013977489 8.528459e-05 0.00011211833 0.00015008415 0.00013384072 0.000108333064 0.00010675171
0.00014160755 0.00015389068 0.00012541286 0.000102709215 0.000118690856 8.832297e-05 9.4952986e-05 0.00010364037
0.000118492775 9.416534e-05 9.616913e-05 0.000111411806 0.00011692181 0.00011882135 9.620671e-05 9.207058e-05
9.4274495e-05 9.400981e-05 0.000100533376 8.7161345e-05 8.426381e-05 9.5194395e-05 0.000106737316 0.000121527
9.759312e-05 0.00011125774 0.00012275606 0.000118621596 0.0001234887 0.00026414928 0.00031515266 0.00033241647
0.00033742402 0.0003544344 0.0002750305 0.0003043658 0.0003028474 0.00028813526 0.000296481 0.00020922748
0.00019339804 0.00020851572 0.0002464599 0.00024509334 0.00013458879 0.00012265453 0.00015462958 0.0001968652
0.00020470447 0.00010233898 0.000113838425 0.00015603677 0.0001538037 0.00015593423 6.103785e-05 6.035887e-05
7.235206e-05 8.513073e-05 9.220734e-05 8.127375e-05 7.7654004e-05 8.331065e-05 8.697812e-05 9.552334e-05
0.0001063084 0.000103136095 9.273611e-05 9.7331365e-05 0.000101103 0.0001143831 0.00011129186 0.00010460147
0.00010903544 0.00010404434 0.00010122827 9.6479336e-05 9.8011296e-05 0.00010290677 8.230374e-05 3.939676e-05
5.0433882e-05 0.00015367263 0.0002996744 0.00029419432 3.374951e-05 4.9144983e-05 0.00019147017 0.00033808022
0.00028287157 3.065313e-05 5.7970774e-05 0.0002530834 0.00039212516 0.00026110315 3.7547685e-05 9.6888194e-05
0.00031772247 0.00038957395 0.00025115884 7.709584e-05 0.00019557122 0.0003372425 0.00034545604 0.000244578
5.6067143e-05 4.1264975e-05 3.1469703e-05 3.2229276e-05 6.9348935e-05 2.9017714e-05 1.9513913e-05 2.0047739e-05
2.9162251e-05 7.84085e-05 1.8392066e-05 1.7586368e-05 1.9865785e-05 3.6539597e-05 0.00012782736 1.6597181e-05
1.8843824e-05 2.8980301e-05 9.290209e-05 0.00019559193 2.3326164e-05 3.3050957e-05 8.229134e-05 0.00017772557
0.00023310668 3.191951e-05 1.8079101e-05 2.6113947e-05 6.5728826e-05 0.00012389697 2.1498658e-05 1.4562603e-05
2.6869362e-05 7.376972e-05 0.00015710169 3.6071175e-05 4.071977e-05 5.90162e-05 0.000109685236 0.00021064423
7.088484e-05 8.3096646e-05 0.00011496175 0.00019321001 0.000249786 0.00010783063 0.00011966674 0.00016933176
0.00025146338 0.000248401

exp_avg f4 [10]
00000000: bd30 b7bb 7dbf ab3a 29e1 503b c240 6ab8
00000010: aa77 1cb8 294a d1bb 01f3 083a 8e18 b93b
00000020: f00b 823b 753f 443b
-0.005590527 0.0013103333 0.0031872487 -5.5850258e-05 -3.7304744e-05 -0.0063870144 0.00052241987 0.005648679
0.003968708 0.002994505

exp_avg_sq f4 [10]
00000000: babf 8039 be46 b937 f216 6238 c7d3 0938
00000010: c15d dd37 020a e638 6e84 a437 68e2 a238
00000020: 2336 8e38 63c4 2438
0.0002455691 2.208666e-05 5.390397e-05 3.286058e-05 2.638891e-05 0.00010969119 1.961199e-05 7.7669334e-05
6.7811714e-05 3.9283546e-05

max_exp_avg_sq f4 [10]
00000000: babf 8039 be46 b937 f216 6238 c7d3 0938
00000010: 7f3f de37 020a e638 ef31 a537 68e2 a238
00000020: 2336 8e38 63c4 2438
0.0002455691 2.208666e-05 5.390397e-05 3.286058e-05 2.649403e-05 0.00010969119 1.9692785e-05 7.7669334e-05
6.7811714e-05 3.9283546e-05
