src/saved/models/Mnist_LeNet/1014_083735/checkpoint-epoch8.pth (torch_old, 355460 bytes, 32 tensors)

conv1.weight f4 [10, 1, 5, 5]
-0.19491935 -0.1503641 -0.15802449 0.059315912 -0.087179475 0.15738128 -0.40886003 -0.65293324
-0.4805453 -0.11886396 0.10233972 0.19003028 -0.19658929 -0.19129738 -0.1179942 0.10903986
0.117245026 0.38653997 0.14132786 0.18051739 0.16406348 0.18566185 0.25969934 0.41320777
0.07410086 0.075929135 0.0150502 0.24487804 0.14035599 -0.33206552 0.1841545 0.14247118
0.13790396 0.16331404 0.09941335 -0.07331835 -0.1617737 0.015800813 0.0002611633 0.06514911
-0.12562647 -0.045920465 -0.0029976654 0.20565687 0.03559438 -0.0053778715 0.023820758 0.006677629
0.14036143 0.17914627 0.19152135 0.17781204 0.15350781 0.21643998 0.00022821108 0.08339503
0.07624426 0.24489881 -0.091979064 -0.34330434 0.26018718 0.34705046 -0.12516022 -0.3793269
-0.24468862 0.20392498 -0.01844213 -0.20030215 -0.4758434 0.05442612 0.27636442 0.027041364
-0.3307048 -0.26799595 0.11607582 0.067982204 0.10982141 -0.11450574 0.11073124 0.2506739
-0.037215967 -0.105592154 0.06842021 0.17165361 0.03742318 -0.33522868 -0.18302256 0.26222953
0.24532907 0.06302536 -0.32344615 0.2318189 0.22009411 0.24304308 -0.1525404 0.1456413
0.23992497 0.072967395 0.028208897 -0.15206839 0.2980579 -0.14989603 -0.04291544 -0.18438144
-0.102533005 0.0043887366 -0.08792334 0.17857452 0.14235449 -0.07357914 0.1007068 -0.33392856
0.05360429 0.041210633 -0.058743533 -0.10153645 -0.30445743 -0.012580276 0.13906957 0.27934048
-0.015043023 0.18697183 0.24214564 -0.13971663 0.19875519 0.14109063 0.34146866 0.25195146
0.219217 0.33973527 0.08203819 0.19682245 0.104276836 -0.05168316 0.049993847 -0.23861541
0.019889802 0.06254681 0.06735905 0.055616327 -0.27431527 -0.24606478 -0.10130909 0.13342787
0.13085318 -0.27129278 -0.43831962 -0.31784478 -0.42322958 -0.26145777 -0.3254843 -0.14469284
-0.019835653 0.063087985 -0.01036513 -0.10048055 -0.076546215 0.054928925 -0.23777474 0.093881965
-0.0017966145 0.30840796 -0.058958177 0.17824952 0.24113862 0.26289308 0.18452471 0.22579771
0.19035463 0.21711946 -0.042501867 -0.18028513 -0.19578981 -0.16805926 -0.30989647 -0.26939288
-0.25452706 0.017534947 0.30246648 0.09105504 -0.3840988 -0.19911909 0.24394913 0.040744133
-0.04367789 -0.37717742 -0.24019185 0.18638062 0.30726162 -0.09511663 -0.395458 -0.2653114
0.11604728 0.30019677 0.023041997 -0.368936 -0.07620426 -0.15046005 0.26666296 0.24162741
0.026598625 0.09825737 -0.016937826 -0.35690716 -0.575142 0.07990225 -0.1328595 -0.4668872
-0.470486 -0.066428736 -0.16320206 -0.49811566 -0.36529446 -0.25135544 0.2653889 -0.4144433
-0.32116055 -0.18086155 0.17040105 0.29841337 -0.62364 -0.16742197 0.23997419 0.14449403
0.2202527 -0.19700468 -0.18498583 -0.36624318 -0.08269477 0.041660905 -0.11810108 -0.19362561
-0.33040947 0.0020211427 0.10217971 -0.28173143 -0.009031727 -0.0037800127 -0.08066728 0.24157763
-0.053595442 0.00092966366 -0.031089846 0.1334029 0.3137371 0.02711516 -0.09127448 0.025520492
0.25501755 0.28001052
00000000: f098 47be 0cf9 19be 2cd1 21be 3ef5 723d
00000010: 278b b2bd 8f28 213e 1a56 d1be a226 27bf
00000020: 090a f6be f36e f3bd 7d97 d13d 4c97 423e
00000030: b44e 49be 76e3 43be f1a6 f1bd 4a50 df3d
00000040: 291e f03d 91e8 c53e 40b8 103e 8dd9 383e
00000050: 4200 283e 241e 3e3e 50f7 843e f88f d33e
00000060: 31c2 973d bc80 9b3d 1d95 763c 4fc1 7a3e
00000070: 7bb9 0f3e 7e04 aabe ff92 3c3e f7e3 113e
00000080: b236 0d3e cc3b 273e 3a99 cb3d ee27 96bd
00000090: 01a8 25be b570 813c bfec 8839 e66c 853d
000000a0: 3aa4 00be 1917 3cbd 7b74 44bb b797 523e
000000b0: 6acb 113d db38 b0bb c023 c33c 03d0 da3b
000000c0: e8ba 0f3e 1f72 373e 2c1e 443e 5c14 363e
000000d0: 2731 1d3e 71a2 5d3e f24b 6f39 03cb aa3d
000000e0: f325 9c3d c1c6 7a3e 855f bcbd 96c5 afbe
000000f0: 4137 853e 99b0 b13e 002a 00be 2337 c2be
00000100: a78f 7abe b6d1 503e f313 97bc 021c 4dbe
00000110: bfa1 f3be eced 5e3d a37f 8d3e da85 dd3c
00000120: 2452 a9be c436 89be 29b9 ed3d 413a 8b3d
00000130: 0cea e03d fc81 eabd 0fc7 e23d 5458 803e
00000140: c56f 18bd b340 d8bd e51f 8c3d f7c5 2f3e
00000150: 0c49 193d 18a3 abbe 446a 3bbe f342 863e
00000160: 8b37 7b3e 7113 813d bc9a a5be ef61 6d3e
00000170: 5a60 613e 49e0 783e 8d33 1cbe fe22 153e
00000180: e4ae 753e ee6f 953d 5816 e73c d1b7 1bbe
00000190: 0c9b 983e 587e 19be 1ac8 2fbd 7dce 3cbe
000001a0: d3fc d1bd 64cf 8f3b 2711 b4bd 3ddc 363e
000001b0: 60c5 113e a9b0 96bd 5e3f ce3d aff8 aabe
000001c0: 2c90 5b3d 7bcc 283d 0f9d 70bd 58f2 cfbd
000001d0: d8e1 9bbe 801d 4ebc 4168 0e3e b705 8f3e
000001e0: 0377 76bc 8b75 3f3e 07f5 773e e011 0fbe
000001f0: 7b86 4b3e 107a 103e fbd4 ae3e c8ff 803e
00000200: 6c7a 603e c8f1 ad3e a303 a83d d38b 493e
00000210: 188f d53d b9b1 53bd 59c6 4c3d 9957 74be
00000220: f0ef a23c 8b18 803d 8bf3 893d f2cd 633d
00000230: 0d73 8cbe 68f8 7bbe 247b cfbd 51a1 083e
00000240: 60fe 053e e3e6 8abe 6e6b e0be 8dbc a2be
00000250: 8cb1 d8be cbdd 85be e1a5 a6be 5c2a 14be
00000260: 617e a2bc 4634 813d 82d2 29bc bfc8 cdbd
00000270: 43c4 9cbd 27fd 603d 397b 73be 3045 c03d
00000280: 617c ebba a6e7 9d3e 217e 71bd 0b87 363e
00000290: 0bed 763e ec99 863e 0cf4 3c3e 8437 673e
000002a0: 53ec 423e 9054 5e3e 7016 2ebd aa9c 38be
000002b0: 207d 48be ba17 2cbe c0aa 9ebe dded 89be
000002c0: 5f51 82be 73a5 8f3c e3dc 9a3e 117b ba3d
000002d0: 99a8 c4be e0e5 4bbe cdcd 793e 52e3 263d
000002e0: 96e7 32bd 661d c1be daf4 75be 90da 3e3e
000002f0: 6551 9d3e 82cc c2bd 7979 cabe e5d6 87be
00000300: 32aa ed3d 64b3 993e 92c2 bc3c 2ee5 bcbe
00000310: fb10 9cbd 3312 1abe 0c88 883e 2d6d 773e
00000320: 5ce5 d93c 293b c93d 32c1 8abc 89bc b6be
00000330: 823c 13bf caa3 a33d 520c 08be d70b efbe
00000340: 8ae3 f0be ca0b 88bd 711e 27be 0409 ffbe
00000350: e007 bbbe a9b1 80be 0ee1 873e ea31 d4be
00000360: 286f a4be c533 39be 9d7d 2e3e a3c9 983e
00000370: dfa6 1fbf aa70 2bbe cbbb 753e 3ef6 133e
00000380: ec89 613e 98bb 49be ed6c 3dbe 3a84 bbbe
00000390: e05b a9bd a0a4 2a3d fbde f1bd cb45 46be
000003a0: 6e2b a9be 2675 043b 9943 d13d 1a3f 90be
000003b0: cff9 13bc 17ba 77bb e334 a5bd 2060 773e
000003c0: e586 5bbd acb4 733a 22b0 febc c59a 083e
000003d0: 26a2 a03e 9d20 de3c 1dee babd 5a10 d13c
000003e0: a991 823e 8a5d 8f3e

conv1.bias f4 [10]
0.20784211 -0.13364246 0.017736418 -0.28375936 0.045930468 0.16431639 0.02014235 -0.2909287
0.08370675 -0.05614195
00000000: 90d4 543e 92d9 08be f74b 913c e848 91be
00000010: 9621 3c3d 8e42 283e 9201 a53c 9bf4 94be
00000020: 726e ab3d 1af5 65bd

conv2.weight f4 [20, 10, 5, 5]
0.01725789 -0.008260331 -0.0468111 -0.056952696 -0.14961934 0.11654865 0.16061498 0.09235569
-0.007812676 -0.09300287 0.040434152 0.108737096 0.04421603 -0.057397455 -0.058797963 -0.0006066356
0.0017483651 -0.0401255 -0.078076415 -0.1622048 0.14737427 -0.11933529 -0.026661552 -0.07497247
-0.15102348 -0.02268526 -0.024755448 -0.065364875 -0.0049322085 0.021524193 0.061630916 -0.015392012
0.025834167 -0.012360345 0.012546535 0.06214146 0.007076112 0.004039107 0.05642527 0.026082242
0.0008364451 0.058893852 0.027559446 0.028954193 -0.03425019 -0.063341774 -0.04370252 -0.059346054
-0.015099984 -0.027149746 -0.025732843 0.10541999 8.379856e-05 0.012375832 -0.08914002 -0.042037323
-0.17679395 -0.03351655 0.060017303 -0.081309944 -0.1441972 -0.09759513 0.055694424 0.0048545944
-0.051528037 0.025503844 0.02412508 0.04079822 -0.111568734 0.0012397193 0.09741523 -0.03855301
0.0060369642 0.054230735 0.10126522 0.04436047 -0.08766009 -0.060335524 0.12827675 0.09974344
-0.019924404 0.06706193 -0.013855967 -0.015937218 -0.022790095 0.032142196 -0.017799847 -0.022992413
0.06391382 0.035997145 0.048358344 0.0052753496 0.043288104 -0.036664397 -0.014565073 0.019963982
0.00055768935 0.015136696 -0.021084879 -0.1034315 0.03716736 -0.003367437 -0.038443353 0.031108128
0.04203804 0.10691435 0.096227475 0.07866377 0.043965064 -0.03626177 0.09590867 0.012257879
0.08048533 0.06532452 -0.05074789 0.017814396 0.06005391 0.025660776 -0.08562987 -0.1313438
-0.015699908 0.024420831 0.021224367 -0.06365751 -0.26763698 -0.032749694 -0.175883 -0.1896867
-0.2247105 -0.20190322 0.040224977 -0.09219743 -0.19056343 -0.09096321 0.010111834 0.027325924
0.05485196 0.10176898 -0.010444261 -0.007063823 0.14762935 0.10670532 0.0125277545 0.10807607
0.055499744 -0.06460143 0.017689817 -0.05745239 0.029739855 0.052068427 0.120657034 0.003236481
-0.07091547 0.03643501 -0.058155768 0.011030154 -0.01036354 0.061002407 0.016689975 0.05796488
0.06324123 0.072025046 0.078048706 -0.021054585 0.006176948 0.0033549871 0.11116421 0.12885262
0.0522369 0.06983115 -0.027730932 -0.017514283 -0.024773868 -0.056567106 -0.13364649 -0.081308626
-0.16034923 -0.14949328 0.086678535 0.05409189 -0.042391136 -0.074279554 -0.14291231 0.00013700836
0.07907426 -0.08566306 -0.051040515 -0.04487568 0.029360026 0.0031314797 -0.07532359 -0.13579232
-0.0034037402 0.105001554 -0.08821827 -0.07713982 -0.08821127 -0.0031557162 -0.018605793 -0.14124213
0.031205049 -0.111542486 -0.07608576 -0.059961393 0.08082606 -0.059872326 -0.14646843 -0.021756265
0.0005615634 0.10587692 -0.11509929 -0.17745818 -0.09583052 -0.10149315 0.012083184 -0.029294673
0.038854573 -0.048094895 -0.05264765 0.09635056 0.14881429 0.064089544 0.036951195 0.093973726
0.056597777 -0.04750207 -0.15997468 -0.019408459 0.06942732 0.053067166 -0.062499806 -0.08868389
0.022511857 0.09159218 0.049479894 -0.0037844284 -0.012535415 -0.0009020868 0.10197116 0.07754976
0.01781515 0.039375354 0.06191893 0.06364338 -0.062326767 -0.00674112 -0.06472069 0.053965885
0.05037547 -0.11761391 -0.024186812 -0.06195471 0.014682967 -0.06259085 -0.0033313986 0.082436614
00000000: 6b60 8d3c 5756 07bc ffbc 3fbd 3b47 69bd
00000010: d035 19be 0fb1 ee3d 4178 243e fb24 bd3d
00000020: bd00 00bc 4a78 bebd 489e 253d 8eb1 de3d
00000030: de1b 353d 9819 6bbd 22d6 70bd a006 1fba
00000040: 6629 e53a a35a 24bd 87e6 9fbd 0419 26be
00000050: 48e9 163e 0f66 f4bd 5469 dabc 2b8b 99bd
00000060: e6a5 1abe 70d6 b9bc f0cb cabc 05de 85bd
00000070: 5d9e a1bb 8153 b03c b370 7c3d c72e 7cbc
00000080: 2da2 d33c 0b83 4abc fb8f 4d3c 0b88 7e3d
00000090: bbde e73b 7c5a 843b 2f1e 673d 6daa d53c
000000a0: e144 5b3a ae3a 713d 59c4 e13c 5831 ed3c
000000b0: ed49 0cbd 55b9 81bd 6a01 33bd d914 73bd
000000c0: ec65 77bc 2569 debc afcd d2bc 70e6 d73d
000000d0: 02bd af38 00c4 4a3c 0b8f b6bd 542f 2cbd
000000e0: 7909 35be a648 09bd b4d4 753d d485 a6bd
000000f0: 6ea8 13be f5df c7bd d61f 643d 4a13 9f3b
00000100: 100f 53bd 70ed d03c f6a1 c53c 091c 273d
00000110: 267e e4bd 147e a23a a381 c73d c3e9 1dbd
00000120: bad1 c53b 0c21 5e3d 2464 cf3d 53b3 353d
00000130: 2287 b3bd 6222 77bd fb5a 033e 4a46 cc3d
00000140: 8138 a3bc c457 893d 2304 63bc c58e 82bc
00000150: 4bb2 babc 89a7 033d fcd0 91bc 965a bcbc
00000160: 40e5 823d be71 133d 6613 463d d7dc ac3b
00000170: de4e 313d 682d 16bd 58a2 6ebc 818b a33c
00000180: e631 123a e8ff 773c 32ba acbc e5d3 d3bd
00000190: cd3c 183d 38b0 5cbb c776 1dbd 79d6 fe3c
000001a0: 1430 2c3d e9f5 da3d e912 c53d 781a a13d
000001b0: b614 343d 3987 14bd c46b c43d 45d5 483c
000001c0: 7ed5 a43d ddc8 853d 05dd 4fbd 7fef 913c
000001d0: 17fb 753d 8c36 d23c b75e afbd fd7e 06be
000001e0: 189d 80bc 320e c83c b9de ad3c de5e 82bd
000001f0: b707 89be 8b24 06bd ac1a 34be 3b3d 42be
00000200: 821a 66be b8bf 4ebe f2c2 243d 02d2 bcbd
00000210: 0f23 43be eb4a babd 1bac 253c 9eda df3c
00000220: 73ac 603d 416c d03d 681e 2bbc a477 e7bb
00000230: 262c 173e 5288 da3d 3641 4d3c fd56 dd3d
00000240: b353 633d c14d 84bd 3cea 903c 3353 6bbd
00000250: ffa0 f33c b445 553d 091b f73d 241b 543b
00000260: 213c 91bd e13c 153d be34 6ebd d2b7 343c
00000270: d6cb 29bc a9dd 793d 6ab9 883c 956c 6d3d
00000280: 9e84 813d de81 933d 00d8 9f3d aa7a acbc
00000290: ff67 ca3b 58df 5b3b 10aa e33d f1f1 033e
000002a0: 5cf6 553d a203 8f3d fb2b e3bc 1d7a 8fbc
000002b0: 91f2 cabc e9b2 67bd a0da 08be 2385 a6bd
000002c0: 9732 24be c414 19be 8484 b13d 758f 5d3d
000002d0: 54a2 2dbd e11f 98bd 9b57 12be e7a9 0f39
000002e0: b0f1 a13d 1d70 afbd dc0f 51bd 90cf 37bd
000002f0: 7084 f03c 8339 4d3b 4143 9abd 240d 0bbe
00000300: 4911 5fbb 0e0b d73d c8ab b4bd 7bfb 9dbd
00000310: 1ca8 b4bd 22d0 4ebb 2d6b 98bc c7a1 10be
00000320: bba1 ff3c 6370 e4bd dad2 9bbd 149a 75bd
00000330: 2288 a53d af3c 75bd d2fb 15be 323a b2bc
00000340: e235 133a 00d6 d83d 2db9 ebbd 99b7 35be
00000350: cb42 c4bd a4db cfbd 8cf8 453c 62fb efbc
00000360: f925 1f3d 27ff 44bd 10a5 57bd 7153 c53d
00000370: c662 183e 6141 833d 235a 173d 4c75 c03d
00000380: 12d3 673d 8891 42bd 67d0 23be 7dfe 9ebc
00000390: e92f 8e3d f55c 593d ccff 7fbd e69f b5bd
000003a0: c96a b83c ae94 bb3d 6eab 4a3d 2c04 78bb
000003b0: 5761 4dbc 057a 6cba 41d6 d03d 69d2 9e3d
000003c0: 14f1 913c 0d48 213d b49e 7d3d 7657 823d
000003d0: 5a4a 7fbd 9de4 dcbb 488c 84bd 550b 5d3d
000003e0: 8256 4e3d 90df f0bd 6c23 c6bc 39c4 7dbd
000003f0: d490 703c a22f 80bd 9853 5abb 87d4 a83d

conv2.bias f4 [20]
0.041414093 -0.07363195 -0.06577038 -0.011830508 0.05297061 0.021088202 -0.033619735 0.057131507
0.054520186 0.10648329 -0.010637521 0.08876096 -0.09607884 0.057596676 0.05947572 0.019022904
-0.05706777 -0.07441929 -0.0020800452 0.06557951
00000000: d3a1 293d 59cc 96bd 9fb2 86bd bfd4 41bc
00000010: b6f7 583d 2ac1 ac3c d9b4 09bd ba02 6a3d
00000020: 8f50 5f3d e913 da3d ff48 2ebc 4ec8 b53d
00000030: fcc4 c4bd 7eea 6b3d d09c 733d ecd5 9b3c
00000040: e5bf 69bd 2469 98bd 5e51 08bb 8d4e 863d

fc1.weight f4 [50, 320]
0.054998644 0.08776469 0.02575475 0.07994014 0.1518372 0.065171845 -0.07535361 -0.053384475
0.0015252974 -0.184709 -0.1399886 -0.09842902 -0.03944353 -0.023533607 0.044957254 0.0034319668
0.04036627 -0.022334306 0.05157256 0.12408869 0.007785479 -0.041947488 0.020666111 -0.030802466
-0.04721948 -0.054728355 0.021760743 0.09771755 -0.053795688 -0.06020604 -0.08311848 -0.022502689
-0.0038223544 0.034917828 0.00458492 -0.0076546394 -0.06840391 -0.012767662 0.026331605 -0.1010034
-0.11070534 0.030232891 -0.035054225 -0.064594954 -0.050546773 0.03515599 0.011541881 0.1439618
-0.03789905 -0.012719862 -0.118614234 -0.17045595 -0.009132416 -0.057141103 0.04679418 0.08213704
-0.007930329 -0.08734915 -0.0040948247 0.06785779 -0.049849816 -0.036648866 0.08304048 0.100832954
-0.066751726 -0.09811822 -0.11118698 -0.018388245 0.022772785 -0.12399511 0.059599537 0.08577121
0.081120044 -0.00025505727 -0.07789806 -0.08593493 0.08330858 -0.018780848 -0.10914038 -0.059341222
0.040845305 0.041162953 0.006957509 0.02314352 -0.038529307 -0.25217083 -0.113233246 -0.07538417
-0.15365352 0.012253864 0.01681324 0.009145018 0.031923596 0.05468025 -0.014182978 -0.09807812
-0.002460879 0.09352443 0.1538351 0.06686468 -0.059090383 -0.081668176 0.003690968 -0.102011725
-0.06434072 -0.016617613 0.06987499 -0.029559381 0.029307628 0.012761332 0.016551474 -0.043904178
-0.00026832172 0.006395401 0.0007194568 0.05369948 0.048797563 -0.014309497 -0.01937913 0.058651466
-0.002528332 0.050483417 0.012783329 0.040815514 -0.026662203 -0.01924548 -0.025386652 -0.019816093
-0.013794045 -0.09830458 -0.02973381 0.014229013 -0.06480348 -0.07359342 0.0020742682 0.14405845
-0.022805883 0.030717243 -0.043573815 -0.014683798 0.044379562 0.008029622 0.008305177 -0.04880524
0.064862214 -0.035657197 -0.01941894 0.07124731 0.06426176 -0.13386697 0.04702862 0.035539214
-0.06948772 -0.0681976 -0.09747801 -0.09255303 -0.041813932 -0.065686055 -0.14997342 -0.13643578
-0.0803567 -0.045237336 -0.1281333 0.008339224 0.0040309187 0.03277046 -0.093456 0.024562802
0.032745045 0.04620153 -0.10713209 -0.019532342 0.077071875 0.06598107 -0.018199807 -0.027126411
0.07817419 0.05752563 0.018815959 0.03571164 -0.19911197 -0.14267795 -0.19493194 0.01743977
-0.111511566 -0.005762336 0.0122054415 -0.13841319 -0.07471483 0.110566266 -0.036121543 -0.24119477
-0.0071489 -0.13100153 -0.03873061 0.012112057 0.007903215 0.016982535 0.008052486 -0.008145567
0.11856735 -0.021751214 0.011999481 -8.472834e-05 0.0175004 0.034911178 -0.038086947 -0.040787503
-0.044145327 -0.0849653 -0.052453227 -0.03677641 -0.017638868 0.020406349 -0.005619643 -0.0759298
0.11285785 0.00398839 -0.04589781 0.058663838 0.007280307 -0.052754607 0.089745685 0.038768843
0.043250512 -0.18864837 -0.11431148 -0.052065153 -0.037946846 0.046588846 0.122036934 0.0003652819
-0.012614614 0.13570271 0.058028582 -0.015668048 0.00029819488 0.025224024 0.068626955 -0.010529709
-0.06884525 0.03494845 -0.071008995 -0.09889 0.06714134 -0.0233261 0.09869336 -0.030851735
-0.019623015 0.024979768 0.006589707 -0.01316463 0.058223583 0.08563974 0.02494543 -0.089888364
00000000: 4246 613d f9bd b33d a0fb d23c a8b7 a33d
00000010: 367b 1b3e d178 853d fe52 9abd aea9 5abd
00000020: 7dec c73a 5b24 3dbe 2c59 0fbe 2795 c9bd
00000030: 8a8f 21bd 8dc9 c0bc 1925 383d d9ea 603b
00000040: 1a57 253d 6ff6 b6bc c03d 533d 3622 fe3d
00000050: 551d ff3b 21d1 2bbd fa4b a93c 7455 fcbc
00000060: 3769 41bd d72a 60bd 9643 b23c 2420 c83d
00000070: de58 5cbd 9c9a 76bd 063a aabd 8f57 b8bc
00000080: 7780 7abb ff05 0f3d 193d 963b c5d3 fabb
00000090: 5917 8cbd 752f 51bc 61b5 d73c dfda cebd
000000a0: 7bb9 e2bd f8aa f73c 0595 0fbd 5c4a 84bd
000000b0: 220a 4fbd baff 0f3d 281a 3d3c b96a 133e
000000c0: 093c 1bbd f866 50bc 05ec f2bd 018c 2ebe
000000d0: 21a0 15bc ca0c 6abd 41ab 3f3d 7737 a83d
000000e0: 36ee 01bc 1ce4 b2bd e12d 86bb 06f9 8a3d
000000f0: 522f 4cbd 1f1d 16bd 2111 aa3d 8281 ce3d
00000100: 21b5 88bd 35f2 c8bd 00b6 e3bd f2a2 96bc
00000110: fe8d ba3c 26f1 fdbd a51e 743d d1a8 af3d
00000120: 4422 a63d 35b9 85b9 0589 9fbd a7fe afbd
00000130: b09d aa3d 4bda 99bc fe84 dfbd c80f 73bd
00000140: 684d 273d 7c9a 283d d1fb e33b 7b97 bd3c
00000150: e8d0 1dbd 891c 81be d5e6 e7bd 0463 9abd
00000160: 5957 1dbe 6ec4 483c ebbb 893c fcd4 153c
00000170: 51c2 023d 66f8 5f3d b95f 68bc 2edd c8bd
00000180: b346 21bb bd89 bf3d f386 1d3e 59f0 883d
00000190: c208 72bd a541 a7bd 2be4 713b 86eb d0bd
000001a0: 11c5 83bd a921 88bc 9e1a 8f3d 8426 f2bc
000001b0: 8d16 f03c e814 513c f596 873c ded4 33bd
000001c0: 88ad 8cb9 8390 d13b ee99 3c3a fcf3 5b3d
000001d0: f4df 473d 6172 6abc fbc0 9ebc 853c 703d
000001e0: 5fb2 25bb b3c7 4e3d 2b71 513c 2b2e 273d
000001f0: b16a dabc b2a8 9dbc abf7 cfbc 5c55 a2bc
00000200: 6b00 62bc e953 c9bd 5294 f3bc ce20 693c
00000210: b0b7 84bd 26b8 96bd 72f0 073b 0f84 133e
00000220: 67d3 babc baa2 fb3c 757a 32bd 5094 70bc
00000230: 58c7 353d ad8e 033c 7012 083c 01e8 47bd
00000240: 7bd6 843d 480d 12bd 7814 9fbc 1cea 913d
00000250: ab9b 833d 6c14 09be 15a1 403d 9191 113d
00000260: 944f 8ebd 2fab 8bbd 8da2 c7bd 718c bdbd
00000270: 1645 2bbd 6986 86bd a292 19be d2b5 0bbe
00000280: 0e92 a4bd c94a 39bd 6035 03be 3ea1 083c
00000290: cc15 843b 513a 063d dc65 bfbd ee37 c93c
000002a0: ab1f 063d d13d 3d3d 1268 dbbd 4a02 a0bc
000002b0: dcd7 9d3d 1521 873d c317 95bc 3538 debc
000002c0: ca19 a03d ff9f 6b3d ed23 9a3c 5e46 123d
000002d0: 02e4 4bbe 2b1a 12be 3d9c 47be d9dd 8e3c
000002e0: 2d60 e4bd fad1 bcbb 55f9 473c 30bc 0dbe
000002f0: 1704 99bd 9170 e23d 2ff4 13bd c3fb 76be
00000300: 5241 eabb 4425 06be fda3 1ebd a671 463c
00000310: 7c7c 013c f51e 8b3c 93ee 033c fc74 05bc
00000320: 70d3 f23d 9a2f b2bc 7999 443c 2eb0 b1b8
00000330: 005d 8f3c 06ff 0e3d 0f01 1cbd cc10 27bd
00000340: bbd1 34bd 4a02 aebd 32d9 56bd dca2 16bd
00000350: 637f 90bc 372b a73c fb24 b8bb 1581 9bbd
00000360: 0422 e73d 0ab1 823b 58ff 3bbd 7e49 703d
00000370: a48f ee3b 3715 58bd 96cc b73d 14cc 1e3d
00000380: 7327 313d 0a2d 41be 231c eabd 4542 55bd
00000390: 276e 1bbd f2d3 3e3d 80ee f93d 4f83 bf39
000003a0: 87ad 4ebc a7f5 0a3e 61af 6d3d 475a 80bc
000003b0: 0a57 9c39 9da2 ce3c 4a8c 8c3d cd84 2cbc
000003c0: bdfe 8cbd 1b26 0f3d 2a6d 91bd d786 cabd
000003d0: 6681 893d 6116 bfbc bf1f ca3d c7bc fcbc
000003e0: 72c0 a0bc 5fa2 cc3c 78ee d73b 76b0 57bc
000003f0: da7b 6e3d e363 af3d 5c5a cc3c 6417 b8bd

fc1.bias f4 [50]
0.11175724 0.001399567 0.082701236 0.14519538 0.04924735 0.13972402 0.07239761 0.16022056
0.06095277 -0.008300592 0.04232882 0.03603887 0.18854417 0.21851282 0.10277001 0.14716259
0.04514965 0.08102968 0.018673014 0.1658967 0.1170198 0.07541011 0.00537624 0.04932869
0.11398237 -0.009557058 0.026973601 0.04414201 0.12601061 0.08973232 0.10765818 0.1263195
0.11664747 0.106714614 0.06429616 0.058493633 0.16190714 0.10238476 0.0011919565 0.1017827
0.09491724 0.098394245 2.2769018e-05 0.01883871 0.12684098 -0.00010591726 0.1797182 0.05626938
0.03364066 0.06637706
00000000: fbe0 e43d ad71 b73a 445f a93d 19ae 143e
00000010: 97b7 493d d013 0f3e 3345 943d dc10 243e
00000020: 9da9 793d 35ff 07bc fc60 2d3d 7f9d 133d
00000030: b911 413e d3c1 5f3e 1579 d23d cab1 163e
00000040: d7ee 383d e4f2 a53d 26f8 983c d3e0 293e
00000050: 14a8 ef3d 9e70 9a3d 2b2b b03b e10c 4a3d
00000060: 976f e93d 3595 1cbc bef7 dc3c 41ce 343d
00000070: ed08 013e 94c5 b73d e47b dc3d e659 013e
00000080: dee4 ee3d 318d da3d b5ad 833d 0597 6f3d
00000090: fcca 253e 1aaf d13d 6c3b 9c3a 7373 d03d
000000a0: f863 c23d ec82 c93d 1800 bf37 a353 9a3c
000000b0: 9ae2 013e e51f deb8 0c08 383e b97a 663d
000000c0: caca 093d b2f0 873d

fc2.weight f4 [10, 50]
0.2139166 -0.29567847 0.12786366 -0.25649026 -0.16044252 -0.29090428 0.055409156 -0.17152558
-0.10479503 -0.07599657 -0.23702446 0.098175555 -0.15413065 -0.17500106 -0.0053668907 -0.23724453
-0.26433223 -0.1605951 0.1489838 -0.10791508 0.13262777 -0.033447586 -0.14544146 0.1372161
-0.26508048 0.13488959 -0.17754683 -0.12760478 -0.22177042 0.1165123 -0.18710424 0.098793656
0.13166755 -0.06311962 -0.17510033 0.10910849 0.11057949 0.10554945 0.10818248 0.17236207
0.07930215 0.099502526 -0.14671823 0.1680548 -0.13186951 0.096150406 0.15964371 -0.06958324
-0.17492142 0.06892305 0.05574078 -0.124415025 -0.23585021 0.12963872 0.11677776 0.0876716
0.1337906 0.19393148 -0.23640876 -0.09651535 -0.08479675 -0.14325388 0.09600267 0.09009387
-0.23823093 0.16249715 -0.1543974 0.10299919 0.09707152 0.0813484 -0.14761183 -0.20831811
-0.22706673 0.15147707 0.099795274 -0.23879921 -0.16624928 -0.1316977 0.11834792 -0.040148627
0.07456121 0.12837186 0.11231895 0.07447651 0.11928825 -0.11993272 -0.25904077 -0.015348275
-0.28458464 -0.23284106 -0.1528887 -0.18808146 -0.19937047 -0.0754411 0.05893974 -0.24809273
0.16000853 -0.3306446 0.1615796 -0.28267142 -0.010662935 -0.09163759 -0.21417868 0.16018803
-0.14309886 -0.39732635 0.15642549 -0.13994336 -0.20611934 0.1512706 -0.03217291 0.04417537
-0.12823886 -0.14175816 -0.24999908 0.041918874 -0.060459085 -0.24063246 0.14873919 0.120571375
-0.12988965 0.031242196 0.034070693 0.050417766 0.12383159 0.13941143 0.10265123 -0.17544338
0.122867696 0.12230586 0.098056875 0.1282254 0.093257934 0.052907646 -0.26967952 -0.01805625
-0.18054512 0.11800913 0.07390847 -0.105637096 -0.027897788 0.070716634 0.12985395 0.15000148
0.068926856 0.068073265 -0.15664445 -0.03800609 -0.12273264 -0.022448018 -0.101008944 -0.018657044
-0.20083235 -0.073639594 -0.14006655 -0.08650539 -0.14506792 -0.22214925 0.09161278 0.15997593
0.1146599 0.117875464 0.13091299 -0.2435191 -0.19544362 0.1333256 0.05433027 0.12690666
-0.013659095 0.13750148 -0.15577662 0.1597217 -0.1869383 -0.21265472 -0.08660663 -0.13068026
-0.07306539 0.13104707 0.11526533 0.14138512 0.09549828 -0.01825918 -0.17712922 0.02646577
-0.017779298 -0.09432244 0.11690008 0.13314123 0.010633311 -0.027569214 0.031848073 -0.029643804
0.025693279 -0.041951466 0.10911145 -0.073889956 -0.1786185 -0.22252066 -0.12058905 0.082881495
-0.034356996 0.10177493 -0.15928029 0.10613839 0.12896603 0.018393045 0.13366635 0.15112348
0.007855893 0.1285845 0.09804561 -0.27701092 -0.015031029 0.063294284 0.07927876 0.1155306
0.13541389 -0.041280266 0.09766828 -0.21703851 0.014162775 -0.1493507 0.13493346 0.1533002
-0.03576165 0.07356986 0.14304675 0.12482436 -0.028939322 -0.16351196 -0.16891414 -0.07543697
0.05704995 -0.16739348 0.11089768 -0.12518913 0.06231064 -0.18267778 0.11143358 0.07936681
-0.16271354 -0.15453957 -0.19616827 -0.030222926 -0.20080405 0.08546683 -0.1224591 0.15806305
0.17834057 -0.34127557 -0.08525328 0.09901746 0.12747134 -0.0015654955 0.14772432 0.040334746
00000000: f40c 5b3e 2b63 97be b1ee 023e b152 83be
00000010: 0b4b 24be 68f1 94be b6f4 623d 67a4 2fbe
00000020: c79e d6bd 17a4 9bbd 8ab6 72be 4410 c93d
00000030: 6dd4 1dbe 7a33 33be bedc afbb 3bf0 72be
00000040: 8e56 87be 0b73 24be 368f 183e 9502 ddbd
00000050: 93cf 073e 5600 09bd 9bee 14be 6182 0c3e
00000060: a1b8 87be 7f20 0a3e d6ce 35be d4aa 02be
00000070: c917 63be 009e ee3d 4198 3fbe 5454 ca3d
00000080: dcd3 063e dc44 81bd 804d 33be 4674 df3d
00000090: 8077 e23d 4f2a d83d c78e dd3d af7f 303e
000000a0: 2a69 a23d fbc7 cb3d 4e3d 16be 8f16 2c3e
000000b0: cd08 07be 81ea c43d a479 233e a881 8ebd
000000c0: 9a1e 33be 8727 8d3d 7250 643d 4ecd febd
000000d0: b882 71be 03c0 043e 2e29 ef3d 2b8d b33d
000000e0: 6700 093e f995 463e 2315 72be d7a9 c5bd
000000f0: eba9 adbd 25b1 12be 0c9d c43d 2383 b83d
00000100: cff2 73be a765 263e 5a1a 1ebe 3df1 d23d
00000110: 6fcd c63d fd99 a63d 8e27 17be 5851 55be
00000120: 2e84 68be ce1c 1b3e 7761 cc3d c887 74be
00000130: 403d 2abe c3db 06be 6560 f23d e372 24bd
00000140: 8cb3 983d ea73 033e 7a07 e63d 2487 983d
00000150: 664d f43d 499f f5bd fea0 84be 5577 7bbc
00000160: 14b5 91be e36d 6ebe db8e 1cbe 6d98 40be
00000170: c627 4cbe dd80 9abd cc6a 713d 050c 7ebe
00000180: 47d9 233e 404a a9be 1f75 253e 4fba 90be
00000190: 97b3 2ebc 7dac bbbd a851 5bbe 5508 243e
000001a0: 8288 12be 5c6e cbbe 012e 203e 504d 0fbe
000001b0: f310 53be aee6 1a3e bec7 03bd 3cf1 343d
000001c0: 0c51 03be 0d29 11be c2ff 7fbe 20b3 2b3d
000001d0: f2a3 77bd 5b68 76be 164f 183e 20ee f63d
000001e0: cb01 05be a2ef ff3c b68d 0b3d dc82 4e3d
000001f0: 6b9b fd3d dfc1 0e3e cf3a d23d 6ea7 33be
00000200: 0fa2 fb3d 7f7b fa3d 0bd2 c83d 854d 033e
00000210: 04fe be3d b0b5 583d 6f13 8abe b3ea 93bc
00000220: d2e0 38be c5ae f13d 535d 973d 4358 d8bd
00000230: e789 e4bc e2d3 903d 6ff8 043e fd99 193e
00000240: 8629 8d3d ff69 8b3d 6767 20be 46ac 1bbd
00000250: 405b fbbd e8e4 b7bc c7dd cebd a8d6 98bc
00000260: ffa6 4dbe 5bd0 96bd 9b6d 0fbe bd29 b1bd
00000270: af8c 14be 187b 63be 7b9f bb3d bbd0 233e
00000280: cfd2 ea3d b168 f13d 0e0e 063e 125d 79be
00000290: 5f22 48be 8286 083e 6b89 5e3d d2f3 013e
000002a0: 66ca 5fbc 30cd 0c3e e883 1fbe 168e 233e
000002b0: c16c 3fbe 29c2 59be d15e b1bd 0cd1 05be
000002c0: 4fa3 95bd 3431 063e 3b10 ec3d 43c7 103e
000002d0: 9a94 c33d 4794 95bc 5d61 35be bece d83c
000002e0: e4a5 91bc 202c c1bd 4f69 ef3d 2d56 083e
000002f0: 5737 2e3c d5d8 e1bc 2073 023d 90d7 f2bc
00000300: b67a d23c 4dd5 2bbd d375 df3d 9e53 97bd
00000310: c5e7 36be 75dc 63be 64f7 f6bd c6bd a93d
00000320: ecb9 0cbd 606f d03d 5f1a 23be 165f d93d
00000330: ac0f 043e 03ad 963c d5df 083e 1dc0 1a3e
00000340: 01b6 003c a8ab 033e 23cc c83d 60d4 8dbe
00000350: b444 76bc 6fa0 813d e75c a23d 4f9b ec3d
00000360: f0a9 0a3e 7f15 29bd 4f06 c83d 583f 5ebe
00000370: fc0a 683c 64ef 18be ff2b 0a3e bafa 1c3e
00000380: cf7a 12bd cbab 963d d97a 123e eaa3 ff3d
00000390: 2812 edbc ae6f 27be d4f7 2cbe b37e 9abd
000003a0: 35ad 693d 3269 2bbe 531e e33d 9431 00be
000003b0: 7139 7f3d e20f 3bbe 4a37 e43d 118b a23d
000003c0: 619e 26be 9f3f 1ebe 56e0 48be 1296 f7bc
000003d0: 949f 4dbe 3c09 af3d d6cb fabd 48db 213e
000003e0: e99e 363e acbb aebe 4699 aebd abc9 ca3d
000003f0: d987 023e 5031 cdba 0b45 173e 0c36 253d

fc2.bias f4 [10]
-0.17390862 0.34918842 -0.006087633 0.05423531 -0.3113756 0.13426416 0.0011544196 -0.023250978
0.17509344 -0.35027972
00000000: 1a15 32be d3c8 b23e c47a c7bb d825 5e3d
00000010: 9f6c 9fbe 8b7c 093e e54f 973a d678 bebc
00000020: b24b 333e dd57 b3be

exp_avg f4 [10, 1, 5, 5]
0.020543806 0.013485986 0.005070814 0.0023014382 -0.006172596 0.01726632 0.0089022145 0.004165904
0.00129278 -0.006409837 0.009013547 0.004092665 -0.00075708 -0.0041872556 -0.005876868 0.0061486857
0.0036972426 -0.0018356699 -0.0038445962 -0.0078902915 0.0048615965 0.002822706 -0.0042598676 -0.0097631505
-0.014274964 -0.0030170728 -0.0026661798 -0.0041600987 -0.0021345234 -0.0011053446 -0.0037598817 -0.0030276082
-0.0034688062 -0.0017317117 0.00010616804 -0.003205251 -0.0017326672 -0.0026403384 -0.00027680642 0.0015234897
-0.0056755207 -0.005376083 -0.0036153523 0.0008741569 0.0040621376 -0.0067664734 -0.007438489 -0.0044031474
-3.3956603e-05 0.003976685 -0.0024161886 -0.0019518868 -0.00026271565 -0.001154519 -0.004600025 -0.0049040425
-0.003546075 -0.001500535 0.0002446738 -0.0027003381 -0.0038893314 -0.0017034434 0.0017070365 -1.4058315e-05
0.0005041915 0.0008264121 0.0033676294 0.0005263618 -0.0036614535 -0.002315921 0.0042265668 0.0027302767
-0.0010579912 -0.004791407 -0.0020629105 -0.0004778393 -0.0025015469 -0.0021670538 0.001992791 0.003618881
-0.0059738643 -0.008707787 -0.006874406 -0.0027276578 0.002011232 -0.006805906 -0.009662845 -0.0073479847
-0.0021369536 0.00095856865 -0.005213358 -0.0051100557 -0.0022214171 0.0008597331 0.00179497 -0.0023423166
4.6761234e-06 0.0042049526 0.0055379956 0.0023775422 0.004570519 0.0034372748 -0.001133864 -0.0034052213
-0.0034001258 0.002594454 0.002802192 -0.00060397614 -0.00291503 -0.0015239234 0.002814207 0.0011819834
-0.0021449123 -0.003472224 -0.0019202078 0.0066851974 0.0017454831 -0.0026687148 -0.0014834552 0.002720335
0.0051071937 0.0012602425 4.0764447e-05 0.0031705443 0.005141439 -0.015483214 -0.0122579085 -0.0073811593
-0.0069019217 -0.010647624 -0.010153917 -0.005047792 -0.0016563693 -0.0055611203 -0.011791458 -0.006089469
-0.0014700285 -0.00079528865 -0.0040757954 -0.007679649 -0.003817019 0.00050019723 0.0017792394 -0.0009787931
-0.0034348445 -0.003471049 0.000858765 0.00078135444 -0.0032436792 -0.0057342295 0.00022713917 0.0015106854
0.0003835867 -0.0027192547 -0.0040859445 0.00028742687 -0.00090113014 -0.00038351648 -0.0020009212 -0.0030024187
0.0028740452 -0.00017258563 -0.0019489237 -0.003473765 -0.0032772438 0.0034701515 0.0015853393 -0.00087138923
-0.0017619244 -4.390982e-05 0.0049520433 0.004617871 0.0022335676 0.0007382603 0.00049574743 -0.0001433728
-0.0018768104 -0.00040586584 0.0077004996 0.014172713 -0.0016186998 -0.0038623677 -0.00013320733 0.0077697914
0.012090221 -0.0011611022 -0.0005104755 0.0059613446 0.010522588 0.009070478 -0.00021618222 0.0028976335
0.01166166 0.0140470555 0.008687641 0.0011507643 0.0058037518 0.014225858 0.014704787 0.00738602
0.0041378085 0.0013176996 0.0016961024 0.0009722768 -0.0050995834 0.0017452491 0.0026424325 0.0026242337
0.001884009 -0.0036222283 0.0015927245 0.00069693086 0.0015302573 0.0016023018 -0.0025643813 0.0016324576
0.0009241097 0.0005690709 0.0009664385 -0.0033407195 0.0037766157 0.0036041595 0.005052708 0.0029199803
-0.0025096412 0.00083773484 0.0006474161 -0.0003014288 -0.00108518 -0.0004951511 -0.0028276618 -0.0026367768
-0.0032281787 -0.0028330213 0.0016064028 -0.0039851293 -0.005582904 -0.007233674 -0.0019060498 0.003758388
0.0006492954 -0.0025695313 -0.0032367462 0.0027803092 0.004779678 0.0039446047 0.0024575917 0.0033385216
0.006446985 0.0044444045
00000000: 7c4b a83c 53f4 5c3c 1229 a63b bad3 163b
00000010: 7d43 cabb 1972 8d3c 98da 113c 2382 883b
00000020: 8072 a93a 9c09 d2bb 8ead 133c c31b 863b
00000030: c776 46ba 3f35 89bb be92 c0bb ea7a c93b
00000040: 704d 723b dc9a f0ba 9ff5 7bbb 4846 01bc
00000050: 074e 9f3b 26fd 383b 5c96 8bbb 9ff5 1fbc
00000060: 8ae1 69bc 15ba 45bb 13bb 2ebb 7051 88bb
00000070: 5ce3 0bbb 36e1 90ba 5968 76bb d66a 46bb
00000080: e954 63bb 9afa e2ba 88a6 de38 300f 52bb
00000090: aa1a e3ba 8709 2dbb 5420 91b9 d5af c73a
000000a0: b8f9 b9bb da29 b0bb 8cef 6cbb ad27 653a
000000b0: ae1b 853b 4bb9 ddbb 91be f3bb 4748 90bb
000000c0: a06c 0eb8 da4e 823b eb58 1ebb 74d6 ffba
000000d0: 19bd 89b9 3b53 97ba cebb 96bb 17b2 a0bb
000000e0: 4465 68bb 9aad c4ba 9047 8039 28f8 30bb
000000f0: 27e4 7ebb 1346 dfba a4be df3a 01dc 6bb7
00000100: b82b 043a 94a3 583a 72b3 5c3b 8bfb 093a
00000110: fff4 6fbb b5c6 17bb 037f 8a3b 71ee 323b
00000120: 4bac 8aba 3c01 9dbb e531 07bb 8186 fab9
00000130: fef0 23bb 2105 0ebb 7c99 023b c02a 6d3b
00000140: 68c0 c3bb 1bab 0ebc b242 e1bb 81c2 32bb
00000150: e0ce 033b 1404 dfbb e950 1ebc 5dc7 f0bb
00000160: 220c 0cbb 7448 7b3a d1d4 aabb 4172 a7bb
00000170: 3295 11bb b65f 613a 3345 eb3a 8d81 19bb
00000180: 98e7 9c36 b3c9 893b 1378 b53b 8ad0 1b3b
00000190: 4bc4 953b e743 613b 2a9e 94ba 222a 5fbb
000001a0: a5d4 5ebb b707 2a3b fba4 373b 2754 1eba
000001b0: 170a 3fbb 62be c7ba 8f6e 383b c8ec 9a3a
000001c0: a891 0cbb 418e 63bb 7baf fbba 800f db3b
000001d0: b2c8 e43a 9be5 2ebb 7f70 c2ba a647 323b
000001e0: 3f5a a73b b92e a53a 7efa 2a38 e8c8 4f3b
000001f0: 8479 a83b 4ead 7dbc 65d5 48bc a7dd f1bb
00000200: 8429 e2bb 5f73 2ebc 9d5c 26bc f367 a5bb
00000210: 881a d9ba 0f3a b6bb f630 41bc 2b8a c7bb
00000220: f9ad c0ba eb7a 50ba 408e 85bb 91a5 fbbb
00000230: f426 7abb ab1f 033a 5e35 e93a d94a 80ba
00000240: 211b 61bb 8a7a 63bb be1e 613a cfd3 4c3a
00000250: e893 54bb 34e6 bbbb 352c 6e39 3102 c63a
00000260: 231c c939 8635 32bb 63e3 85bb c8b1 9639
00000270: d239 6cba b612 c9b9 e321 03bb 3ac4 44bb
00000280: 7a5a 3c3b 1af8 34b9 0773 ffba 1ba8 63bb
00000290: 07c7 56bb 7b6b 633b 29cb cf3a f16d 64ba
000002a0: 5ff0 e6ba cf2b 38b8 c044 a23b 8251 973b
000002b0: 0c61 123b cf87 413a 0cf5 013a 5856 16b9
000002c0: 4fff f5ba 64ca d4b9 7954 fc3b ab34 683c
000002d0: 8d2a d4ba c71f 7dbb 92ad 0bb9 bc99 fe3b
000002e0: 1016 463c 2030 98ba 6ed1 05ba 6257 c33b
000002f0: ef66 2c3c 589c 143c f9ae 62b9 39e6 3d3b
00000300: 8c10 3f3c 9f25 663c 9b56 0e3c 3ed5 963a
00000310: 662d be3b 9313 693c 59ec 703c 6d06 f23b
00000320: 7496 873b a9b6 ac3a c14f de3a 64e0 7e3a
00000330: 681a a7bb d8c0 e43a a92c 2d3b 56fb 2b3b
00000340: daf0 f63a e862 6dbb f7c2 d03a 3db2 363a
00000350: ea92 c83a 5404 d23a 2e0f 28bb 30f8 d53a
00000360: f43f 723a b42d 153a 9758 7d3a f9ef 5abb
00000370: 1981 773b c333 6c3b 3091 a53b 245d 3f3b
00000380: cb78 24bb 6f9b 5b3a 5cb7 293a 1709 9eb9
00000390: 993c 8eba 07cd 01ba 4b50 39bb c6cd 2cbb
000003a0: da8f 53bb 36aa 39bb ef8d d23a b095 82bb
000003b0: cbf0 b6bb 7508 edbb 6bd4 f9ba 4a4f 763b
000003c0: 7a35 2a3a 9565 28bb 971f 54bb d935 363b
000003d0: d89e 9c3b be41 813b 8c0f 213b 19cb 5a3b
000003e0: 3b41 d33b 5ea2 913b

exp_avg_sq f4 [10, 1, 5, 5]
0.000851403 0.0006074364 0.00033103875 0.00036442233 0.00057791686 0.0009313622 0.000542456 0.00030049466
0.00039484198 0.0007986181 0.0010707803 0.000807232 0.00058954355 0.00082246703 0.0012381626 0.0012205247
0.0012308615 0.0013548476 0.0016431949 0.0016504639 0.0013744647 0.0015406836 0.0018104999 0.0020308036
0.0016692766 0.00027089677 0.00030107965 0.00030602014 0.00024251992 0.00016200537 0.00030647064 0.0002894296
0.00026229114 0.00022100368 0.00018843859 0.00022021597 0.00019200187 0.00019815029 0.00019935505 0.00020590275
0.00016117352 0.00017522296 0.0001955573 0.0002343222 0.00023353995 0.00017555156 0.00021096552 0.00023403819
0.00025834134 0.00025091865 0.0004946654 0.00060331565 0.00058373157 0.00041678685 0.00028136306 0.00056311814
0.000619421 0.00047224373 0.00024012454 0.00016424607 0.00060702267 0.0005383226 0.00022992188 0.00010452739
0.00010428332 0.0005631945 0.00037992702 0.00014342206 7.714999e-05 0.00011865752 0.0005205687 0.00034628372
0.0001523326 0.000117083015 0.00020873937 0.0003589442 0.00039224114 0.00041502592 0.0005142112 0.00056409964
0.0002632648 0.0002928893 0.00037571386 0.0004994784 0.00048235696 0.00018373822 0.00023942452 0.00037205912
0.00044545598 0.00038891478 0.00023621054 0.0003206026 0.0003848738 0.00037657304 0.00028937135 0.00032591255
0.00038064708 0.0003882907 0.00034763687 0.00026974265 0.00038579915 0.00020570125 0.00017452153 0.00015599077
0.00016313785 0.00024614917 0.00016408441 0.00019814739 0.00020199789 0.00018553248 0.00017001874 0.000119735625
0.00017082812 0.00020444393 0.00020508342 0.00016259392 0.00014066129 0.00018892724 0.00021904074 0.00023412477
0.00022974101 0.00025424038 0.00025904368 0.00022569754 0.00023186953 0.0011093679 0.001060345 0.0009940553
0.0010246232 0.0011061337 0.0010304777 0.00085357326 0.0007424397 0.00081082113 0.0009057953 0.00067043415
0.00045397953 0.00046665437 0.0006283412 0.0007268265 0.0003375281 0.00022829266 0.00028325434 0.0004440316
0.0005884388 0.00021082423 0.00018474631 0.00025821445 0.00034604876 0.00046237966 9.366371e-05 0.00011820571
0.00017058518 0.00018916812 0.0002054292 0.00014797159 0.00018517235 0.00020918522 0.00019298652 0.00021666948
0.00027240335 0.00030187523 0.00025394282 0.00024251884 0.00024223501 0.0003496821 0.00032122448 0.0002604186
0.00023617335 0.00021372882 0.00030263714 0.00024341664 0.00018983142 0.00016843397 0.00014222816 0.00011401681
0.0001534876 0.00038275984 0.0007055739 0.00072652404 8.2696315e-05 0.000114950446 0.00040370354 0.00075008685
0.0007057552 7.042052e-05 0.00011363692 0.00046090284 0.00084676524 0.0007141084 7.106608e-05 0.00016289362
0.00057171664 0.0009036817 0.00074382103 0.00012610435 0.0003420067 0.0006876371 0.000895935 0.00076851336
0.000352383 0.0001950909 0.00010069873 8.1355e-05 0.0001519351 0.00017824769 7.385318e-05 5.2165364e-05
6.65203e-05 0.00017516351 7.503232e-05 5.4321812e-05 5.9084938e-05 0.00010463622 0.00029740183 5.921606e-05
6.848225e-05 0.00012028834 0.0002902702 0.0004935325 9.513639e-05 0.0001388171 0.00031655823 0.0005036948
0.00058079144 8.655457e-05 5.4145206e-05 7.091914e-05 0.00018046303 0.00034777084 6.628588e-05 4.5768724e-05
8.195682e-05 0.00022635635 0.00043173583 0.000100311954 0.00010953936 0.00017621636 0.00034834532 0.0005576351
0.00017097523 0.00022293725 0.00033651426 0.00056866434 0.00062872784 0.00022835312 0.0002984097 0.00047094107
0.0006529697 0.0005910159
00000000: b030 5f3a 5e3c 1f3a 458f ad39 f00f bf39
00000010: 587f 173a a926 743a 9b33 0e3a b68b 9d39
00000020: cb02 cf39 5a5a 513a 6d59 8c3a 6c9c 533a
00000030: 998b 1a3a d49a 573a d849 a23a 03fa 9f3a
00000040: dc54 a13a 2495 b13a 7960 d73a 6154 d83a
00000050: 6227 b43a c3f0 c93a 4c4e ed3a 3b17 053b
00000060: a1cb da3a 2607 8e39 3ada 9d39 5471 a039
00000070: f24c 7e39 fcdf 2939 cbad a039 95be 9739
00000080: 1f84 8939 39bd 6739 9997 4539 c6e9 6639
00000090: 1c54 4939 90c6 4f39 f709 5139 99e7 5739
000000a0: b000 2939 0ebc 3739 830e 4d39 63b4 7539
000000b0: 67e2 7439 4314 3839 a036 5d39 2668 7539
000000c0: fd71 8739 bb8d 8339 6fac 013a d427 1e3a
000000d0: 9005 193a 2f84 da39 e983 9339 389e 133a
000000e0: a460 223a 7b97 f739 f1c9 7b39 7839 2c39
000000f0: 9a20 1f3a 381e 0d3a 2f17 7139 b735 db38
00000100: aeb2 da38 58a3 133a f130 c739 9163 1639
00000110: 96cb a138 c5d7 f838 c676 083a 6a8d b539
00000120: 79bb 1f39 778a f538 0ce1 5a39 ad30 bc39
00000130: b7a5 cd39 d697 d939 21cc 063a 16e0 133a
00000140: ce06 8a39 f08e 9939 76fb c439 6eef 023a
00000150: dbe4 fc39 daa9 4039 080e 7b39 ee10 c339
00000160: 178c e939 42e7 cb39 49af 7739 8d16 a839
00000170: e3c8 c939 c76e c539 c4b6 9739 3edf aa39
00000180: 9691 c739 7f93 cb39 0843 b639 3f6c 8d39
00000190: 1645 ca39 82b1 5739 c4ff 3639 7491 2339
000001a0: fc0f 2b39 950d 8139 130e 2c39 c9c5 4f39
000001b0: 65cf 5339 7f8b 4239 0f47 3239 931a fb38
000001c0: 5320 3339 0060 5639 a90b 5739 f97d 2a39
000001d0: 7a7e 1339 c51a 4639 4dae 6539 647f 7539
000001e0: a2e6 7039 914b 8539 41d0 8739 39a9 6c39
000001f0: 0122 7339 3668 913a 46fb 8a3a f64a 823a
00000200: a64c 863a b0fb 903a 1811 873a 55c2 5f3a
00000210: 49a0 423a 498d 543a e572 6d3a 13c0 2f3a
00000220: 1a04 ee39 4aa9 f439 44b7 243a 8088 3e3a
00000230: 41f6 b039 d861 6f39 c181 9439 eacc e839
00000240: 7641 1a3a b310 5d39 76b8 4139 f560 8739
00000250: e16d b539 8c6b f239 526d c438 35e5 f738
00000260: 1cdf 3239 6e5b 4639 7b68 5739 d228 1b39
00000270: d32a 4239 bb58 5b39 6d5c 4a39 c531 6339
00000280: 5cd1 8e39 0245 9e39 a123 8539 a84c 7e39
00000290: 7700 7e39 8955 b739 056a a839 cb88 8839
000002a0: 4da5 7739 651c 6039 45ab 9e39 a83d 7f39
000002b0: 7c0d 4739 a69d 3039 1523 1539 4f1c ef38
000002c0: 84f1 2039 28ad c839 43f6 383a 3474 3e3a
000002d0: 3f6d ad38 8d11 f138 2ca8 d339 7aa1 443a
000002e0: 6e02 393a bbae 9338 5b50 ee38 55a5 f139
000002f0: 74f9 5d3a 0133 3b3a 5009 9538 6cce 2a39
00000300: 41df 153a 0de5 6c3a fcfc 423a e13a 0439
00000310: 5d4f b339 8b42 343a 2edd 6a3a 0f76 493a
00000320: 0cc0 b839 5191 4c39 382e d338 229d aa38
00000330: c550 1f39 00e8 3a39 a0e1 9a38 22cc 5a38
00000340: d080 8b38 19ac 3739 ac5a 9d38 9ad7 6338
00000350: f8d1 7738 2570 db38 99ec 9b39 c35e 7838
00000360: 219e 8f38 5043 fc38 682f 9839 6860 013a
00000370: f683 c738 6e8f 1139 baf7 a539 630a 043a
00000380: 4140 183a a284 b538 f919 6338 6cba 9438
00000390: ad3a 3d39 0355 b639 f602 8b38 cbf7 3f38
000003a0: 3ce0 ab38 125a 6d39 9a5a e239 925e d238
000003b0: 7fb8 e538 b8c6 3839 1ea2 b639 422e 123a
000003c0: d047 3339 43c4 6939 2e6e b039 6b12 153a
000003d0: 36d1 243a 1372 6f39 df73 9c39 a4e8 f639
000003e0: 0e2c 2b3a 68ee 1a3a

max_exp_avg_sq f4 [10, 1, 5, 5]
0.000851403 0.0006074364 0.00033789067 0.00036926797 0.0005803705 0.0009316431 0.000542456 0.0003016994
0.00039649775 0.0008026714 0.001071852 0.0008080036 0.00059010164 0.0008238373 0.0012440786 0.0012217297
0.0012315493 0.0013549752 0.0016446031 0.0016614187 0.0013756251 0.0015418276 0.0018136917 0.0020417331
0.0016806948 0.0002734456 0.00030427353 0.0003073406 0.00024335585 0.00016262296 0.00030857115 0.00029287106
0.00026456386 0.00022204002 0.00018952003 0.00022369472 0.00019485931 0.0002002245 0.00020051368 0.00020621908
0.00016333818 0.00017584498 0.00019664808 0.00023473383 0.00023446919 0.0001763425 0.00021140053 0.00023449368
0.00025859973 0.00025302623 0.0004971876 0.0006064148 0.00058646256 0.00041922394 0.00028626088 0.00056568853
0.00062105805 0.00047270715 0.00024384017 0.00016686914 0.0006077895 0.0005405172 0.00023032713 0.000106934276
0.0001049403 0.0005637579 0.0003805229 0.0001450152 7.876346e-05 0.00012007085 0.0005205687 0.00034628372
0.00015304919 0.00012090759 0.00021291798 0.0003589442 0.00039224114 0.0004152761 0.0005164104 0.0005670324
0.00026359706 0.00029299877 0.00037661404 0.00050299143 0.00048497604 0.00018389766 0.00023942927 0.00037330753
0.00044838592 0.00039019287 0.0002366061 0.00032158062 0.00038561324 0.00037934163 0.00029068653 0.00032881327
0.00038280815 0.0003905832 0.000351384 0.0002722251 0.00038732315 0.00020592676 0.00017563964 0.0001567816
0.00016401586 0.0002472172 0.0001644856 0.00019873078 0.00020260987 0.00018611806 0.00017107779 0.00011994478
0.00017094273 0.00020506691 0.00020585829 0.00016259392 0.00014066129 0.00018907704 0.00021997879 0.00023739727
0.00022974101 0.00025424038 0.00025925366 0.00022671172 0.00023430785 0.0011093679 0.001060711 0.0010026483
0.0010425118 0.001125701 0.0010304777 0.0008557916 0.0007554192 0.0008257758 0.00091708265 0.00067043415
0.0004612916 0.00047451034 0.00064218737 0.00073775207 0.00034516945 0.00023761735 0.00028951076 0.0004513004
0.0005916296 0.00022101824 0.00019370993 0.0002659398 0.0003509171 0.00046495814 9.415263e-05 0.00011820571
0.00017058518 0.00018930672 0.00020686025 0.00014883319 0.00018517235 0.00020918522 0.00019312068 0.00021818459
0.00027437008 0.00030187523 0.00025394282 0.00024327083 0.00024370142 0.00035140003 0.00032122448 0.0002604186
0.00023723872 0.00021512332 0.00030343287 0.00024341664 0.00018983142 0.00016863509 0.00014679234 0.00011737601
0.00015650464 0.0003869737 0.00071119325 0.0007290717 8.4684456e-05 0.00011621688 0.00040846402 0.0007583814
0.00071050454 7.189374e-05 0.00011638 0.00047240092 0.00085953186 0.00072036433 7.350639e-05 0.00016867554
0.0005811687 0.00092169625 0.0007518808 0.00013118943 0.0003476916 0.00069158076 0.00091268646 0.0007715862
0.000352383 0.0001950909 0.000101229045 8.1355e-05 0.00015232063 0.00017824769 7.385318e-05 5.27538e-05
6.653027e-05 0.00017655427 7.503232e-05 5.4797576e-05 6.0477538e-05 0.00010544415 0.00029884808 5.9346818e-05
6.871564e-05 0.000121001714 0.0002917525 0.00049631303 9.519261e-05 0.00013898464 0.00032097992 0.00051909464
0.0005951435 8.813201e-05 5.597236e-05 7.167137e-05 0.00018209493 0.00034797192 6.64054e-05 4.6293364e-05
8.2190425e-05 0.00022635635 0.0004325121 0.00010057026 0.000109803645 0.00017621636 0.00034899535 0.00055901107
0.00017152527 0.00022352637 0.0003375237 0.00057076337 0.0006292764 0.00022835312 0.0002984097 0.00047094107
0.0006536504 0.0005917152
00000000: b030 5f3a 5e3c 1f3a eb26 b139 4f9a c139
00000010: 0124 183a 8339 743a 9b33 0e3a 682d 9e39
00000020: 07e1 cf39 5e6a 523a 637d 8c3a 34d0 533a
00000030: 0db1 1a3a c9f6 573a 5a10 a33a 7222 a03a
00000040: f06b a13a 6c99 b13a b98f d73a f6c3 d93a
00000050: 524e b43a 2617 ca3a 65b9 ed3a 99ce 053b
00000060: c24a dc3a 3f5d 8f39 e786 9f39 8f22 a139
00000070: 572d 7f39 c585 2a39 b8c7 a139 7d8c 9939
00000080: 29b5 8a39 6ad3 6839 e5b9 4639 988f 6a39
00000090: 2653 4c39 5bf3 5139 fb40 5239 833c 5839
000000a0: c245 2b39 0763 3839 5133 4e39 e222 7639
000000b0: d8db 7539 94e8 3839 66ab 5d39 6be2 7539
000000c0: ab94 8739 9ba8 8439 b255 023a cff7 1e3a
000000d0: d6bc 193a 49cb db39 4915 9639 b74a 143a
000000e0: 80ce 223a aed5 f739 59af 7f39 98f9 2e39
000000f0: 1054 1f3a 7fb1 0d3a f883 7139 e741 e038
00000100: 6513 dc38 27c9 133a eb80 c739 390f 1839
00000110: d02d a538 8cce fb38 c676 083a 6a8d b539
00000120: d47b 2039 c58f fd38 bc42 5f39 ad30 bc39
00000130: b7a5 cd39 6ab9 d939 b75f 073a e6a4 143a
00000140: 6633 8a39 a19d 9939 4874 c539 2fdb 033a
00000150: 6244 fe39 a7d4 4039 4e0f 7b39 7db8 c339
00000160: 5715 eb39 cd92 cc39 7719 7839 d299 a839
00000170: 222c ca39 5fe2 c639 4967 9839 9264 ac39
00000180: a4b3 c839 31c7 cc39 f639 b839 6fb9 8e39
00000190: a211 cb39 0bee 5739 e82b 3839 be65 2439
000001a0: acfb 2b39 ee9c 8139 c479 2c39 6362 5039
000001b0: ac73 5439 b028 4339 5863 3339 dd8a fb38
000001c0: 173f 3339 3b07 5739 aadb 5739 f97d 2a39
000001d0: 7a7e 1339 fb42 4639 1baa 6639 d8ed 7839
000001e0: a2e6 7039 914b 8539 70ec 8739 77b9 6d39
000001f0: 89b0 7539 3668 913a 8e07 8b3a 4b6b 833a
00000200: e4a4 883a 428c 933a 1811 873a 3457 603a
00000210: 5307 463a e078 583a 6068 703a 13c0 2f3a
00000220: 83d9 f139 b3c7 f839 7758 283a b465 413a
00000230: dcf7 b439 ec28 7939 7ac9 9739 849c ec39
00000240: 9717 1b3a 22c1 6739 9d1e 4b39 d66d 8b39
00000250: 4cfb b739 a0c5 f339 cf73 c538 35e5 f738
00000260: 1cdf 3239 a380 4639 a0e8 5839 1b10 1c39
00000270: d32a 4239 bb58 5b39 7080 4a39 7bc8 6439
00000280: 54d9 8f39 0245 9e39 a123 8539 8416 7f39
00000290: 1a8a 7f39 1d3c b839 056a a839 cb88 8839
000002a0: 49c3 7839 ba92 6139 1216 9f39 a83d 7f39
000002b0: 7c0d 4739 a3d3 3039 45ec 1939 c427 f638
000002c0: 651b 2439 bbe2 ca39 5f6f 3a3a 2c1f 3f3a
000002d0: 9f98 b138 76b9 f338 1d27 d639 1dce 463a
000002e0: 2741 3a3a a8c5 9638 0911 f438 94ac f739
000002f0: 3552 613a d5d6 3c3a 7127 9a38 7fde 3039
00000300: 9259 183a fd9d 713a de19 453a e58f 0939
00000310: 604a b639 334b 353a 5a41 6f3a 4644 4a3a
00000320: 0cc0 b839 5191 4c39 ee4a d438 229d aa38
00000330: 42b8 1f39 00e8 3a39 a0e1 9a38 f643 5d38
00000340: 2b86 8b38 6d21 3939 ac5a 9d38 73d6 6538
00000350: 43a9 7d38 e621 dd38 b6ae 9c39 29eb 7838
00000360: 6e1b 9038 4dc2 fd38 5cf6 9839 011b 023a
00000370: 25a2 c738 68bc 1139 3249 a839 da13 083a
00000380: 6703 1c3a 83d3 b838 ddc3 6a38 464e 9638
00000390: bcf0 3e39 0070 b639 2143 8b38 1f2b 4238
000003a0: a65d ac38 125a 6d39 cbc2 e239 3fe9 d238
000003b0: 6246 e638 b8c6 3839 5df9 b639 998a 123a
000003c0: 77db 3339 6762 6a39 aaf5 b039 489f 153a
000003d0: 06f6 243a 1372 6f39 df73 9c39 a4e8 f639
000003e0: bc59 2b3a 561d 1b3a

exp_avg f4 [10]
0.001091148 4.5352543e-05 0.0025876823 0.0011853472 0.0012157529 -0.002353513 0.001706735 0.005858724
-0.002858922 0.003270717
00000000: da04 8f3a ec38 3e38 1b96 293b a75d 9b3a
00000010: e659 9f3a 653d 1abb 86b4 df3a 8afa bf3b
00000020: c05c 3bbb 8759 563b

exp_avg_sq f4 [10]
0.00068348035 7.2933835e-05 0.00015686822 0.00011611725 9.3269875e-05 0.00050187926 7.552397e-05 0.00030188504
0.00021680881 0.00011021032
00000000: 972b 333a 0ef4 9838 fe7c 2439 f983 f338
00000010: e299 c338 8c90 033a 9f62 9e38 5346 9e39
00000020: 2c57 6339 b720 e738

max_exp_avg_sq f4 [10]
0.00070883695 7.3345676e-05 0.00015890364 0.000116693125 9.3514056e-05 0.0005165022 7.565314e-05 0.00030611883
0.00021680881 0.00011021032
00000000: 3ed1 393a 29d1 9938 5f9f 2639 25b9 f438
00000010: fa1c c438 e065 073a f8a7 9e38 937e a039
00000020: 2c57 6339 b720 e738
