src/saved/models/Mnist_LeNet/1014_083735/checkpoint-epoch10.pth (torch_old, 355460 bytes, 32 tensors)

conv1.weight f4 [10, 1, 5, 5]
00000000: c2c5 4cbe 4421 08be 852f 04be a321 de3d
00000010: c675 57bd ab88 353e 0146 cbbe 5210 2abf
00000020: ad2b fabe 672b 0fbe 6add f23d 3034 593e
00000030: 1755 42be b6f3 51be 0221 0ebe 19ce d33d
00000040: 3d6d 0b3e 3a04 cb3e e437 103e 287b 2d3e
00000050: d205 103e e1d5 3c3e f5c0 853e d7db d33e
00000060: 5eab 933d 581d 853d 76cb 3a3c 8ce3 5d3e
00000070: c752 e43d db71 b7be 0191 383e 7bd5 023e
00000080: af5c 013e 937a 323e c710 a93d e47d 87bd
00000090: 92bc 28be 158e a03c b142 cc3c 3232 943d
000000a0: 3e0e f8bd b2d4 2dbd 26fe 173b ba37 583e
000000b0: 3aa5 463d dd95 c73a 14a6 e33c 1716 2dbc
000000c0: b4b2 f93d 587e 343e 5638 353e 3166 173e
000000d0: e08f ea3d b80a 503e 7405 54bc 0383 b13d
000000e0: ece8 853d 603c 723e c637 c7bd c402 bbbe
000000f0: 4e2a 8b3e ae9b b13e 3e50 e3bd 3671 c7be
00000100: 7ede 81be bbd8 613e dfdf 89bc ef62 2ebe
00000110: e2c3 eabe d973 943d 3fc8 843e e410 353b
00000120: 030d 9ebe 6b8d 78be fc9b 083e 0f63 a13d
00000130: 3b91 e73d 61f7 febd 4122 c13d 2e59 803e
00000140: e152 18bd 920f e3bd 99e8 213d 700f 263e
00000150: 63e1 553d 89f3 abbe d8e8 38be 2a41 803e
00000160: f99d 803e 4383 8d3d 60f9 a4be 8f5f 793e
00000170: 79a7 6e3e dbbf 833e 9e4b 25be f8b9 173e
00000180: ffb8 703e 19e3 1d3d aa21 43bc acdd 1abe
00000190: cfbf 973e 8843 0dbe 42a0 33bd e5d6 54be
000001a0: 9b34 fdbd beb3 b13c f804 96bd df26 4a3e
000001b0: 3db8 2a3e cea4 b7bd fcee 073e e8c8 b3be
000001c0: f11f 553d fad6 713d 5cfe 99bd e9c5 c3bd
000001d0: 4d90 aabe d772 efbc 2789 013e 43ab 873e
000001e0: 4a5a 28bb ed2f 503e 2a3a 743e ceaf 2fbe
000001f0: 5792 1c3e 10c8 213e 7d1b ad3e c4dd 793e
00000200: c316 563e ce08 ae3e 15d3 a63d 8d9d 473e
00000210: 492c e33d f541 55bd ff0d 283d 987d 82be
00000220: a3a9 093d f481 bd3d f762 8e3d 2d51 663d
00000230: 13ea 98be e107 77be c8df cebd b635 ee3d
00000240: 159c 0a3e 7ea3 87be e49d dfbe c8d8 a9be
00000250: 422a e6be 0179 82be c6cd 96be 75fc efbd
00000260: eda7 1abc 6aa0 1c3d 898c 41bd c03a e7bd
00000270: 2435 82bd 429d 583d b641 8dbe b272 963d
00000280: 4b29 52bb c116 a43e 1a05 47bd d57d 2d3e
00000290: b97e 793e 3a4c 8c3e 36c8 473e 9dda 663e
000002a0: 8634 443e 6a8f 553e dd5f 83bd a28b 47be
000002b0: eafa 54be a9a1 3cbe a429 acbe 528a 89be
000002c0: 6aae 77be 5539 983c f9a7 a43e 9f11 a53d
000002d0: 46a0 c9be 2e89 3fbe 4359 863e c3b6 6a3d
000002e0: db07 4fbd d9d8 c7be 48fe 7dbe 435d 483e
000002f0: 6103 a63e 976e d3bd 13e6 cbbe ced5 88be
00000300: 4011 f23d fc32 9f3e 66f8 d53c 50fe c1be
00000310: f246 b1bd 6e85 1bbe ac97 873e 98ac 763e
00000320: 7901 643c 9391 dd3d 36d5 2a3c d6b6 b6be
00000330: a9f1 1ebf d0bf cf3d 0796 d2bd 67d0 f6be
00000340: 6500 02bf cfa3 b9bd d946 20be 25a3 07bf
00000350: de13 c6be 9474 7bbe 190c 8f3e 3cef debe
00000360: f8cb b1be 623e 2fbe b707 2e3e ffee 963e
00000370: 713b 21bf 46f9 f3bd aa30 863e eb43 163e
00000380: 70f8 4c3e 2a20 4fbe 3eb8 44be 4ab0 b5be
00000390: c869 afbd 9f3e 2d3d b322 f9bd 116d 3cbe
000003a0: 6801 a0be cf28 7f3c de88 f33d cca1 86be
000003b0: 973e b03b 36cd 363c b041 97bd 42ba 763e
000003c0: 8836 1dbd 2afd 873c 9f22 e9bc 2deb ee3d
000003d0: 9d15 a03e ddd4 f1bb 73a6 c3bd 9c33 173c
000003e0: d062 703e 8033 8d3e
-0.19997314 -0.1329394 -0.12908752 0.108462594 -0.052602552 0.17727916 -0.39701846 -0.6643115
-0.48861447 -0.139814 0.11858638 0.21211314 -0.18977772 -0.20503125 -0.13879779 0.103420444
0.1361589 0.39651662 0.1408382 0.16941512 0.1406472 0.18440963 0.26123777 0.41378662
0.0721042 0.064997375 0.011401048 0.21668833 0.11148601 -0.35829052 0.18024065 0.12776749
0.12633012 0.17429571 0.08255153 -0.066158086 -0.16478184 0.019599 0.024934145 0.072361365
-0.121120915 -0.04243917 0.0023192256 0.21115008 0.048497416 0.0015227158 0.027789153 -0.010564349
0.12192288 0.17626321 0.17697272 0.14785077 0.11453223 0.20316589 -0.012940753 0.086675666
0.06538567 0.23655844 -0.09727435 -0.36525548 0.27180713 0.34689087 -0.11099289 -0.3895356
-0.2536506 0.22055332 -0.016830383 -0.17029928 -0.45852572 0.07248659 0.25934026 0.0027628476
-0.30869302 -0.24272697 0.13340753 0.07880222 0.113069974 -0.124495275 0.094303615 0.2506804
-0.037188414 -0.11086954 0.039528463 0.16216826 0.0522169 -0.3358424 -0.18057573 0.25049716
0.25120524 0.06909802 -0.32221508 0.24352859 0.23306073 0.25732312 -0.16142127 0.14817035
0.2350807 0.038546655 -0.011909882 -0.15123624 0.29638526 -0.13795292 -0.043854006 -0.20785101
-0.12363549 0.021692153 -0.073251665 0.1974139 0.16671844 -0.08966981 0.13274759 -0.35114217
0.052032415 0.05904291 -0.07519218 -0.09559233 -0.33313218 -0.029229565 0.12649976 0.2649785
-0.0025688582 0.20330782 0.23850313 -0.17156908 0.15290199 0.15798974 0.33810034 0.24401003
0.2090712 0.33991092 0.081457295 0.19493695 0.11092431 -0.052064855 0.041028973 -0.25486445
0.033609044 0.09253302 0.0695247 0.05622976 -0.29866084 -0.241241 -0.10101277 0.11631338
0.13536103 -0.26491922 -0.43675148 -0.33173203 -0.44954115 -0.25482944 -0.29453868 -0.11718074
-0.009439451 0.03823892 -0.047253165 -0.112905025 -0.06357792 0.052884348 -0.27589196 0.07346095
-0.003206807 0.3204861 -0.04858885 0.16942532 0.24364747 0.27401906 0.19509968 0.22544332
0.19160661 0.2085549 -0.06414769 -0.1948686 -0.20798841 -0.18421043 -0.3362552 -0.26863343
-0.24187627 0.018582026 0.32159403 0.080600016 -0.3938009 -0.18704674 0.26239976 0.0573032
-0.0505446 -0.3903263 -0.24804032 0.19566827 0.32424453 -0.10323828 -0.3982397 -0.2672562
0.118196964 0.31093585 0.026119422 -0.37889338 -0.0865611 -0.15187618 0.26482904 0.24089277
0.013916367 0.10818782 0.01042681 -0.35686368 -0.62087494 0.10144007 -0.10282522 -0.48205873
-0.5078185 -0.09064447 -0.15652026 -0.52983314 -0.38687032 -0.2455619 0.27938917 -0.43541896
-0.34725928 -0.17113641 0.1699513 0.29479215 -0.62981325 -0.119127795 0.26209003 0.14674346
0.20016646 -0.20227113 -0.19210908 -0.3548606 -0.08565098 0.04229605 -0.121648215 -0.1840098
-0.31251073 0.015573694 0.1189134 -0.26295316 0.005378555 0.011157325 -0.07385576 0.24094489
-0.038382083 0.01660021 -0.028458891 0.1166595 0.3126649 -0.0073801116 -0.09553232 0.009228613
0.23475194 0.27578354

conv1.bias f4 [10]
00000000: 29a2 563e bcfc 2ebe fad4 a3bc 3b08 a6be
00000010: b9ec f73b cd1b 1e3e 2695 fcbc a0d9 a7be
00000020: fa7a 153d bcab 02be
0.20960297 -0.17088598 -0.019999016 -0.32428154 0.0075660613 0.15440293 -0.030832838 -0.32783222
0.036494233 -0.12760824

conv2.weight f4 [20, 10, 5, 5]
00000000: 828d e53b cb5f b0bc b2d9 4abd b0ef 58bd
00000010: 77e5 10be aabd b83d 3429 143e 3a01 a43d
00000020: e064 c3ba 689f b9bd 394d 523d fa84 033e
00000030: 79cb 723d 801b 46bd 959e 7cbd 7c10 8c3c
00000040: 5e93 013d c7b6 0bbd ed36 cebd 4db7 3cbe
00000050: fb01 1e3e d8a9 04be c8ee 1cbd 8869 cfbd
00000060: 8463 40be 2d59 06bd c1a0 e1bb b256 4fbd
00000070: 8c26 73bc 9f2b da3c 13dc 613d 0e9c 59bc
00000080: c3e9 593d 03a1 553b 9cd7 8b3c 8b8a 803d
00000090: 1045 e4bb 8dd2 dd3c aedf 5a3d 9695 8b3c
000000a0: b180 ca3b f172 613d d190 063d 4aa6 3a3d
000000b0: 110a 30bc 96c1 70bd 14f2 55bd 3856 a1bd
000000c0: f220 18bb ba00 90bc 17c8 0fbc 2bb5 013e
000000d0: 3d1c 583b c581 873d c87d bebd 9cf9 15bc
000000e0: ca3f 40be dd71 1abd 8f42 b03d 47de dabd
000000f0: 63a0 0ebe f794 e0bd b67f 193d 8cc1 463b
00000100: e3df 91bd b546 a83c 916b 5a3c 022f 3f3d
00000110: 0d00 b9bd 4bb6 0b3b 255a b03d c9d3 0bbd
00000120: 552e 1b3d c9db 763d 4904 b83d eb5b 8b3d
00000130: 36a7 b1bd 130f 61bc 3dd5 0a3e 35c5 c83d
00000140: 3d5a 02bd e8e0 a23d c97e 1d3c 43d0 1fbc
00000150: deeb 15bc c9d2 ed3c bfb5 91bc fbcb b7bc
00000160: 8f71 ab3d 4635 223d 0b6f 523d b787 813c
00000170: ae21 993d 2aaa e5bc c41c 22bc 91d6 0a3d
00000180: 785e b63c 4ef3 953c b6ac 01bd 3364 b2bd
00000190: 055d 793c f07b 9f3c 70b7 a4bc 5112 1e3d
000001a0: 018f 7a3d 35c6 9c3d d74e dd3d bf53 ca3d
000001b0: 0f0f 8c3d d6e4 f2bc 11cb d93d 64ed ee3c
000001c0: 8981 bf3d 2a77 723d d57c 94bd 0b69 f03c
000001d0: 8b5d 8c3d d484 8b3c d5c7 b2bd 98ca 02be
000001e0: aae5 223b a01f e23c e636 c23b 539d 80bd
000001f0: 9f6e 8dbe 68c7 56bd d184 35be 04c7 5cbe
00000200: 6e7a 8cbe d2cb 77be e78e 383d 01e8 abbd
00000210: 281a 5bbe 1180 cabd 1a3e fe3b 9cf4 333d
00000220: ab88 933d 7db7 ed3d 1e09 09bc cd15 75bc
00000230: 320e fe3d 7293 b93d 9161 373c b944 f83d
00000240: 6f39 873d 3ae2 a9bd 8938 1b3c 42aa 61bd
00000250: 24c5 063d cbab 0a3d e16c 123e f16c e33c
00000260: 88b8 56bd 5771 363d 495c 79bd 7fe0 e53b
00000270: a353 bcbc 790a 383d 6690 95bb 2229 353d
00000280: f6dd 553d c73f b03d 6dad c63d d169 a73b
00000290: 07b6 e03c 3938 6c3b 1c5f 013e b59a 0e3e
000002a0: 832b 5f3d 9439 673d 0c7a aebb 7720 2c3c
000002b0: ac02 36bc 42a5 7dbd c5a9 11be c122 dcbd
000002c0: bf68 2ebe e021 a9bd ceaa bd3d 2e84 553d
000002d0: 5e98 8abd df93 9ebd 7661 aabd 2325 863b
000002e0: f444 963d cdeb c9bd 3131 6abd eb5c 0abc
000002f0: f851 923c 3516 293b 8dd1 b2bd 44a7 0cbe
00000300: d194 503c 8760 cf3d baad 99bd 20e6 b5bd
00000310: bb67 dbbd 9519 f3ba 7f2f 5a3b 4eda ddbd
00000320: 88d3 023d fce9 b3bd 84ea 7ebd c23f 52bd
00000330: 9f65 df3d d13a 2fbd 4eb3 06be 43a0 c5bb
00000340: 4dff 963b f57a eb3d 0927 c5bd e9c2 28be
00000350: 1e61 c0bd dee8 debd bac8 c63b 3a7a c9bc
00000360: 443d 373d e2c4 74bd f103 90bd 981e 023e
00000370: d1b5 2b3e f1da 933d 615d 0d3d 6d30 fb3d
00000380: 14b4 ad3d e069 52bd 0137 0ebe b631 a0bb
00000390: 6604 963d 2ff9 ae3d 4faa a7bd 0856 91bd
000003a0: 2b5a fd3c ca29 b63d 612d 8c3d ca9f c9bc
000003b0: 9fcf c53c 28a5 8f3c 280a e33d b639 bc3d
000003c0: 1d35 b43c cc08 8c3d cc61 9a3d 6f02 873d
000003d0: 74a2 23bd f991 a23b 0b5e 8fbd e68c 7a3d
000003e0: 8dee 9f3d 8744 d5bd 5b21 aabc 296f 85bd
000003f0: 708b 093d a61a 48bd 2b54 8e3b 57f6 b43d
0.0070053944 -0.021530053 -0.049524017 -0.05296296 -0.14150034 0.090205505 0.14468843 0.080080464
-0.0014907382 -0.090636075 0.051343177 0.12843695 0.059276078 -0.04836607 -0.061674673 0.017097704
0.03163468 -0.034109857 -0.1006907 -0.18429299 0.15430443 -0.12955415 -0.038313657 -0.1012755
-0.18787962 -0.03279989 -0.0068856184 -0.05061979 -0.014840733 0.026632128 0.05514152 -0.013281835
0.05320145 0.0032597191 0.017070584 0.06276425 -0.0069662407 0.027077937 0.053435974 0.017039102
0.006179892 0.055041257 0.03285295 0.04556874 -0.0107445875 -0.058778368 -0.052232817 -0.07877773
-0.0023212996 -0.017578471 -0.0087757325 0.12666766 0.0032975816 0.066165484 -0.093013346 -0.00915375
-0.18774334 -0.037706245 0.08606445 -0.10686927 -0.1392837 -0.10965913 0.03747531 0.0030327765
-0.07122781 0.020541528 0.01333131 0.04667569 -0.09033213 0.0021318372 0.08610944 -0.03413752
0.037885983 0.060268197 0.08985192 0.06804641 -0.08674471 -0.013736504 0.13557906 0.09803239
-0.03182434 0.07953054 0.0096127475 -0.009754243 -0.009150473 0.029031174 -0.017786859 -0.022436133
0.08371269 0.039601587 0.05137543 0.015811784 0.07477127 -0.028035242 -0.009894554 0.033896033
0.022261843 0.018304493 -0.03165885 -0.08710518 0.0152199315 0.019468278 -0.020107001 0.038591687
0.061171535 0.076549925 0.10806053 0.098792545 0.0683881 -0.029650133 0.10634435 0.029165931
0.09350879 0.059195675 -0.07250372 0.029346963 0.068537794 0.01703111 -0.08729521 -0.12772596
0.0024856129 0.02760297 0.0059269546 -0.06280007 -0.2762346 -0.052436262 -0.17726447 -0.21560293
-0.27437156 -0.24198845 0.045058157 -0.083938606 -0.21396697 -0.09887708 0.007758868 0.04393445
0.07203802 0.11607263 -0.00836399 -0.014958811 0.12405051 0.09061326 0.011192695 0.12122483
0.066027515 -0.082951024 0.009473928 -0.05509401 0.03290285 0.03385524 0.14299347 0.027761908
-0.052422076 0.044541683 -0.060879026 0.0070152874 -0.0229891 0.044931863 -0.004564333 0.04422868
0.05221363 0.086059146 0.09701047 0.00510905 0.027430547 0.0036044254 0.12633938 0.13926204
0.054484855 0.056451395 -0.0053246077 0.010505787 -0.011109035 -0.06192518 -0.14224918 -0.10748816
-0.17032145 -0.08258414 0.09261094 0.05212801 -0.06767343 -0.07743048 -0.083193704 0.0040937825
0.073373705 -0.098594286 -0.05717582 -0.008445005 0.017861351 0.002580059 -0.08731375 -0.13735682
0.012730793 0.10125833 -0.07503839 -0.088817835 -0.107131444 -0.0018547053 0.003329247 -0.10832654
0.031940013 -0.08784863 -0.06223537 -0.051330335 0.109080546 -0.0427807 -0.13154337 -0.0060310676
0.004608071 0.114980616 -0.09626586 -0.16480602 -0.09393524 -0.1088426 0.006066409 -0.024594415
0.04473616 -0.059758075 -0.07032002 0.12706983 0.16768576 0.07219494 0.03451288 0.12265096
0.08481613 -0.0513705 -0.1388817 -0.0048887385 0.07325058 0.08543622 -0.08186781 -0.07096487
0.030926785 0.088946894 0.06844593 -0.024612326 0.024146853 0.017534807 0.110859215 0.09190695
0.021997983 0.06837615 0.075381845 0.06592261 -0.03994985 0.004961249 -0.07000359 0.061169527
0.07809172 -0.10413461 -0.020767858 -0.06515343 0.033580244 -0.04885354 0.0043435297 0.08836048

conv2.bias f4 [20]
00000000: caf5 6f3d 518f 93bd b578 a6bd 6121 a1bc
00000010: dfac 6d3d 2c12 853c e297 3bbd 63fb 283d
00000020: 5fe4 1a3d 5b52 da3d 0bc7 153b 8195 a33d
00000030: 69da adbd f513 9c3d ea8e 6b3d cde7 c23c
00000040: 5a50 8bbd 258f 9bbd f132 8dbb 9850 933d
0.058584012 -0.0720507 -0.08128492 -0.019669237 0.05802619 0.016244017 -0.045799144 0.041255366
0.037815448 0.10660239 0.0022854235 0.079875 -0.08488924 0.07620994 0.05750934 0.023792172
-0.06802435 -0.07595662 -0.004309051 0.071931064

fc1.weight f4 [50, 320]
00000000: f6b7 acbb 136e a83d 9edb 233d c4a3 9f3d
00000010: 4a79 243e 51cf b43d 55c9 8cbd 1ff2 97bd
00000020: ded1 c23c cf9b 33be 7c69 10be 11fb 04be
00000030: dd57 fdbc 46f3 d9bc 9801 423d 11f6 35bc
00000040: 205e 133d 3766 d3bc 907c 3c3d f4f1 eb3d
00000050: 5f57 853c 52e6 74bd d8a5 bb3b ca79 a7bc
00000060: c159 55bd c758 49bd c1e2 d03c 8f7c f03d
00000070: 0725 33bd a14c bbbd 9fa4 cbbd e646 4bbb
00000080: d22f 623c bdc0 0b3d 86e8 c83c bded 98bc
00000090: 0bf9 a3bd 6c28 08bd 7577 2e3b 8de0 b1bd
000000a0: 30d3 ebbd 3ba0 133d ea5b 37bd 6c33 cebd
000000b0: 872f b3bd b96c 503d 0917 923c 540c 023e
000000c0: 871c 3abd 88c0 ad3b ef1f debd 841d 1dbe
000000d0: 3f80 60bb 879c 7abd e7b1 7e3d f27b bc3d
000000e0: 328d a238 5be7 98bd 3076 9d3c d2b3 913d
000000f0: 8a8a 9dbc 1605 033c 9363 c23d 5b86 df3d
00000100: a246 90bd 15f9 efbd 5bf6 e8bd 44be 443c
00000110: 62dd 043d a03d 13be 4b29 4e3d f787 b93d
00000120: 8fd7 a53d cc73 553c efd9 bcbd 5d46 9dbd
00000130: e33c 6b3d 1e8f 8cbc eeb4 eebd d0c9 58bd
00000140: 78a7 413d 8437 493d 0022 5a3c e1cb 683d
00000150: e702 07bc aa73 7abe 6937 f9bd de43 4cbd
00000160: 7ff7 2dbe 1f4c 6a3c 4e4d f53c a4fe b53c
00000170: d816 913c 4c98 4b3d a6c8 a2ba 3429 8dbd
00000180: eb09 ea3b d493 dc3d 9bac 443e 9a9e 883d
00000190: 82b1 94bd 180f 89bd be09 a03c cd5a bdbd
000001a0: 1719 1cbd 7bf4 86bc c855 b13d 7a0d ebbc
000001b0: bef9 ea3c 6af0 5f3c f519 a13c bd6c 27bd
000001c0: 7ada 57bc 12fe 473c fc2e 9a3d 74e5 013d
000001d0: 3bcb 1c3d 2034 3c3d f83a e3ba c8f8 483d
000001e0: 4721 1a3b fe47 aa3d ed40 be3c a895 593d
000001f0: d350 f33b dbf5 ba3b a7ce 21bc 55ee 17bc
00000200: 74d5 6cbc 10f3 e2bd c4d5 60bd 71a9 8a3c
00000210: 5397 35bd 0d6d bebd 6653 c23c 11fd 1f3e
00000220: cd48 c4bc 0a53 093c 305c 6abd f4a2 31bd
00000230: 558b 383c 4e32 743c 82bd 223d 09a0 49bd
00000240: 4932 ab3d 0b6f 56bc a44a 1fbc 24a1 d13d
00000250: 7249 a93d 2393 ecbd e14b 033d f327 f73c
00000260: 7386 90bd 1c1b a3bd 2f9b b0bd c396 c5bd
00000270: a060 6abd f658 a9bd 94a0 14be f5bd 1cbe
00000280: 5093 d3bd b1c1 68bd b44b 28be 2281 153c
00000290: 2743 da3c caf7 b2bb afcc f1bd 06a6 893c
000002a0: e3e4 093d e428 903c a8ae 04be 8edb d6bc
000002b0: 13b6 423d d7f8 543d 18ed 23bd 5e22 22bd
000002c0: fe6b b33d 857b 763d 856c 183c 5636 783d
000002d0: 6696 44be a6d5 0dbe 3377 36be 0256 4a3c
000002e0: 5cd5 f6bd 7398 8c3c 79e4 033d 002b 3fbe
000002f0: 43cd a7bd bebf 023e d5af e0bc a6dc 81be
00000300: c6d7 bd3b af84 dfbd 8a21 033c cff7 373d
00000310: 7faa 9a3c cea8 0d3d d334 993c eacd 0abc
00000320: 0c02 083e 5c81 91bc 6c92 3e3c ab46 cb3c
00000330: abbe c83c 68ea 6c3d 7bdd febc 714d 92bc
00000340: 7f89 3cbd 0308 c1bd 990f 39bd 78cf 03bd
00000350: 216e b5bc 9a48 233b 1051 54bc f041 87bd
00000360: 030a ea3d f296 66bc 028f 65bd 3543 5b3d
00000370: 3760 993b f944 6fbd b443 9c3d e6be 183d
00000380: e1e8 3f3c 3c99 9fbd 73cc afbd 840c 50bc
00000390: 15c7 18bd 4e6f 473d 6b33 173e 4149 cc3c
000003a0: db28 d03c eb5c ea3d 3490 b43d bbaa e1bb
000003b0: afee bb3c a5e3 c53c 8ab9 e33d 7503 2abc
000003c0: c6c5 a8bd cb36 443d 8d0e 62bd 9aef f1bd
000003d0: 13d7 8e3d 93cf 1a3c 2845 e13d 647c 82bc
000003e0: 87d0 26bc f7ef 013d 4d9d d93c 57c7 b2bc
000003f0: 125d 833d c111 933d 2d2e ca3c 5b9f ddbd
-0.0052709533 0.0822412 0.040004365 0.07794908 0.16061893 0.08828605 -0.068743385 -0.07419228
0.023781713 -0.17539905 -0.14102739 -0.12986399 -0.030925686 -0.02660526 0.0473648 -0.01110603
0.035978436 -0.025805576 0.04601723 0.11520758 0.016277013 -0.059789963 0.005726557 -0.020443816
-0.05208755 -0.04915693 0.02549875 0.11742508 -0.043736484 -0.09145475 -0.09943508 -0.00310176
0.013805347 0.034119356 0.024524938 -0.01866805 -0.080064856 -0.033241674 0.0026621495 -0.08685408
-0.1151489 0.03604148 -0.04476539 -0.10068402 -0.087492995 0.050884936 0.01783325 0.12700015
-0.045437362 0.0053024925 -0.108459346 -0.1534329 -0.0034256128 -0.061184432 0.06218138 0.09203328
7.751062e-05 -0.074660026 0.019221395 0.07114376 -0.0192311 0.007996818 0.094916485 0.10914298
-0.07044722 -0.117174305 -0.113751136 0.0120082535 0.03243769 -0.14378977 0.05033235 0.09059136
0.08097755 0.013028096 -0.09221255 -0.07679436 0.057431113 -0.017158087 -0.11655603 -0.05292684
0.04727885 0.04912521 0.01331377 0.05683506 -0.008240438 -0.24458185 -0.12168772 -0.04986941
-0.16988944 0.014300375 0.029944088 0.022216149 0.017711088 0.04970579 -0.0012419417 -0.068926245
0.0071422956 0.107703835 0.19206469 0.06670876 -0.072604194 -0.06692332 0.019535895 -0.092458345
-0.038109865 -0.016474 0.086589396 -0.02869295 0.02868354 0.013668159 0.019665698 -0.040875185
-0.013174647 0.012206571 0.07528493 0.031712964 0.038279753 0.045948148 -0.00173363 0.04906538
0.002351837 0.08314513 0.023224318 0.05312124 0.0074254065 0.005705578 -0.00987593 -0.009273131
-0.014455188 -0.11081517 -0.054891363 0.0169265 -0.044333767 -0.092981435 0.023721408 0.15623881
-0.023960495 0.008381614 -0.057216823 -0.043368295 0.011263688 0.014904572 0.03973151 -0.049224887
0.083592005 -0.013087998 -0.009722386 0.10235813 0.08265962 -0.115515016 0.032054786 0.030170416
-0.07056894 -0.07964155 -0.08623349 -0.09647896 -0.057221055 -0.08268921 -0.1451438 -0.15306838
-0.10330832 -0.056825344 -0.16435128 0.009125026 0.026643349 -0.0054616677 -0.118066184 0.016802799
0.03366555 0.017597623 -0.12957251 -0.026227739 0.04753692 0.051995125 -0.040021032 -0.039583556
0.08760832 0.06017639 0.009303217 0.060598694 -0.19197997 -0.13851032 -0.17818908 0.012349607
-0.12052414 0.017162537 0.03220031 -0.18668747 -0.081934474 0.12768456 -0.027427593 -0.25363654
0.0057935445 -0.10913979 0.008003602 0.044914063 0.018880127 0.034584813 0.018701946 -0.008471945
0.13282031 -0.017761879 0.011631589 0.02481397 0.02450498 0.057840735 -0.03111147 -0.017859193
-0.046029564 -0.09425356 -0.04518089 -0.03218028 -0.02214724 0.00249151 -0.01295878 -0.066043735
0.11427691 -0.014074074 -0.056044586 0.05353089 0.004680659 -0.058415387 0.07630101 0.03729143
0.0117132375 -0.07792899 -0.085839175 -0.012698296 -0.037299234 0.048690133 0.14765708 0.024937274
0.025410106 0.11443504 0.08816567 -0.0068868077 0.022940962 0.024156401 0.11119373 -0.010376801
-0.08240847 0.047903817 -0.055189658 -0.118132785 0.06974616 0.009448904 0.10999519 -0.015928455
-0.010181553 0.03172299 0.026564265 -0.021823568 0.06414236 0.07181121 0.024680221 -0.1082141

fc1.bias f4 [50]
00000000: 0043 1a3e bed4 133c 10c7 e13d 8a96 243e
00000010: 36f5 943d 30a7 243e 565b bc3d 3cde 3e3e
00000020: 6fe2 793d e6cd 8a3b a836 633d 2906 d73c
00000030: ae34 5b3e 6175 703e a6e1 ff3d 0feb 2e3e
00000040: 94ad 463d f0c4 be3d c8bc 053d 2d6b 443e
00000050: 911b 1d3e 6939 9f3d 55de d23c 12f4 693d
00000060: facc 0f3e 9361 67bc 8004 303d d802 593d
00000070: cb75 1d3e c46f cd3d 9e6a 023e 1288 2a3e
00000080: d410 203e febc ff3d 71ae 983d 470c 693d
00000090: ab44 473e 67da d93d ef0f 993b 244b f43d
000000a0: 75a4 f63d c70f f43d 62cb 253c 685f 7d3c
000000b0: 93f6 033e 6d5c 64bc 257b 603e 41fe 873d
000000c0: bf8c 773d a271 833d
0.15064621 0.00902289 0.11024296 0.16073051 0.07273333 0.16079402 0.091971084 0.18639463
0.06100696 0.004235971 0.055472046 0.026248055 0.21406814 0.23482276 0.12494211 0.17081855
0.04850538 0.093149066 0.03265074 0.1918151 0.15342547 0.07774622 0.025740782 0.05711753
0.14043036 -0.014122385 0.04297304 0.052981228 0.15376966 0.10031083 0.12735984 0.16653469
0.1563142 0.12487219 0.07455147 0.056896474 0.19459789 0.1063736 0.004671089 0.119283944
0.120430864 0.11917072 0.010119291 0.015464641 0.1288703 -0.013938052 0.21921976 0.06640292
0.06043696 0.06418158

fc2.weight f4 [10, 50]
00000000: 3620 643e 716f 9fbe cc26 f53d 52fa 97be
00000010: d70e 20be 7974 92be 9bbb 1d3d c245 3dbe
00000020: 03b8 d3bd ead7 b2bd f697 7abe 3b03 c03d
00000030: f5b0 1abe cfe4 26be db1f 8bbb 848e 69be
00000040: 54ad 84be 9541 28be c3d9 0b3e 939f ecbd
00000050: 6bfd 1b3e 5c19 11bd ea2f 12be 1381 0f3e
00000060: 97d4 83be 0aca 1e3e 13ec 1fbe cbb1 fbbd
00000070: 108b 77be aea6 df3d 9b85 3dbe fed6 cb3d
00000080: 40ca 003e 0914 9bbd 6e8d 38be 382a 083e
00000090: e576 083e 113b d13d d501 d83d e4d2 3c3e
000000a0: e5a2 b93d a42f d63d fd07 0dbe 4618 2d3e
000000b0: 7a30 fcbd 6f38 ab3d 7391 1a3e c0c8 7dbd
000000c0: d602 38be 8ff8 9a3d e87b 093e bd8c 15be
000000d0: 53cd 7dbe cb82 173e a377 053e 911c 973d
000000e0: 6c6a 0c3e 4294 393e 6008 84be dfb3 f8bd
000000f0: b545 b4bd bfe3 26be f03d e03d f65c c93d
00000100: 4fbf 88be dbb8 023e 4e87 24be 599b d63d
00000110: f0fd cd3d 545a d43d 1b64 16be 4d4f 51be
00000120: e545 7cbe 8e61 113e c0c6 b83d 5ba1 62be
00000130: 6128 2dbe 3184 16be 5275 e53d 6ac2 8ebd
00000140: b5a1 b23d b147 f33d 9454 e73d 606a af3d
00000150: a52d dc3d 5fc9 ffbd 9a8b 91be f217 e3bb
00000160: 9d4f 93be 0099 80be e211 1ebe 5af2 56be
00000170: 02de 2cbe 1d9f d9bd cab6 5c3d e9ea 85be
00000180: a896 0e3e d612 b1be 9bb8 473e c321 96be
00000190: a06c adbc dc41 babd 38d8 65be d89a 063e
000001a0: 0c94 2bbe b275 d8be ae00 153e f844 fcbd
000001b0: faf4 58be af31 223e d06c 20bd 1848 5b3d
000001c0: ca82 1abe 9df8 20be 26a0 69be 8cca 993d
000001d0: 6abf 56bd bbdc 6cbe cd31 0d3e 765f 023e
000001e0: b480 11be 6e82 a53c ece5 1c3d 3510 363d
000001f0: 4523 ef3d baa5 0c3e e4d0 e33d bd7e 3cbe
00000200: a352 013e 2de3 f33d 3fae cd3d 581a 0c3e
00000210: 761e ed3d d230 353d 9573 8bbe 5e83 b2bc
00000220: 38e0 37be 9b28 c73d e20d af3d 5720 f7bd
00000230: 1455 07bd 399b 903d e0ff 043e f34f 1e3e
00000240: 1724 9d3d 1335 8f3d a8dd 27be 2656 0abc
00000250: a3dc 29be a18c fcbc eeb5 d9bd 4be8 11bd
00000260: c8df 57be c1c8 a8bd f2f6 27be f7c1 85bd
00000270: 8d09 07be c6b6 74be f0a9 c83d 5f26 1f3e
00000280: ead7 ec3d ef79 ec3d 0df6 013e 04be 74be
00000290: e82f 4dbe f6f3 1f3e c93c 1d3d 7464 fc3d
000002a0: edce ebbc 69e8 ef3d 1894 2ebe 1eae 2a3e
000002b0: 7656 47be 29d2 69be 3139 a0bd cae4 19be
000002c0: 089b b9bd c3c6 103e f326 0f3e 1b13 113e
000002d0: 6663 c03d 9947 0dbd 7010 34be a902 c33c
000002e0: 361e 2dbd 14bf cbbd 082f e33d 8cda 033e
000002f0: 438c b93c c087 a3bc ebe8 953c c4f8 edbc
00000300: 426b 0a3d eb64 35bd ead1 c33d c8b6 bfbd
00000310: 758b 2dbe 8d0e 6abe 6639 19be b7bd a33d
00000320: c3b1 febc 8113 e43d 4c52 1fbe 9cc2 f13d
00000330: 3d2e 043e 8d13 3b3d ed1f 193e 72ec 343e
00000340: 4e01 003b fb75 133e 458d ed3d 166f 8dbe
00000350: bd55 08bd d897 763d eba0 a63d 767a d73d
00000360: fa78 ec3d 0792 12bd 50d4 f73d 022f 63be
00000370: c8e9 523c d843 d8bd c8c2 1b3e 5612 0e3e
00000380: b916 93bc 9f11 703d 4837 1f3e abd9 153e
00000390: 7ecd ccbc 222e 19be c101 34be 7821 20bd
000003a0: 5fd3 1c3d 5bdf 27be 039f f73d 5819 fcbd
000003b0: c519 783d ec53 32be d6de d93d a32b 8e3d
000003c0: 6aeb 2abe 6d38 0cbe a6f9 4ebe b912 b33c
000003d0: 4f5b 5fbe 0d04 c63d 12f1 c7bd e557 113e
000003e0: c5e1 373e 2fe0 aabe 005a b9bd 671c df3d
000003f0: d9fe ec3d 8173 fe3b ecec 173e 2edf 5f3d
0.22277912 -0.3113971 0.119702905 -0.29683167 -0.15630661 -0.28604487 0.038508993 -0.18483642
-0.10337832 -0.087325886 -0.24472031 0.09375616 -0.15106566 -0.16298221 -0.004245741 -0.22808272
-0.2591349 -0.16431268 0.13657288 -0.11553874 0.1523339 -0.035424575 -0.1427609 0.14014082
-0.2574813 0.1550676 -0.15617399 -0.12289771 -0.24174142 0.109204635 -0.18507998 0.09953116
0.12577152 -0.07572181 -0.18022701 0.13297355 0.13326605 0.10216344 0.105472244 0.18439823
0.09064273 0.104583055 -0.13772579 0.16903791 -0.12313934 0.08360373 0.15094547 -0.06195903
-0.17969832 0.0756694 0.13426173 -0.14604469 -0.24785356 0.14795987 0.13033919 0.073784955
0.13712472 0.18122962 -0.2578764 -0.12143683 -0.08802358 -0.16297816 0.10949314 0.09832184
-0.26708457 0.1276583 -0.1606724 0.10478849 0.100582 0.10368791 -0.14686625 -0.20440407
-0.24636038 0.1419737 0.090222836 -0.22131865 -0.16909935 -0.14698865 0.11204018 -0.06970675
0.087222494 0.118789084 0.11295429 0.08565211 0.107508935 -0.1248958 -0.2842682 -0.0069303447
-0.28771678 -0.2511673 -0.15436509 -0.20990887 -0.16881564 -0.106260516 0.05388526 -0.26155785
0.13924658 -0.34584683 0.19504015 -0.29322633 -0.02116996 -0.09094593 -0.22445762 0.13145006
-0.16755694 -0.42277294 0.1455104 -0.12317842 -0.21187201 0.15839265 -0.03916627 0.05353555
-0.15088955 -0.15719838 -0.22814998 0.07509336 -0.05242864 -0.23131077 0.13788529 0.12731728
-0.14209253 0.020203795 0.038305208 0.04444905 0.11676649 0.13735095 0.11123827 -0.18407722
0.1262918 0.11908565 0.100430004 0.13681924 0.115780756 0.04423601 -0.2723662 -0.021791156
-0.17956626 0.09724542 0.0854757 -0.12066715 -0.03304012 0.07060856 0.12988234 0.15460186
0.07672899 0.06992545 -0.16393149 -0.008443391 -0.16588072 -0.030828776 -0.106304035 -0.035621922
-0.2108146 -0.08241416 -0.16402796 -0.065311365 -0.13187237 -0.23897848 0.09798038 0.15541981
0.1156462 0.115466945 0.12691517 -0.2390061 -0.20037806 0.15620407 0.038388047 0.123238474
-0.028785193 0.117142506 -0.17048681 0.16667983 -0.19466576 -0.22834076 -0.078234084 -0.15028682
-0.09062773 0.14138322 0.13979702 0.14167444 0.09393959 -0.03449211 -0.17584395 0.02380498
-0.04226514 -0.09948555 0.11092955 0.12876338 0.02264989 -0.019962192 0.01829954 -0.029049285
0.033793695 -0.044285696 0.09561522 -0.09361035 -0.1694773 -0.22857113 -0.14963302 0.079951696
-0.031090623 0.111365326 -0.15558738 0.11804697 0.12908264 0.045672942 0.14953585 0.17668322
0.0019532028 0.14400475 0.11599211 -0.27623814 -0.03328489 0.060203403 0.081361614 0.105214044
0.11546512 -0.035783794 0.12101042 -0.22185901 0.012873121 -0.10559815 0.15211022 0.13874182
-0.017955171 0.058610555 0.15548432 0.14633815 -0.02500033 -0.14959005 -0.17578794 -0.03909442
0.038287517 -0.16393797 0.12090876 -0.123095214 0.06057145 -0.17414826 0.10638206 0.06941917
-0.16691366 -0.136934 -0.20212421 0.021859514 -0.21812175 0.096687414 -0.097627774 0.14193685
0.17957218 -0.33374164 -0.09050369 0.10894089 0.11572046 0.007765234 0.14836472 0.0546562

fc2.bias f4 [10]
00000000: a1d6 22be 66f8 cd3e 548c 71bc 8c19 233d
00000010: 48b5 a2be 746a 023e f29d ee3c 3f64 c1b9
00000020: e267 283e b96a cbbe
-0.15902187 0.40228575 -0.0147429295 0.039819285 -0.31778932 0.12735921 0.029128049 -0.00036886518
0.16445878 -0.3972986

exp_avg f4 [10, 1, 5, 5]
00000000: 08e4 d138 50f6 c83b a382 153c f26f c63b
00000010: 70f4 b439 2b59 ad3a 988e e93b f5b9 163c
00000020: 3cb8 fd3b d68b 083a a34c 3c3b 2298 0b3c
00000030: acc2 2a3c a7bd c13b 9c66 33bb b76e 363c
00000040: 1aea 363c 0b5a 4f3c 77a5 c93b e676 c23a
00000050: c33c 863c bb50 833c 2b02 6d3c d132 bd3b
00000060: 7dee b43a 46a5 ff3a f112 0abb c460 69bb
00000070: 97a8 a7ba e73d 8dba cb41 853a b601 0ebb
00000080: f049 063a 1a45 803a 709c 39ba da1a be3a
00000090: b1a1 3e3a 79cc 783a d0cf 0c3b 71d8 45ba
000000a0: 713b ca3a aa48 5d3a de65 913a 9f8e 0e3b
000000b0: b9f2 4f3b 2e58 80b9 93a8 8039 cad1 d739
000000c0: 04f3 443b 1fb0 e53b b214 51bb fff4 a3bb
000000d0: 6993 0bbc 0ce8 1fbc 599d 1abc cd10 9cbb
000000e0: 8d75 e8bb f699 0dbc 6761 0ebc 38be c9bb
000000f0: 7fd5 d9bb 55e0 a8bb ce29 91bb f0f6 87bb
00000100: 8d34 1dbb 0ee3 cdbb a6f2 8dbb bd26 8cbb
00000110: c514 08bb 1282 9739 8aac c1bb 12fb ecbb
00000120: ec3f b4bb e4a8 6abb 416e 8ab8 54b9 953b
00000130: 0356 433b 92a7 103a 92cc cfbb d794 f8bb
00000140: 4a97 5a3b 0624 1f3b edd4 3ebb f4d4 0abc
00000150: 3cfd c6bb 5668 f4b9 66c2 97bb 5fb8 edbb
00000160: 7ee2 d5bb f6e6 82bb c50f afbb de58 2bbc
00000170: 31fe 0dbc e014 96bb 9169 13ba 663e acbb
00000180: 86e1 e1bb da29 f1bb b6a0 e8bb 9017 a3bb
00000190: 74e8 63ba c92f 2b3a f0f2 d0b7 ce05 eaba
000001a0: 68c8 fcba 9388 b4ba a079 5b3b 7e1f c83a
000001b0: 87ec ccba 1fa1 92b9 3511 f639 296d 2a3b
000001c0: 7479 733a 6f58 1eba 640b 24bb eb06 993b
000001d0: be0e 823b bbc7 88b7 55a6 c3ba aaa0 b9ba
000001e0: c3b7 bf3b bcff c73b e00e 093b 6f4c 633b
000001f0: 558f 593b 3aba b63b 3f72 4d3c 173b 293c
00000200: 9021 a73b e25e 4a3a 198c 673c 15c4 713c
00000210: 031a 223c 6a3d 2d3b 7d9a 383b 7176 8a3c
00000220: 0657 273c 7c7e 7e3b 27e3 033b 460d e13a
00000230: e3ef 053c 5ee5 253b 77d7 393b c3ef 023b
00000240: 91b6 053b 55ac d73a e379 e93a e93b a93a
00000250: fbd9 9d3a e2f6 383b 6ec3 363b 504a 633a
00000260: 2e3a 7c3a cd7e 8a3a e097 723b 6aae 8c3b
00000270: 0055 263b dc84 463b 2638 923b 2167 b83b
00000280: 6864 723b 20d7 973b eb2d ac3b 6ce7 c03b
00000290: 6e4d 4f3b 465b bf3b d83c ba3b 1eae b13b
000002a0: f919 7c3b 65fe 383b e664 123c fcca ca3b
000002b0: b245 203b 21ea b33a e77a 463b ead6 08bb
000002c0: 3a73 0bbb eede 36bb 983e abba afde 4e3b
000002d0: 2d78 75b8 c1ed 96ba 73d4 36bb b484 01bb
000002e0: fdba d43a eb36 353a 3579 3eba ef25 8bba
000002f0: a0cd 1c3a 7827 20ba 59b4 c8ba 8c4c 0abb
00000300: 1fab 0039 c4ec fa38 db5a e1ba 231a c3ba
00000310: 57c2 95ba 6d4e 623b 0bb3 8f3a b97b 90bb
00000320: 2bb7 f3bb 5f24 90bb 7b21 10bb 502e a0ba
00000330: 550b 6cb9 8872 cdbb ce3a 04bb 1bfa 8e3a
00000340: 6a54 2139 6eae eab9 bf46 4cbb 9137 5db8
00000350: 1923 91ba 2607 0ebb 9681 b1ba e605 653a
00000360: 3138 063a 58c0 65ba 93d7 cfba 1683 fe3a
00000370: b548 deb9 9e74 09bb d92d 25bb 3507 b3ba
00000380: 26c9 213a 2992 27bb f8ac 8cb8 6268 663a
00000390: aa4c 303b b257 d63b 2c1e 9db7 0f9d 203a
000003a0: f933 56ba 9aeb db37 9eb9 5b3b 621d 563b
000003b0: 265b 1a3b fd16 653a fe34 ea3a 4dcf 8a3b
000003c0: 6b42 203b 1d34 663a 2f3c 32ba 933c 253a
000003d0: d38a a5b8 6298 92ba c7be 6abb 1e24 5abb
000003e0: d6fd a33a 0891 48ba
0.00010008371 0.0061328784 0.0091253845 0.0060558254 0.00034514396 0.0013225427 0.007127594 0.009199609
0.0077429097 0.00052088255 0.0028732202 0.008520158 0.01042239 0.005912501 -0.0027374392 0.011134795
0.011164213 0.012655745 0.006153758 0.001483646 0.016386395 0.016029706 0.014465849 0.00577388
0.0013803985 0.0019504211 -0.002106842 -0.0035610655 -0.0012791333 -0.0010775895 0.0010166703 -0.00216685
0.0005122712 0.0009786219 -0.0007080501 0.0014503852 0.00072720187 0.0009490918 0.002148617 -0.0007547206
0.0015429092 0.0008441309 0.0011092981 0.002175249 0.0031730367 -0.00024479761 0.0002453966 0.000411643
0.0030052075 0.0070095207 -0.0031903205 -0.005003571 -0.008519032 -0.009759914 -0.009436929 -0.004762745
-0.0070940913 -0.008642664 -0.008690215 -0.006156709 -0.006647765 -0.0051536956 -0.0044300323 -0.0041493103
-0.0023987622 -0.0062831705 -0.0043319045 -0.004277079 -0.0020764333 0.00028897874 -0.005910461 -0.0072320784
-0.005500784 -0.0035806233 -6.600889e-05 0.004569212 0.0029805906 0.0005518134 -0.0063415254 -0.0075861025
0.0033354335 0.0024282946 -0.0029118613 -0.008473624 -0.0060726684 -0.00046617043 -0.0046313284 -0.0072546448
-0.006527244 -0.003994818 -0.005342456 -0.010458199 -0.008666561 -0.004580125 -0.00056233356 -0.005256462
-0.0068933396 -0.0073597254 -0.0070992364 -0.004977174 -0.0008694001 0.0006530253 -2.4908659e-05 -0.0017854513
-0.00192858 -0.0013773612 0.0033489242 0.0015268174 -0.0015634455 -0.00027967335 0.00046933597 0.0026005006
0.0009287812 -0.00060403993 -0.0025031203 0.004670014 0.0039690426 -1.630547e-05 -0.001492689 -0.0014162262
0.0058507635 0.006103484 0.0020913407 0.003468301 0.0033197005 0.005576399 0.012539445 0.0103290295
0.0051004365 0.0007719827 0.014132523 0.014756222 0.009893897 0.002643431 0.0028168254 0.01690218
0.010213619 0.0038832715 0.0020124407 0.0017170093 0.008174869 0.0025313715 0.0028357187 0.0019979335
0.0020403008 0.0016454557 0.0017812814 0.0012911531 0.0012043113 0.0028223325 0.0027887481 0.0008670436
0.00096217066 0.0010566354 0.0037016794 0.0042932527 0.0025380254 0.0030291593 0.00446226 0.0056275283
0.0036986116 0.004633799 0.0052544973 0.0058869626 0.0031631845 0.005839738 0.0056835227 0.0054223677
0.003846763 0.0028227803 0.008935189 0.0061887484 0.0024455604 0.0013726392 0.0030285658 -0.0020880052
-0.0021278397 -0.0027903873 -0.0013064919 0.0031565835 -5.8524474e-05 -0.0011514948 -0.0027897626 -0.0019762935
0.0016230043 0.00069127855 -0.0007265986 -0.0010616163 0.0005981568 -0.0006109397 -0.0015312537 -0.0021102754
0.00012270779 0.0001196503 -0.0017193215 -0.0014885109 -0.0011425716 0.0034531609 0.0010963393 -0.00440928
-0.007437607 -0.004398867 -0.0021992612 -0.0012220833 -0.00022510935 -0.0062697567 -0.0020176652 0.0010908277
0.00015385603 -0.00044761918 -0.0031170098 -5.2742256e-05 -0.0011073082 -0.0021671741 -0.0013542648 0.00087365357
0.00051200675 -0.0008764318 -0.0015857093 0.0019417729 -0.0004239731 -0.002097405 -0.002520433 -0.0013658764
0.0006171636 -0.0025569296 -6.707938e-05 0.0008789358 0.0026901164 0.006541216 -1.8729908e-05 0.0006126919
-0.00081711967 2.6216545e-05 0.0033527385 0.0032671322 0.0023552864 0.0008739082 0.0017868576 0.004236138
0.002445365 0.0008781569 -0.0006799129 0.0006303277 -7.893671e-05 -0.001118433 -0.0035819279 -0.0033285688
0.0012511562 -0.0007651006

exp_avg_sq f4 [10, 1, 5, 5]
00000000: ca18 913a 2645 503a b9a0 e539 5c69 f639
00000010: 8aff 3a3a 8229 a43a 4da7 3f3a d563 cc39
00000020: d99d ff39 57d6 723a 72da b63a 8307 883a
00000030: 9e35 3d3a 913c 7a3a 81af b63a 175f c83a
00000040: 86f7 c53a 3ca5 d23a 19be f93a b613 f63a
00000050: f248 d93a a7ba f53a a0eb 0e3b 4407 1d3b
00000060: 6ddc fa3a 675d 9239 77a9 a539 9720 ad39
00000070: 2554 8739 b92a 3639 51cd ab39 9ab7 9f39
00000080: 3cfd 9139 5e1b 8039 8824 5e39 608c 7639
00000090: f209 5f39 a3ff 6439 336b 6b39 10c5 7739
000000a0: 3804 3339 ea5d 5139 dc21 7039 7634 9039
000000b0: 6ce6 9239 3978 4e39 6078 7c39 7f14 8e39
000000c0: 1f16 9d39 5a3d 9d39 6383 183a df01 313a
000000d0: 87dd 253a d58a ee39 3c44 a639 cedb 2d3a
000000e0: 5a39 363a 7faf 053a 8da2 8a39 26be 4d39
000000f0: 8e38 3c3a c5ea 1e3a 4331 8139 0217 ec38
00000100: e2fb f238 d0dd 313a 70e5 e439 f348 2039
00000110: 1879 aa38 c1e3 0a39 8396 263a 408c c939
00000120: 7bab 2f39 bf23 0639 98d9 7f39 1342 dd39
00000130: b527 e139 7461 e839 1bb4 163a 0984 2e3a
00000140: b14c 9839 5f7a a639 698e e139 596a 203a
00000150: df24 273a dee2 5c39 d66a 9839 ce9f f939
00000160: 8e34 183a 7d3e 053a 00e4 9639 8df4 dd39
00000170: cabd 0a3a 3a70 053a e09c c239 1a15 da39
00000180: c033 033a 6931 073a 8554 ea39 ebea af39
00000190: 6edd 043a df83 8339 5b7f 5b39 e585 3c39
000001a0: 4905 3939 be4a b539 2cd2 5239 0418 7f39
000001b0: 3368 8039 eba6 6439 e51e 7f39 8ab8 0e39
000001c0: c198 5d39 3c0b 8539 9c24 8739 8491 6939
000001d0: ea67 2339 d8f8 6b39 7803 8839 9d7c 9639
000001e0: d06f 9e39 f748 a639 d0f9 a639 4e50 8b39
000001f0: 6cae 9439 d5c8 9f3a 065f 993a ea87 923a
00000200: 43e6 963a de23 a53a 7054 923a e7b7 813a
00000210: 4fb3 6a3a 3e90 7b3a 6eae 8b3a 120f 453a
00000220: 892a 0e3a ff9e 163a 5572 463a 5e1e 653a
00000230: fa07 d339 15d0 8939 c3db b039 66df 0e3a
00000240: 147d 3b3a ed4a 8139 b161 5039 7f9d 9439
00000250: 78dc d339 f729 133a 2908 ee38 1a94 2b39
00000260: 8785 6b39 3115 5639 13e4 5c39 b407 4139
00000270: 4a93 8139 7352 8f39 6fb0 6739 6531 8439
00000280: 0748 ab39 2ec6 d439 1186 ab39 548f 9c39
00000290: 3fca a039 7c2c ea39 7cc7 e639 97f1 ab39
000002a0: 706d 9739 9be2 8c39 180b d739 8a97 ab39
000002b0: a7a9 6f39 5c80 4e39 94cb 3239 3e22 1739
000002c0: ebb2 5439 13f6 fd39 1865 533a 9714 583a
000002d0: 38bb c838 9ab1 1039 2332 f839 4f43 603a
000002e0: 63f2 503a 3072 a238 e69f fb38 5635 053a
000002f0: f95f 793a d9b9 4f3a 8db9 a138 ba70 2b39
00000300: 35a6 1f3a c1ef 813a 0b0a 553a 5fa1 0a39
00000310: 0bd8 ba39 1e46 423a 6b74 813a 3ec1 5a3a
00000320: c898 eb39 6d0d 8639 2079 0c39 1a41 ce38
00000330: a15f 3439 3377 7c39 0f09 cc38 f971 8538
00000340: 3adb 9a38 4fee 5239 c873 ce38 4c4e 8e38
00000350: c7f3 8c38 a409 fb38 6115 b739 ec0a 9a38
00000360: 339f b038 ee89 1539 0e83 b239 bb69 1a3a
00000370: 1680 eb38 1a0e 3039 162b ca39 370e 213a
00000380: db62 373a b15f e438 bbd0 8938 2ef3 bb38
00000390: c59c 7a39 307b ed39 fc3b b238 a737 6f38
000003a0: 304b e638 b7cd 9f39 1914 153a 9c78 0739
000003b0: d6e3 1739 b053 8039 44c7 f839 37be 3a3a
000003c0: c800 7639 bd18 a039 f36e f339 735c 433a
000003d0: ad04 503a da35 9d39 0b76 cf39 0232 203a
000003e0: 23ec 583a 1201 423a
0.001107001 0.0007944874 0.0004379803 0.00046999275 0.0007133415 0.0012524577 0.00073110015 0.00038984293
0.00048754996 0.00092635065 0.00139506 0.0010378215 0.00072177674 0.0009545768 0.0013937802 0.0015287128
0.0015103675 0.0016070972 0.0019053846 0.0018774185 0.0016577526 0.0018747643 0.0021807924 0.002396063
0.0019139178 0.0002791688 0.00031597514 0.00033021413 0.000258119 0.00017372788 0.00032768634 0.00030463637
0.0002784523 0.00024434453 0.00021185179 0.00023512682 0.00021270642 0.00021839007 0.00022451281 0.00023629167
0.00017072342 0.00019966779 0.00022900797 0.00027504907 0.00028018968 0.00019690477 0.00024077436 0.0002709962
0.00029961855 0.00029991084 0.0005817918 0.0006752293 0.00063272606 0.00045498335 0.00031712826 0.000663218
0.0006951295 0.00050996983 0.0002644252 0.0001962116 0.0007180058 0.0006062205 0.000246415 0.000112576425
0.00011586376 0.0006785067 0.00043658493 0.00015285965 8.128787e-05 0.0001324555 0.00063548255 0.00038442202
0.00016753182 0.00012792552 0.00024399755 0.00042201634 0.00042944928 0.00044323097 0.00057488837 0.0006657248
0.0002904884 0.0003175316 0.00043021448 0.00061193627 0.00063760387 0.0002106535 0.00029071298 0.00047612045
0.0005806171 0.0005082859 0.00028780103 0.0004233461 0.0005292563 0.00050902704 0.00037119444 0.00041595922
0.0005004965 0.0005157204 0.0004469493 0.0003355363 0.0005068396 0.0002508452 0.00020932911 0.00017978957
0.00017644944 0.00034578698 0.00020105456 0.00024327642 0.00024491697 0.00021805956 0.00024330204 0.00013610921
0.00021133108 0.00025376107 0.00025776483 0.0002227482 0.00015583602 0.00022504048 0.00025942526 0.00028703074
0.00030219415 0.0003171635 0.00031848112 0.00026571978 0.00028358714 0.001219059 0.0011701293 0.0011179422
0.0011512715 0.001259919 0.001116408 0.0009896726 0.00089531107 0.0009596384 0.0010656842 0.0007517199
0.00054232083 0.0005745738 0.00075701374 0.0008740182 0.00040251 0.0002628571 0.0003373307 0.0005450159
0.0007152122 0.0002466062 0.00019872819 0.00028346103 0.00040409318 0.0005613858 0.00011350244 0.00016363003
0.00022461089 0.00020416525 0.00021065799 0.00018408784 0.00024714536 0.00027336515 0.00022095603 0.00025213804
0.00032669326 0.00040583446 0.0003271555 0.00029861426 0.00030668263 0.000446651 0.00044017646 0.0003279566
0.00028882502 0.00026871715 0.0004101626 0.00032728567 0.00022856017 0.00019693509 0.00017051242 0.00014413238
0.00020284548 0.0004843926 0.00080640754 0.0008242814 9.5716154e-05 0.00013799072 0.000473396 0.00085549516
0.0007970689 7.746031e-05 0.00011998396 0.0005081495 0.0009512897 0.0007924117 7.71164e-05 0.00016349825
0.00060901354 0.0009913371 0.00081268017 0.00013220821 0.0003563765 0.0007410961 0.0009876614 0.00083448354
0.00044936524 0.00025568475 0.00013396563 9.8349716e-05 0.00017201762 0.00024076998 9.729165e-05 6.363163e-05
7.3841264e-05 0.00020115938 9.8444114e-05 6.7856716e-05 6.721127e-05 0.000119704084 0.00034920409 7.3453266e-05
8.421987e-05 0.0001426113 0.0003404845 0.0005890389 0.00011229531 0.00016789921 0.00038560544 0.0006143781
0.00069956266 0.00010889711 6.571548e-05 8.9621506e-05 0.00023900259 0.00045295944 8.4988744e-05 5.703387e-05
0.000109812594 0.00030480113 0.0005686894 0.00012919534 0.00014485358 0.00024476415 0.0004745071 0.0007123681
0.00023460679 0.0003053601 0.00046431235 0.00074524357 0.0007935267 0.00029985496 0.00039570066 0.00061109674
0.0008274933 0.0007400672

max_exp_avg_sq f4 [10, 1, 5, 5]
00000000: 1c54 913a 1fb6 503a 5f10 e639 8551 f739
00000010: 0d9d 3c3a 53ae a43a 9de1 3f3a c2b0 cc39
00000020: 2873 003a e028 743a 9d18 b73a a334 883a
00000030: bfd8 3d3a 0085 7b3a 39f3 b63a 95b8 c83a
00000040: ad6d c63a 77ea d33a f393 fa3a c243 f63a
00000050: 1cb5 d93a ddc5 f63a 5bb5 0f3b 7837 1d3b
00000060: 36f0 fa3a 5c1d 9639 0785 a639 0554 ad39
00000070: 9fde 8739 f807 3739 3f40 af39 5c62 a139
00000080: d48f 9439 1495 8039 e9a6 5f39 6cb8 7939
00000090: 8e19 6039 acfa 6839 04bd 6b39 8e74 7839
000000a0: 9e4d 3439 f3b6 5239 07a4 7239 5e87 9139
000000b0: 6ce6 9239 4943 5039 eef4 7d39 f7ac 9039
000000c0: 655e 9e39 5a3d 9d39 f8bb 193a 1845 333a
000000d0: 55ee 2a3a a69f f339 c797 a939 0847 2f3a
000000e0: dd60 373a 4314 0a3a 89a0 8c39 637d 5039
000000f0: 6c18 3e3a 49a5 203a 09a6 8339 3b1c ee38
00000100: 0827 f738 55da 323a cc3c e739 2f80 2239
00000110: 7482 ac38 09d0 0d39 c6b3 273a d5d0 ca39
00000120: 53f8 3139 3835 0739 e533 8239 c076 dd39
00000130: f66c e139 9530 ed39 0c45 173a 3839 2f3a
00000140: f4a4 9a39 42a6 a739 80b5 e239 38ea 203a
00000150: e771 273a e9fb 5e39 eaa5 9839 9b5a fa39
00000160: 6eb8 183a a046 073a 1492 9739 6d0a e039
00000170: de73 0b3a 94e5 053a 22b9 c439 0d8d dc39
00000180: da2e 053a b7be 073a eb2d eb39 d3c0 b039
00000190: 8212 053a ccde 8339 08ee 5b39 84dd 3c39
000001a0: b849 3939 1879 b539 3620 5339 c173 7f39
000001b0: 1f9c 8039 0517 6539 d271 7f39 dbec 0e39
000001c0: a7f4 5d39 074a 8539 ad64 8739 fcfe 6939
000001d0: ecaa 2339 8fdf 6c39 8637 8839 46c9 9639
000001e0: b637 9f39 a191 a639 d54c a739 2591 8b39
000001f0: 12fa 9439 f58d a13a 2d8a 9d3a 0d0d 963a
00000200: 42b6 9a3a 1bac a63a bd02 963a 052f 853a
00000210: 6a54 703a 5797 7f3a c17d 8c3a 1d73 4c3a
00000220: 7411 113a cd60 193a 859a 483a 2d23 673a
00000230: e7a6 d839 df54 8b39 5722 b339 c119 0f3a
00000240: d6d9 3b3a 7bcb 8339 fb48 5339 17d9 9739
00000250: d56f d439 73f8 133a c8d6 ee38 4dc5 2b39
00000260: c87d 6c39 6aae 5839 64be 6339 3ad6 4139
00000270: e0de 8139 81e6 9039 dcfd 6739 6531 8439
00000280: 3c19 ac39 2f0c d539 4fc3 ab39 5f72 9e39
00000290: cb16 a339 4361 eb39 98ab e739 df53 ad39
000002a0: 374d 9a39 e055 8e39 772d d839 6405 ac39
000002b0: 6956 7239 aa98 5239 cebc 3839 634a 1739
000002c0: b915 5539 8d6f fe39 c9d0 533a c280 583a
000002d0: 3557 c938 a09e 1139 42ee f839 38a7 603a
000002e0: e955 513a 80f5 a238 9672 fd38 1896 053a
000002f0: d0c4 793a f60d 503a 2b5d a238 0c69 3339
00000300: 83f0 1f3a b422 823a ecc1 573a 3ccb 0b39
00000310: b84a bb39 3356 423a 3eba 813a 6cd5 5c3a
00000320: b278 f039 4184 8939 8de8 0c39 1b40 d238
00000330: 2860 3839 dcf1 7d39 8936 cc38 1fc9 8538
00000340: 275a 9b38 474c 5539 8c5f d038 08a9 8e38
00000350: 9d50 9138 cba6 fd38 a7ce ba39 17ee 9a38
00000360: 417d b138 2715 1639 c9a2 b439 cb8b 1c3a
00000370: 2342 ec38 5190 3039 affe cb39 782b 233a
00000380: 3395 3a3a c991 e638 a65f 8b38 dafe bc38
00000390: 03e9 7a39 5a8a ed39 cfdd b438 e3cf 7138
000003a0: 2703 e738 aaec 9f39 1914 153a 90bd 0839
000003b0: 49c3 1839 21e3 8039 0ae4 f839 37be 3a3a
000003c0: c2f7 7639 f657 a039 67dd f339 c49d 433a
000003d0: ee26 503a e07c 9d39 4dca cf39 eb7e 203a
000003e0: 503e 593a 620d 423a
0.0011087689 0.00079617085 0.00043881216 0.00047172248 0.0007195033 0.001256416 0.0007319691 0.00039041607
0.0004899972 0.0009313952 0.0013969127 0.0010391664 0.00072420755 0.00095947087 0.0013957984 0.0015313799
0.0015138887 0.0016167898 0.0019117579 0.0018788504 0.0016609761 0.0018827278 0.0021928165 0.002398936
0.0019145075 0.00028632104 0.000317611 0.0003305973 0.00025915072 0.00017455209 0.00033426468 0.00030781596
0.0002833592 0.00024525134 0.00021329116 0.00023815193 0.00021371825 0.00022218627 0.0002248176 0.00023694543
0.00017195052 0.00020095315 0.00023140023 0.00027757412 0.00028018968 0.00019861491 0.00024219204 0.0002759469
0.00030206438 0.00029991084 0.00058644963 0.0006838604 0.00065204996 0.0004646752 0.00032347275 0.00066863047
0.000699533 0.00052673015 0.0002682249 0.00019883136 0.0007251564 0.0006128145 0.00025109973 0.00011353983
0.00011785148 0.0006822695 0.0004410505 0.00015497276 8.225898e-05 0.00013524307 0.0006397333 0.00038684034
0.00016972543 0.00012894429 0.00024834197 0.0004224088 0.00042996526 0.0004524036 0.00057704817 0.00066842465
0.0002949607 0.00031976594 0.00043241307 0.0006138417 0.0006387517 0.00021265414 0.00029115315 0.00047751222
0.0005825822 0.0005160365 0.000289098 0.00042732377 0.0005319695 0.0005107757 0.00037521968 0.0004206676
0.0005080529 0.000517826 0.00044856904 0.00033713 0.0005076305 0.00025152264 0.00020974141 0.00018011598
0.00017670437 0.00034613232 0.00020134528 0.00024361817 0.00024530382 0.00021847717 0.00024361096 0.00013630411
0.00021167342 0.00025422891 0.00025824216 0.000223156 0.00015608565 0.00022589996 0.0002598131 0.0002876019
0.0003036835 0.0003177049 0.00031909966 0.00026620287 0.00028415077 0.0012325632 0.0012019329 0.0011447981
0.0011803585 0.0012716086 0.0011444908 0.0010161108 0.0009167852 0.00097500294 0.001071863 0.00077991356
0.0005533912 0.0005850911 0.000765242 0.0008817192 0.00041323082 0.0002657538 0.00034167126 0.0005458855
0.0007165944 0.00025137872 0.00020149715 0.0002896271 0.00040519112 0.0005644627 0.000113887305 0.00016381331
0.00022553571 0.0002066434 0.00021719333 0.0001848572 0.00024770852 0.0002763756 0.00022124447 0.00025213804
0.00032825198 0.00040635603 0.00032761178 0.00030221322 0.00031106765 0.00044895158 0.000441876 0.0003305962
0.00029430698 0.00027148332 0.00041232604 0.00032810413 0.00023111109 0.00020084032 0.00017617943 0.00014428193
0.00020321355 0.00048529767 0.00080801226 0.00082589325 9.6006705e-05 0.0001388737 0.00047479762 0.00085698394
0.0007985519 7.77049e-05 0.000120853234 0.0005095913 0.00095279235 0.00079366507 7.742116e-05 0.00017109903
0.00061012077 0.0009928555 0.0008230496 0.00013331784 0.0003572309 0.00074133574 0.0009897423 0.00084241363
0.00045866292 0.00026229213 0.00013438072 0.00010025521 0.00017583428 0.0002421806 9.737636e-05 6.379396e-05
7.407768e-05 0.00020341678 9.93601e-05 6.802572e-05 6.929154e-05 0.00012095048 0.00035630653 7.38764e-05
8.463348e-05 0.00014312995 0.0003445356 0.00059717585 0.00011265676 0.0001683843 0.0003890893 0.0006224434
0.00071175693 0.00010994409 6.6458524e-05 9.0120084e-05 0.00023928662 0.00045307243 8.624384e-05 5.7652487e-05
0.000110155255 0.00030503172 0.0005686894 0.00013040588 0.00014568599 0.00024583287 0.00047472148 0.0007123681
0.00023552685 0.00030583114 0.0004651353 0.00074621686 0.0007940371 0.00030038413 0.00039632843 0.0006122428
0.00082871784 0.0007402507

exp_avg f4 [10]
00000000: a2ed e438 1fcd c138 d669 fc3a 3445 8bba
00000010: aff0 0cba 6947 e13a 319f 163b 990c 24ba
00000020: 51a6 203b bb70 8c3b
0.0001091615 9.241164e-05 0.0019257616 -0.0010625483 -0.0005376441 0.001718742 0.002298307 -0.0006257981
0.0024513195 0.0042858995

exp_avg_sq f4 [10]
00000000: 1ab9 553a 75f3 bc38 d11c 4339 7d2f 2139
00000010: 3f86 0439 4878 1b3a 3056 1339 f72a c039
00000020: 180e 8839 0c41 0439
0.00081528875 9.009886e-05 0.00018607384 0.00015371847 0.00012638512 0.0005930704 0.0001405112 0.00036653105
0.00025950442 0.00012612733

max_exp_avg_sq f4 [10]
00000000: 186f 563a 6bfd bc38 f941 4339 4a6f 2139
00000010: 2abd 0439 e2df 1c3a 48b8 1339 b1d6 c039
00000020: cfcf 8b39 bf12 0539
0.00081800064 9.011741e-05 0.00018621226 0.00015395615 0.0001265897 0.0005984289 0.00014087663 0.0003678105
0.00026666975 0.00012690852
