src/saved/models/Mnist_LeNet/1014_083735/checkpoint-epoch6.pth (torch_old, 355460 bytes, 32 tensors)

conv1.weight f4 [10, 1, 5, 5]
00000000: 01b6 46be d407 1cbe fc55 37be fe0f 963c
00000010: 79ea 0dbe e397 173e 4ce3 c2be 14b5 15bf
00000020: 22cb eabe ca4d e2bd 60fb c33d f77f 473e
00000030: 8846 2ebe 6d23 35be 0e50 dfbd e7a9 fa3d
00000040: 6961 f03d d191 c73e 93fb 173e 157a 493e
00000050: 278f 513e 23b9 583e 0aae 8c3e a9f2 d43e
00000060: 3434 ab3d 409d b33d afed 913c 2a8c 813e
00000070: 57f7 2b3e e3db a1be 8b25 413e 7177 193e
00000080: 967d 263e 22fd 303e a785 dc3d 753c 9abd
00000090: 94a6 22be c161 d03c cb5f 4dbc a337 523d
000000a0: def4 fdbd 64e8 91bd d499 8abc fff7 5c3e
000000b0: f3bb ea3c e347 0cbd 58d7 68bc 65a7 e43a
000000c0: 9e9a 243e dc75 403e 5204 503e 8273 413e
000000d0: ce5a 243e eda7 4b3e 38cc f0bb 16a4 9c3d
000000e0: 5697 913d b5f4 6f3e 7d3d e5bd fcfc b6be
000000f0: ae2c 7d3e 9f78 ac3e 1a45 0ebe e952 bebe
00000100: 309a 80be c6c6 463e 9c93 d33b c15b 42be
00000110: 889c e9be 1b73 603d 0f98 953e 814a 843d
00000120: e44d b2be 5ff2 9cbe 7f6a f43d bb36 903d
00000130: 28c0 ec3d 05f4 e4bd 5a0f e23d 38c6 803e
00000140: 0136 ffbc 2f94 bebd 5b70 a53d a7af 283e
00000150: 6ed1 753c 92b9 a4be cc6c 38be 4fd3 863e
00000160: e44f 7f3e 3a53 933d 3662 a7be 2b8b 623e
00000170: 826b 583e 3d09 7a3e f26f 17be e068 093e
00000180: 5c7d 793e c90a d43d c14d 853d 5dd4 1abe
00000190: 5015 873e 11ca 2ebe 449c 15bd 5511 1dbe
000001a0: 441b a1bd dce8 2fbc 2da4 94bd 3454 343e
000001b0: 840f 133e c5d9 4fbd bbda c03d b70e 9cbe
000001c0: 1bb9 503d cec3 d53c a6f8 51bd c5de c3bd
000001d0: 10f4 94be d616 84bc 9b05 1a3e d9b5 863e
000001e0: 52e0 36bc fdcb 2f3e 31ef 693e 3bbd c2bd
000001f0: 0d17 5b3e 3290 133e 76ba b33e a0c2 833e
00000200: 334f 5a3e 85e9 a53e 815f a43d 9cf4 543e
00000210: 5fd6 e33d 2d42 43bd 066f 633d 160d 65be
00000220: fa22 163d 2021 673d afa7 973d ee41 513d
00000230: 6d4e 85be 7405 6dbe fb02 adbd 0ec8 143e
00000240: a5f9 f43d 0acb 96be 6f9e d6be 4df5 97be
00000250: 7a35 d0be 5694 89be 5b6c a2be 90d7 1dbe
00000260: 105a d4bc e7f5 c43d 9f5a 6a3c 15d4 88bd
00000270: 5031 d9bd f0e2 d73c 6a31 65be b6d5 ce3d
00000280: 0f9a bf3a f568 913e 3d72 b5bd 5abe 2e3e
00000290: e195 6f3e d499 7a3e 86b0 1d3e 0702 633e
000002a0: 86dd 353e 5161 613e d83a cbbc 1697 29be
000002b0: 9b3b 1fbe 7149 f8bd eef6 8bbe 2b07 8bbe
000002c0: 0cf7 92be d779 22bc 6e9e 983e 7b35 d23d
000002d0: e679 b1be fbe5 4ebe 0cbe 5a3e 1640 fd3c
000002e0: 4228 16bd 8b36 a8be a4b4 79be e559 2f3e
000002f0: 78e0 9b3e b81a abbd b4a3 b9be 6787 87be
00000300: 9c1b f93d 6215 a03e 36b5 c13c 66a8 a4be
00000310: 5a3f 2bbd 13cb fabd 5ac0 9b3e 0330 833e
00000320: 22c5 573c 31e1 843d 93c2 49bd cff9 bfbe
00000330: dc99 0fbf 9520 393d 0f04 0dbe c0f9 d5be
00000340: f3ff d9be d728 8bbd feb7 1ebe 39fc e0be
00000350: b0c8 9bbe 895f 71be e4c9 603e 05f2 c5be
00000360: 1886 8fbe 6baf 37be b61c 223e 1b2d 873e
00000370: 8dc2 18bf c2c2 51be d92c 603e 6a5a 0b3e
00000380: c886 6a3e cfad 53be 7103 4ebe f705 bfbe
00000390: 0570 99bd ccbd cb3c 2e29 0dbe f606 52be
000003a0: 9185 a5be 3fe2 ceba 4d92 b33d 3787 9abe
000003b0: 9a9a f1bc f0c7 81bc 1ec9 a4bd 27dc 763e
000003c0: f8b6 8dbd 2085 05bd d99a 36bd 4e15 0f3e
000003d0: fafe 9d3e 1805 6d3d b145 d4bd 028f a23c
000003e0: 1a83 873e 7215 8d3e
-0.19405366 -0.15237361 -0.17903894 0.018318173 -0.13858975 0.14804034 -0.3806404 -0.5847943
-0.45858103 -0.11049993 0.0956943 0.19482408 -0.17019093 -0.17689295 -0.10903941 0.122394376
0.117373295 0.38978437 0.14842062 0.19675477 0.20464765 0.21164374 0.2747653 0.41591385
0.08359566 0.087702274 0.017813532 0.2530225 0.16793571 -0.31613073 0.18861978 0.1498697
0.16258845 0.17284063 0.1076768 -0.075310625 -0.15883857 0.025437238 -0.012535046 0.05132259
-0.1240022 -0.07124403 -0.016919054 0.21578978 0.028654074 -0.034248244 -0.014211498 0.0017444907
0.16074607 0.1879496 0.20314148 0.18891719 0.16050264 0.19888277 -0.0073485635 0.076484844
0.07108943 0.23433192 -0.111933686 -0.35739887 0.24724075 0.33685777 -0.13893548 -0.3717263
-0.25117636 0.19411764 0.0064568054 -0.18980314 -0.45627236 0.054797273 0.29217574 0.06459523
-0.3482505 -0.30653664 0.11934375 0.07041689 0.115600884 -0.111793555 0.11038084 0.2515123
-0.03115368 -0.093056075 0.08078071 0.16473256 0.015003545 -0.3217283 -0.18010253 0.2633309
0.2493282 0.071936086 -0.32692116 0.22123401 0.21134761 0.24417587 -0.14788797 0.13418913
0.24364227 0.103536196 0.06508971 -0.15120073 0.26383448 -0.1706927 -0.03652598 -0.15338643
-0.07866529 -0.01073667 -0.072578765 0.17610246 0.14361387 -0.05074479 0.094167195 -0.30479977
0.05095778 0.026094344 -0.05126252 -0.09563974 -0.29092455 -0.01612417 0.15041201 0.26310614
-0.011161881 0.17167659 0.2284515 -0.09508749 0.21395512 0.14410475 0.35103196 0.25734425
0.21319275 0.32404724 0.080260284 0.20796436 0.111248724 -0.047670532 0.055525802 -0.22368273
0.03665445 0.056428075 0.0740503 0.051088266 -0.26036397 -0.23146611 -0.08447834 0.1452944
0.119616784 -0.29451782 -0.4191775 -0.29679337 -0.406658 -0.26870984 -0.31723294 -0.15414262
-0.025921851 0.09617215 0.014303832 -0.066810764 -0.10605109 0.02635333 -0.22382131 0.10099356
0.0014618057 0.28400388 -0.0885968 0.17064801 0.23397018 0.24472743 0.1539937 0.22168742
0.17760286 0.2200978 -0.024808332 -0.16561541 -0.15550081 -0.12123383 -0.2733683 -0.27153906
-0.28704107 -0.009916744 0.29808372 0.10264107 -0.34663314 -0.20204918 0.2136156 0.030914348
-0.036659487 -0.32854113 -0.24385315 0.17124136 0.30444694 -0.083547056 -0.36257708 -0.2647049
0.12163469 0.31266314 0.023645978 -0.32159728 -0.041808464 -0.122457646 0.3042019 0.25622568
0.013169559 0.06488264 -0.049257826 -0.37495276 -0.56094146 0.04519709 -0.1377108 -0.41792107
-0.42578086 -0.06794899 -0.15499875 -0.4394243 -0.3042655 -0.235716 0.21952015 -0.3866121
-0.28031993 -0.1793801 0.15831265 0.264016 -0.5967186 -0.2048445 0.21892108 0.13608709
0.22902977 -0.20671771 -0.201185 -0.37309238 -0.07492069 0.024870776 -0.1378524 -0.20510468
-0.32328466 -0.0015783979 0.08768139 -0.30181286 -0.029492665 -0.015842408 -0.080461726 0.24107419
-0.06919664 -0.03259766 -0.044581268 0.13972971 0.30858594 0.057866186 -0.10364855 0.019843582
0.2646721 0.27555424

conv1.bias f4 [10]
00000000: 1eba 663e f1a2 87bd 0b7c 6f3d ab01 6ebe
00000010: 622a b13d c362 2c3e 319a 973d 0be4 8abe
00000020: 254c fd3d b73a 233c
0.22531936 -0.066228755 0.058467906 -0.23242824 0.08650662 0.1683455 0.074024566 -0.27127108
0.12368039 0.009962729

conv2.weight f4 [20, 10, 5, 5]
00000000: af7c 3a3c 1568 87bc 30df 80bd c197 cebc
00000010: 5875 d5bd d34b 163e 7d04 2a3e 90be b43d
00000020: 81e4 09bc d760 b9bd 974a 3f3d 150f d23d
00000030: 4d2f 423d dcda 2abd c24f 55bd 77d4 0e3c
00000040: b220 9c3b b967 45bd 92ac 97bd 9585 13be
00000050: 938b 303e 21c6 b7bd 019f 64bc f83f 58bd
00000060: 3d97 f7bd 7f21 97bc 64cf 37bc 64af 4fbd
00000070: 6e29 41bc a96d 163c cb36 853d f05a 04bc
00000080: 6c7e 223d 7fd9 bebb 38ed 4e3c eed5 903d
00000090: ecfd d23c 9445 8a3c c62f 6b3d 49da 123d
000000a0: 878c 553c 38b5 983d 4fa9 333d 9995 bf3c
000000b0: e242 97bc 57c1 53bd 3289 64bd ab75 9abd
000000c0: 2205 c3bc c7b5 c2bb be13 49bb 4637 c13d
000000d0: e17c 3cbc 6132 593c ee33 c5bd 2f19 07bd
000000e0: 5259 24be c23b 16bd b47a 993d b495 80bd
000000f0: 8ddf fbbd 6eaf dfbd 5aa8 513d c963 5b3c
00000100: 4dc5 ecbc bd45 423d 43dc c23c 9602 463d
00000110: bc54 a6bd 9b9b 08bb 5912 c13d 4faa 28bd
00000120: 9706 433b b1b3 9e3d 13d4 b93d e2cc 3d3d
00000130: 74af adbd 57f8 8cbd e705 d93d 7deb b73d
00000140: e0e4 41bc 99db 953d 7b39 78bc 8a8d 6ebc
00000150: e2b9 86bc 218f 0e3d 36aa 8cbc 6957 f63a
00000160: 1ee4 803d e220 353d f3ab 063d 53af 163c
00000170: 406b 723d e1d7 02bd aa3c 31bc b5f7 453c
00000180: 104d e6ba ef5c ef39 6977 06bd a064 acbd
00000190: 70d4 e53c 188f 3abb b004 23bd 4566 1c3d
000001a0: 58e8 403d 1102 d63d 49b2 cd3d 6fdc a53d
000001b0: 88b2 643d 0330 27bd ec80 a23d 591f e83c
000001c0: ab7c b53d ed06 6f3d d408 17bd 0e8d cf3b
000001d0: 8d82 643d 869e 273d 2bb2 acbd 4838 bfbd
000001e0: e202 d1b9 d0bf 943c 17a3 c4ba f7ff 87bd
000001f0: 328a 57be d858 37bd ac89 20be 2a0d 3fbe
00000200: eeeb 51be 4401 24be 9b82 ca3c a6f9 bfbd
00000210: c516 20be 3dad 86bd 7132 8f3c 9086 2b3d
00000220: 1a3d 663d 0c3d c73d a808 38bc b9bc a1bb
00000230: fd5b 303e 3085 f23d f8ca ad3c f97c 013e
00000240: 9f70 823d 00a3 28bd 6cf6 8b3c db33 7cbd
00000250: 730a 333d 58b3 8f3d f6c8 c13d 6ffc 14bc
00000260: 2585 9cbd 93a4 4e3d 3fd5 bfbc 04b5 6a3c
00000270: 7567 1bbc 962b 7f3d 872a d03c 67e3 873d
00000280: 7dfb a53d 4d67 9e3d 3f05 ab3d 4878 07bc
00000290: 7188 93ba 6bea 93bc dcd2 a63d 15d2 db3d
000002a0: 3621 3d3d 5efc 6f3d 2713 0fbd 621a 6fbc
000002b0: 057d 6ebc 0a92 8abd 9e00 f9bd 6e2d 89bd
000002c0: 1380 0dbe 9c72 1ebe 63b8 a73d 9b2e 3c3d
000002d0: 4d59 5cbd 9c96 79bd 4e14 10be 0102 523a
000002e0: 59d0 a53d b3fb f4bd 9278 92bd 4ecf 2dbd
000002f0: 0745 083d 3e04 a73c 5ac1 a8bd b6ad 18be
00000300: 30a6 98bc f939 c63d 45a9 74bd 43c0 57bd
00000310: 1e04 a8bd d2a2 b8bc 33ef babc 1098 aabd
00000320: ed02 c93b 35e2 04be ce5e 81bd 1fd5 d6bc
00000330: 2c0c bd3d a06f 8cbd 7cc2 0fbe 4390 93bc
00000340: 33ad 6e3c f1cf d03d 1f9b eabd 5031 1ebe
00000350: dabb b8bd cec2 debd dd4f 693b 9b3c 90bc
00000360: 717e 2b3d 3201 42bd 742c 60bd bc36 af3d
00000370: 748b 263e ff45 623d 2dd8 d73c 9618 d33d
00000380: 668c 0e3d 9f0c 2fbd 509b 24be 744c b4bc
00000390: dd69 a43d 4f40 663d f9e5 85bd 7a34 adbd
000003a0: 9231 a03c e6e4 cc3d 602f 513d 503a cbbc
000003b0: 1a8f 30bd dd84 93bc 38f3 d23d 2c86 983d
000003c0: 83a1 543b 7111 033d 5eb3 433d a981 663d
000003d0: cfe3 51bd 3741 ae3c 32df 5bbd 7e6d 213d
000003e0: defd 7e3d aa8b 84bd 4606 10bd 29b8 32bd
000003f0: aa3b c23c 386b 98bd ba52 2cbd f665 9c3d
0.011382266 -0.016529122 -0.0629257 -0.025218846 -0.10422772 0.14677362 0.16603275 0.088254094
-0.008416296 -0.09051674 0.046701994 0.10256783 0.04740839 -0.041712627 -0.052078016 0.008717648
0.00476464 -0.04819462 -0.07405962 -0.14406426 0.17240743 -0.08973337 -0.013953925 -0.05279538
-0.12089393 -0.01844859 -0.011218879 -0.050704375 -0.011789663 0.009181418 0.065045916 -0.008078322
0.039671347 -0.0058242674 0.0126298 0.07072054 0.025755845 0.01687888 0.057418607 0.035852704
0.013033993 0.0745644 0.043862637 0.023386763 -0.01846451 -0.051698055 -0.055794902 -0.07541975
-0.023806158 -0.0059420797 -0.0030681933 0.09434371 -0.011504383 0.01325664 -0.096290454 -0.032983
-0.16049698 -0.036678083 0.07494107 -0.062785536 -0.12298498 -0.109221324 0.051185943 0.01339049
-0.028902674 0.04742979 0.02378667 0.04834231 -0.081216305 -0.0020844701 0.09427328 -0.041178044
0.0029758567 0.07749117 0.09073653 0.04633797 -0.08480731 -0.068833046 0.10596829 0.08980463
-0.011834353 0.073172756 -0.015150423 -0.014560113 -0.016446058 0.034804467 -0.017171007 0.0018794361
0.0629351 0.044220813 0.032878827 0.009197074 0.059184313 -0.03194416 -0.010817686 0.012082984
-0.0017570574 0.00045654873 -0.032828722 -0.0841763 0.0280554 -0.0028466638 -0.039799392 0.03818347
0.04709658 0.10449613 0.10043771 0.08098685 0.055834323 -0.040817272 0.07934746 0.02833526
0.08861669 0.058356214 -0.036873654 0.0063339537 0.055788565 0.040922664 -0.0843242 -0.09336907
-0.00039865734 0.01815787 -0.0015002218 -0.06640618 -0.21048811 -0.044762462 -0.15677518 -0.18657365
-0.20500156 -0.16016108 0.02472048 -0.093737885 -0.15633686 -0.06576011 0.017480107 0.041876376
0.056210615 0.09728441 -0.011232533 -0.0049358276 0.1722259 0.1184181 0.021214947 0.1264533
0.06369137 -0.041171074 0.017085277 -0.06157289 0.043711137 0.07016629 0.094621584 -0.009093388
-0.07642583 0.05044992 -0.023417113 0.014325384 -0.009485115 0.062297426 0.025410904 0.066351704
0.08104608 0.07734547 0.0835061 -0.008268423 -0.0011255873 -0.018056115 0.08145687 0.10733429
0.04617425 0.058590285 -0.034930374 -0.0145936925 -0.014556174 -0.06766136 -0.12158321 -0.06698118
-0.13818388 -0.15473408 0.08189466 0.045942884 -0.0537961 -0.060934648 -0.14070246 0.0008011163
0.0809638 -0.1196207 -0.07151903 -0.04243403 0.033268955 0.020387765 -0.08240004 -0.14910015
-0.018633932 0.09679026 -0.05973174 -0.05267359 -0.0820391 -0.022538576 -0.022819137 -0.08329785
0.006134382 -0.12976916 -0.06316911 -0.026224671 0.09230837 -0.06857228 -0.14039034 -0.018013125
0.014567661 0.10195912 -0.11455368 -0.15448499 -0.09020205 -0.10877 0.003560058 -0.017607024
0.04186863 -0.04736442 -0.054729894 0.08555362 0.16264135 0.055242535 0.026348198 0.10307424
0.034801863 -0.042736646 -0.16074872 -0.022009112 0.08028004 0.056213673 -0.065380044 -0.08457275
0.019554887 0.100045964 0.05107057 -0.024808079 -0.043105222 -0.01800769 0.103002965 0.07447466
0.0032444901 0.031999055 0.04777848 0.056275997 -0.051242646 0.021271331 -0.053679653 0.03941106
0.062253825 -0.06471951 -0.035162233 -0.04363266 0.02371009 -0.07442325 -0.04207108 0.07636635

conv2.bias f4 [20]
00000000: 8467 053d 9001 a0bd 1a1f adbc c52d 9bbc
00000010: c57d 4b3d ecdb 883c e215 96bc de4b 833d
00000020: eea2 3b3d 66ef d83d 4062 49bc 7540 9d3d
00000030: 95ba a1bd 803e 083d 9c95 2d3d 3225 be3c
00000040: d148 28bd 4696 94bd d746 e73a 2e0c 933d
0.032569423 -0.07812798 -0.021132994 -0.018942723 0.04968049 0.01670643 -0.018320981 0.06410955
0.04580968 0.10592537 -0.012291491 0.0767831 -0.07896916 0.03326273 0.042379007 0.023211095
-0.041085068 -0.07255225 0.0017645013 0.071800575

fc1.weight f4 [50, 320]
00000000: bfe2 e93c b611 353d 04db 1ab9 b375 9e3d
00000010: e656 da3d 7bf9 503d 382e 80bd 026e 1ebd
00000020: 0642 50bc 470c 37be 3d76 13be 116f aebd
00000030: 0c6a 49bd d432 66bd f48d 603a 4617 23bd
00000040: 1dab 1d3d c02b 41bc b62c 6d3d 96a2 da3d
00000050: d291 143c fecb 9ebb e972 3a3d 9696 14bd
00000060: 5576 9b38 249b eabc fa2d 053d 277b 9a3d
00000070: e6e4 11bd f9fb 20bd cb89 a6bd ce5f 0e3b
00000080: 6ae5 ee3b c58e 203d 61fd 4d3c 9eb6 0bbb
00000090: c2af 03bd 0775 9cbc 9efc ab3c 5c38 d8bd
000000a0: e912 a3bd 18d3 183d a855 95bc 52e0 8cbd
000000b0: 1620 43bd c9e4 353d 2686 18ba b125 d83d
000000c0: 4acf 4fbd 2e20 60bc 1867 d7bd ea68 22be
000000d0: 5570 9d3b c63a 2fbd daac dc3c f3db 683d
000000e0: 8a51 67bb cebc bdbd 31da ed3b f5b0 b13d
000000f0: 27eb 52bd ca93 d0bc 5a63 bf3d d3a4 aa3d
00000100: 359c b4bd b851 83bd f698 b9bd d89b 07bd
00000110: efc3 b03b 40a8 eabd f972 6e3d 1c95 cd3d
00000120: 81dd ca3d 1902 103a fec1 85bd 4d85 74bd
00000130: e0bc dd3d 9f39 7ebb 3c7f bebd 2b42 5ebd
00000140: 3959 cc3c 1b63 683c f7ba 06bc a8d9 173c
00000150: 50e0 acbc 0933 74be d79b e6bd cdbc 8ebd
00000160: 8cff 1dbe 2d36 9aba 510f f8bb b961 41bd
00000170: 956b c63c 8c7e 453d cc02 3cbc 3d89 cdbd
00000180: 3f54 153c 0433 ae3d 6af9 f63d 6c50 593d
00000190: b630 04bd 8d90 82bd 2ce7 3abb a272 00be
000001a0: 679f 42bd fb3f 3a3c 7162 ad3d 6e4d 55bd
000001b0: f460 413d 51fc f63c b4e5 d23c ea6b 21bd
000001c0: 1e46 073d a38d c3bb de51 fabc 7e3b 6f3d
000001d0: b3ee 793d 829e dcbc be02 933c b875 9f3d
000001e0: f4b5 a6bb 8bfa 903d c7b3 363d 4a14 363d
000001f0: 63c9 ba3c e7c8 113b d7b4 07bd d484 e5bb
00000200: eb50 ab39 5f6e b0bd 72d9 4cbd 2543 d23b
00000210: 5677 4abd 34e6 1cbd edf0 98bc fdb2 0d3e
00000220: c64a df3b 7ae5 213d 013a 2cbd e0a6 ec3b
00000230: 115c 803d 90f9 113d 3d1b 453d fd50 9fbc
00000240: d65b 8c3d 4215 f5bb c561 223c dd7d a13d
00000250: 5736 a23d 25a2 cfbd afd9 903d d71c 893d
00000260: f680 55bd fe7b 8fbd b999 a8bd 8e44 5dbd
00000270: 708d 95bc cf63 13bd 04bb 20be 7dc5 eebd
00000280: 274a adbd 5b4f 30bd 2c3c e5bd 7a4e 76bc
00000290: dce3 12bd d1e1 5d3a 15a0 a6bd 0548 c13c
000002a0: ead2 d03c 5d2e 483d 9ce1 74bd 8595 d8bb
000002b0: 4a0d 9b3d b05c bd3d e9eb ab3c debe e3bc
000002c0: 40b6 983d 35fc 403d 3e01 17bc a863 2b3c
000002d0: e37d 2cbe ff59 f4bd 571b 30be fd59 983c
000002e0: c6e5 ccbd 2e8f 6bbc 2df7 3e3a b697 e9bd
000002f0: 827f 99bd 7580 d83d a797 65bc 26b9 42be
00000300: a617 683c 6097 01be 6ccc 8cbd a530 ac3c
00000310: fa92 843b 04e5 043a f8e9 973c bb7e 433c
00000320: e1b6 ea3d e689 94bc 38e5 b63c 34b1 68bc
00000330: 20a7 d53c cec1 ae3c 7ff1 05bd 4867 ccbc
00000340: 29da 22bd a94a b2bd a9e9 67bd 06a1 03bd
00000350: 22fe 70bc 23ed dc3c 9ca5 9fbc d69e 92bd
00000360: b6da c73d 446d a63c 1f69 32bd 529d 8b3d
00000370: 2436 b4ba d967 61bd c66c ab3d 7249 fa3b
00000380: 0165 1d3c a329 34be 39d1 91bd f6a8 27bd
00000390: 1f32 b5bc 75b8 9c3d e2e6 eb3d 046d f6bb
000003a0: 01c8 303c b487 0a3e afe5 fc3c 164d 8dbc
000003b0: 0fce 86b9 2f46 883c acc9 4d3d 9fea 9cbc
000003c0: 413f a6bd 6535 943c d73e 5abd 179d f1bd
000003d0: 5817 373d 15ee eebc ab78 c73d 2ba5 14bd
000003e0: 0018 acbc 711d 3e3d d4f0 b03c d4bc ed3b
000003f0: 738f 743d 2f1e a73d 1774 533d 820f a6bd
0.028550504 0.044206344 -0.00014768174 0.07737293 0.10661106 0.051019173 -0.062588155 -0.03867913
-0.012711054 -0.17875777 -0.14400573 -0.08517278 -0.0491734 -0.056200817 0.00085660745 -0.039817117
0.038493264 -0.011790216 0.057903968 0.10675542 0.009067969 -0.004846095 0.045519743 -0.036276422
7.413017e-05 -0.02863843 0.03251455 0.07543021 -0.035618685 -0.0393028 -0.08131751 0.0021724585
0.007290532 0.039198656 0.012572617 -0.0021318565 -0.032150038 -0.019098772 0.02099448 -0.10557625
-0.07962591 0.03731069 -0.01822932 -0.06878723 -0.04763802 0.04440764 -0.00058183295 0.10554064
-0.050734796 -0.013679547 -0.105177104 -0.15860334 0.004804651 -0.04278066 0.02693789 0.056850385
-0.0035296404 -0.09264527 0.0072586765 0.0867633 -0.05149379 -0.025461096 0.09345122 0.08332219
-0.088188566 -0.06412071 -0.09062378 -0.03310761 0.005394451 -0.114578724 0.058215115 0.10038206
0.0990553 0.00054934766 -0.06531142 -0.059697438 0.10827041 -0.003879167 -0.09301612 -0.05426232
0.024944888 0.014183785 -0.008223287 0.009268202 -0.021103054 -0.23847593 -0.11260193 -0.06969605
-0.15429515 -0.0011765413 -0.0075701852 -0.047212336 0.024221221 0.048216388 -0.011475276 -0.10035942
0.009114324 0.08505824 0.12059291 0.053055212 -0.032273017 -0.06375227 -0.0028519137 -0.12543729
-0.0475153 0.011367793 0.08466042 -0.052075796 0.047211602 0.03014961 0.025744297 -0.039409555
0.033025853 -0.005967812 -0.030556615 0.058406346 0.061018657 -0.026931051 0.017945644 0.07786125
-0.0050876085 0.07079037 0.044605043 0.044452943 0.022801107 0.0022244991 -0.033131447 -0.0070043597
0.0003267595 -0.086148016 -0.05001206 0.0064166957 -0.049430214 -0.038305476 -0.01866957 0.1383781
0.0068143336 0.039525487 -0.042047504 0.0072220415 0.0626756 0.035638392 0.04812168 -0.019447798
0.06853454 -0.007479341 0.009911005 0.07885335 0.07920521 -0.101383485 0.0707277 0.06694954
-0.05212494 -0.070060715 -0.08232445 -0.054020457 -0.01825592 -0.035983857 -0.15696341 -0.11658762
-0.08461409 -0.04304443 -0.111931175 -0.015033359 -0.035861835 0.000846413 -0.08136002 0.023593912
0.025491197 0.04887234 -0.05978547 -0.006609621 0.07570894 0.09246194 0.020986514 -0.027800974
0.074566364 0.047115523 -0.009216605 0.010460772 -0.16844897 -0.11931228 -0.1719793 0.018597597
-0.10004763 -0.014377398 0.0007284757 -0.1140589 -0.07495023 0.10571376 -0.0140132075 -0.19015941
0.0141657945 -0.12655401 -0.06874928 0.02101929 0.0040458413 0.00050695264 0.018544182 0.01193207
0.11460663 -0.018132161 0.022326097 -0.014202405 0.026080668 0.021332648 -0.03270101 -0.024951592
-0.039758835 -0.087056465 -0.05661932 -0.032135986 -0.0147090275 0.026968544 -0.019488148 -0.07159202
0.09758513 0.020315774 -0.043557283 0.06817116 -0.0013749045 -0.055030677 0.08370356 0.00763815
0.009606601 -0.17594008 -0.07119984 -0.040932618 -0.022118626 0.0765237 0.11518647 -0.00752032
0.010789872 0.13528329 0.03087124 -0.017248672 -0.00025711997 0.016635029 0.050241157 -0.019154845
-0.081175335 0.018091867 -0.053282585 -0.11797541 0.044699997 -0.02916626 0.097398125 -0.03629033
-0.021007538 0.046414796 0.02159921 0.007255176 0.059707116 0.08160054 0.051624384 -0.08108427

fc1.bias f4 [50]
00000000: 2eb9 9e3d 25bb 02bb 1e2a 883d ca83 e13d
00000010: db56 f43c c742 f23d b4ad 4f3d 33fd e03d
00000020: 5f6e 433d d764 b7bb b0fc d93c f504 133d
00000030: 0a76 213e 7699 323e c3e8 b43d 28f2 033e
00000040: 61b5 7b3d 9b58 7f3d e370 a8bb b515 083e
00000050: 7b66 cf3d 4c50 543d 54b2 883c 565d d73c
00000060: f69d b23d cd00 a7bb c4ef a33c 8298 2b3d
00000070: 49c4 9f3d 2104 7c3d ef29 853d e9f0 b83d
00000080: d849 b33d 9157 a73d 2a3f 4d3d 2cef 2b3d
00000090: e42e 0e3e 3147 8e3d 3735 903b 5866 b33d
000000a0: 08dd 793d f741 be3d 84ee dbba c1ad 2fbb
000000b0: 9ce4 d73d c25d 383c f746 fd3d ea8e 683d
000000c0: 4fcf 083c 1f1b 943d
0.07750164 -0.0019947973 0.06648658 0.11011465 0.029826572 0.11829143 0.050702766 0.10985794
0.04771268 -0.005596738 0.026609749 0.0358934 0.15767685 0.17441353 0.08833458 0.12885344
0.061452273 0.06234036 -0.0051404103 0.1328953 0.101269685 0.05183439 0.016686596 0.026289623
0.08721535 -0.005096531 0.02001179 0.04189349 0.0780111 0.061527375 0.06502139 0.09030325
0.08754319 0.08170999 0.050109066 0.04197614 0.13885075 0.069471724 0.004400875 0.08759755
0.061001807 0.092899255 -0.0016779457 -0.0026806446 0.10541651 0.011252822 0.12367051 0.05677692
0.0083502075 0.072317354

fc2.weight f4 [10, 50]
00000000: 69d4 553e 3323 92be b84d 003e 625f 7fbe
00000010: 1adc 24be 0b71 7abe 56e7 813d 4309 1bbe
00000020: 30a7 cfbd d208 abbd 1c79 68be d6bf ca3d
00000030: e29b 08be f606 12be 3309 18bc c7b6 77be
00000040: 3f1a 7abe ae37 27be b091 243e dd5d debd
00000050: f364 093e 6ee4 90bc 11af 14be f89c fe3d
00000060: ae88 6abe 3828 0e3e af9c 41be b852 edbd
00000070: dd6c 5bbe c259 e53d c550 37be 4291 e33d
00000080: 7928 053e 527c 49bd 2846 1ebe cfdf 983d
00000090: 7050 c23d 7c51 d73d c87f b93d c3e1 213e
000000a0: 5cd6 9e3d f47d c13d 3c46 f7bd 1707 263e
000000b0: 6303 d2bd f83b a53d 4195 153e 04d6 9dbd
000000c0: c0bb 10be c6a0 9d3d 7d7b 453d 12a6 b6bd
000000d0: 9f4d 64be fbee 0d3e 6276 fb3d a829 d13d
000000e0: 9b4e 0a3e b6a1 3c3e d30e 6fbe ffd7 dfbd
000000f0: 7d84 9ebd e327 02be d4b3 d63d d206 de3d
00000100: f6ba 5fbe 4757 273e c3d5 18be f757 e63d
00000110: 8555 b13d 51a9 c33d 1512 1ebe 018e 3dbe
00000120: 56bb 6abe c5f8 173e d1be bf3d 01b3 57be
00000130: d5be 14be feb3 efbd fa7a d53d 7142 03bd
00000140: b217 943d 6d9f 023e 066a d23d 79fc a13d
00000150: f953 fa3d 9f6a efbd 81ef 84be f223 28bd
00000160: 5c07 99be 4e92 6fbe 7c66 1abe 5025 1bbe
00000170: 7ec2 48be 0625 71bd c299 a53d 71d9 80be
00000180: 3a06 143e d4e1 9ebe afa9 453e 1433 8ebe
00000190: 8581 5bbc dd93 acbd acf2 4fbe ca4f 0d3e
000001a0: cec1 05be c1bd bdbe a766 1c3e 4a84 f0bd
000001b0: ba5b 47be 78c9 133e b9b3 02bd f4ba 303d
000001c0: 2279 eabd a215 17be 56c7 7cbe 4a1a 753d
000001d0: 87ba 90bd 71ff 6abe 01a6 0e3e 2e63 033e
000001e0: 04f1 0cbe 9814 153d 6d81 173d 7009 7b3d
000001f0: c382 d93d b435 fe3d 63f2 e03d 25f4 34be
00000200: c390 f73d c60f ec3d 05d2 a43d 02a1 013e
00000210: f116 003e eb4e 303d 77f0 82be 149b fa3a
00000220: fbeb 25be 320a d73d 7cc4 ca3d bf9e a2bd
00000230: 294e 2ebd eba0 6b3d 9554 f43d cbd9 213e
00000240: cc3d 863d e4e4 8d3d c996 18be 1c3a 60bd
00000250: 538a 0fbe 3a8c edbc 1a0c e0bd d84b 2bbd
00000260: 6bf7 4cbe cdcf c8bd 6ce3 08be 6fb1 9fbd
00000270: 19e5 19be 2c79 5bbe 15db 943d 0939 223e
00000280: 5322 f23d ab03 e33d 6f07 da3d 5215 68be
00000290: e028 29be db70 0c3e 67a3 4c3d 3574 053e
000002a0: 3ae8 d7bb b07a f03d 58af 1abe bd84 1c3e
000002b0: 54d2 3abe d23d 3cbe 0a4f 8bbd 9593 07be
000002c0: ebee c4bd b3ca 023e 4ddb f73d c8f3 0c3e
000002d0: 79ee b23d ac74 41bc 62e0 1dbe 41bf 2a3d
000002e0: fe64 0ebc 0572 7cbd 4ba6 ce3d fc26 113e
000002f0: 9eda 93ba ff79 7dbb 649c 833c 02ff ddbc
00000300: 892d 973c a0fe 3cbd a197 a43d cf29 50bd
00000310: 53a8 0bbe 1cd3 5cbe aa35 d0bd f662 a53d
00000320: 841a c3bb 4de7 df3d f799 35be b37d cf3d
00000330: 43c2 e63d 4af9 813c dd75 0c3e d229 233e
00000340: a66e 8e3c 13fb 113e c84b c53d 6038 97be
00000350: 988e 2bbc 3d6e 393d c917 bf3d 789b f13d
00000360: 18c9 013e 72dc b5bc d250 b83d bb25 47be
00000370: 5e0c 1a3d ca73 06be 7255 0f3e 6168 1e3e
00000380: 9e52 2abd 8d00 a03d f58b 1a3e 7ff7 083e
00000390: bf2f 3bbd 436c 15be 351c 3abe ce96 babd
000003a0: f3c0 3b3d 4733 20be f9d1 bf3d 7cf2 0abe
000003b0: b4e0 a93d c536 2dbe a9b3 d63d bbd9 923d
000003c0: 795b 0fbe 7008 56be bbfd 5ebe b351 82bd
000003d0: bde2 45be bbe2 9d3d 4530 01be 9a57 253e
000003e0: 2d52 343e 83a9 9bbe c558 aabd f5bf dc3d
000003f0: af08 e23d 5976 c7bb de86 153e ca47 de3c
0.2088181 -0.2854248 0.12529647 -0.2493873 -0.16099587 -0.24457185 0.06342952 -0.15140252
-0.1013931 -0.08351292 -0.2270245 0.09899871 -0.13340715 -0.14260468 -0.009279537 -0.24190818
-0.24424075 -0.16329834 0.160712 -0.10857747 0.13417415 -0.017687049 -0.14519908 0.12432283
-0.22903702 0.1388253 -0.18907426 -0.11588043 -0.21428247 0.111987606 -0.17901905 0.1111169
0.1300372 -0.049190827 -0.1545645 0.07464563 0.094879985 0.10513589 0.090575755 0.15808778
0.077557296 0.09447852 -0.12073943 0.16213642 -0.10254552 0.08068079 0.14607717 -0.07706836
-0.14134121 0.07696681 0.04821347 -0.08918394 -0.22295235 0.13860695 0.12278439 0.102130234
0.13506548 0.18421063 -0.23345499 -0.1092987 -0.07740114 -0.12710528 0.10483518 0.108411446
-0.21848664 0.16341887 -0.14925294 0.11247247 0.0865889 0.09553779 -0.15436585 -0.18511201
-0.22923025 0.14840992 0.09362567 -0.21064378 -0.14525922 -0.11704253 0.104238465 -0.032045785
0.07231082 0.12756129 0.102741286 0.079094835 0.12223048 -0.11690258 -0.25963977 -0.041049905
-0.29888427 -0.23395655 -0.15078157 -0.15150952 -0.19605443 -0.0588732 0.080859676 -0.25165895
0.144555 -0.31031668 0.1930301 -0.27773345 -0.013397579 -0.0842664 -0.20307416 0.13799968
-0.13062212 -0.37058833 0.15273534 -0.11743982 -0.19468585 0.14432323 -0.031909678 0.043147042
-0.114488855 -0.14754346 -0.24685416 0.059839524 -0.07066827 -0.22949006 0.13930513 0.12830803
-0.13763815 0.036396593 0.036988664 0.061288297 0.10620644 0.12412587 0.109837316 -0.17671259
0.12088158 0.11526446 0.080478705 0.12659076 0.12508751 0.043044012 -0.25574085 0.0019119703
-0.162033 0.104999915 0.09900758 -0.07940435 -0.042555008 0.05752651 0.11930195 0.15805738
0.065547556 0.06928423 -0.1490127 -0.054742917 -0.1401761 -0.02899753 -0.10939808 -0.041820377
-0.20016257 -0.0980526 -0.13368005 -0.07797515 -0.150288 -0.21432942 0.07268349 0.1584207
0.11822953 0.11084684 0.10645949 -0.22664383 -0.16519499 0.13714926 0.04996052 0.1303261
-0.006588963 0.11742151 -0.15105951 0.1528501 -0.18244296 -0.18382958 -0.06802185 -0.13239892
-0.096158825 0.12772636 0.12102375 0.1376487 0.08736891 -0.011807602 -0.15417627 0.0416863
-0.008691071 -0.061632175 0.100903116 0.14175028 -0.0011280363 -0.0038677452 0.016065784 -0.027099136
0.01845433 -0.046141267 0.080367334 -0.05082112 -0.1363843 -0.21564907 -0.101664856 0.08075516
-0.0059540886 0.10932789 -0.17734514 0.10131397 0.11267521 0.01586594 0.13716836 0.15933922
0.017386746 0.14255933 0.09633595 -0.29535198 -0.010471009 0.045271147 0.093307085 0.117972314
0.12674367 -0.022199843 0.0899979 -0.19447987 0.03760945 -0.13130108 0.13997439 0.15469505
-0.041582696 0.07812605 0.15092452 0.13375662 -0.04569983 -0.1459208 -0.18174823 -0.09110795
0.045838308 -0.15644561 0.09366221 -0.13569063 0.08294812 -0.16915424 0.10483486 0.07170435
-0.13999738 -0.20901656 -0.21776478 -0.06363239 -0.19324775 0.07709261 -0.1261607 0.16146699
0.17609473 -0.30402765 -0.08317713 0.107788004 0.110368125 -0.006087106 0.14602229 0.027133841

fc2.bias f4 [10]
00000000: 69e2 3cbe 4abe 8a3e 379a ee3c eb9d 413d
00000010: 304c 93be bf2c 023e 426d 2cbb 9558 2bbd
00000020: 8e55 283e 122b 97be
-0.18445744 0.27098304 0.02912627 0.047269743 -0.28769064 0.12712382 -0.002631024 -0.041832525
0.16438887 -0.29525048

exp_avg f4 [10, 1, 5, 5]
00000000: 981d fe3b df53 4e3b 8dfa 1fba e68d 8fb9
00000010: 48f5 5b3a 3247 123c ed53 b73b 2dfd dd3a
00000020: 9c4b 9f3a 2853 d83a 589d cb3b 10ee b73a
00000030: f5f6 7cba ebd9 9d39 2094 f93a cd7b 6b3b
00000040: a29c 833a 5082 0838 0a6f ef39 915f 153b
00000050: 5ad1 be3b efd6 773b 10c7 b23a 23c9 60ba
00000060: 7afb 4eba 3aac 9dbb afdd 7bbb 2909 85ba
00000070: 4448 1eba 3028 e3b7 df3f 86bb c3ee 5dbb
00000080: eaf3 83bb 84bf 98bb 0bcc b8bb f820 2cbb
00000090: a862 93ba c7dc b6ba c200 abbb 6cef c7bb
000000a0: 7584 e8ba 03a6 dbba b446 21ba 1bd3 58bb
000000b0: 392a 7bbb c48a c4ba b29a a4ba b5b1 2bb9
000000c0: b166 18bb 8816 36bb 3426 b13b c7ce 923b
000000d0: 350f cc3a d301 32b8 0c78 fe38 66c3 683b
000000e0: f64e 043b 2ebe 6d3a dc8e 413b bae3 cf3a
000000f0: fc89 be3a 34d0 eeb9 d975 283b 1197 783b
00000100: 1db7 bd3a 82c4 80ba 728f 823a bdb0 653b
00000110: c4c8 403b aa35 3cba 04ff fe39 3115 5a3a
00000120: 8b7a 123b 4546 46ba 0f5b c8ba 8bf7 7a3a
00000130: b143 073b 916e df3a 2d80 65ba d292 a9bb
00000140: b8ce 7739 e86a 413b 071e 7b3b 0b12 35b8
00000150: 484f 99bb 161a 97ba ae3f 8d39 4b8b cc3a
00000160: 0138 a93a f77d 15bb 984e 42bb 38b0 3bbb
00000170: c1ae 8f39 6dda ad3a 87c6 053b 0b92 8bbb
00000180: a2ca 75bb efd6 1b3a e778 843b 7932 713b
00000190: d452 003b 9085 32ba 425d c83a 6f43 a539
000001a0: 5579 eb39 6d04 25bb e24b 8fbb 3db3 25bb
000001b0: 8ff4 6fbb 3cfd 3abb 1c55 fbba 8542 10bb
000001c0: 1ad8 d9ba c596 58bb cce9 2fbb 8f3c 053b
000001d0: 7631 81b8 e4ab 97ba 3c4b 80bb bc48 6bbb
000001e0: ce3f 493b 0e4d a43a 1e0a c23a 6eba ffb9
000001f0: 0b06 e2ba d315 3b3b 28c7 8e3b 1565 a1ba
00000200: 93fa b7bb 53f8 9ebb f500 8d3b ccd8 be3b
00000210: 95aa 473a 3c52 0fbb 8d33 e539 c886 aa3b
00000220: a324 9f3b 65b1 bdb8 5ac9 2e3a f325 883b
00000230: 8499 793b cae9 3c3b b770 36bb b9f6 06bb
00000240: f47c f23a 3e18 103b a6f3 9e3a 6acc 66bb
00000250: a62a 4ebb f5fa 54ba 9503 2a3a b70e 8e3a
00000260: 57c6 c43a 8597 a8ba 8f74 61bb 4a7e 303b
00000270: 04f6 383b eea6 873a 46c5 b2ba 0607 82bb
00000280: 34d2 4b3b 15ee 2f3b 3ca8 153a 609c 52ba
00000290: 3ae1 5cbb 6a66 4e3b af16 cf3a f5e3 c539
000002a0: c23e 9eba 8078 d1ba 0167 f33a e4cd 3b3a
000002b0: efb0 dd39 861b 4bb9 4ad1 d9b9 c3bc a33a
000002c0: e18f f93a 47ec 113b 6d68 17ba f2db 42bb
000002d0: 21f6 773a fbe3 0c3b 382c 0a3b c22e 853a
000002e0: 89b9 58bb f960 06ba 6f80 7239 4561 373b
000002f0: 93ea 0c3b fd80 e5ba 6928 eeb9 2982 38ba
00000300: 6c16 d239 d58b 973a 5325 d03a 02a0 3dba
00000310: f10e d3ba 25dc adba 57c7 8e3a ef80 913b
00000320: e813 89ba 691c 9cba e6c7 ad38 b6f5 cdb8
00000330: b7c0 7739 7b6b 5abb 5921 823a 0936 563b
00000340: 2367 8cb9 431f e939 9334 cbba 1b71 f13a
00000350: 1c04 623b 9919 8b39 59be 17b9 2863 bd3a
00000360: fc7b d53a 92dd aa3a c23e 2939 e966 e43a
00000370: 1e24 373b 7817 e43a 2200 ae3a 96e1 103b
00000380: 9c27 be3b 3f59 593a 7825 21ba cb27 2d39
00000390: fea8 f93a dd3e 3939 4014 7b3a 80d8 24ba
000003a0: c96b 593a 4fc1 f03a 47a9 9bb9 11ff ad3a
000003b0: 15a5 b13a e8e5 8c3b 1579 9c3b bdd4 983b
000003c0: 94fb 563b a5b8 8d3b 3c4a fb3b 0ef1 273c
000003d0: 9eda 343c 240b 7d3b 7a11 b73b 1f8d 103c
000003e0: 7b37 503c 5376 6f3c
0.0077549927 0.0031483097 -0.00061027036 -0.00027380808 0.0008390737 0.008928107 0.0055947215 0.0016936414
0.0012153271 0.0016504275 0.006213825 0.001403274 -0.00096498366 0.00030107735 0.0019041337 0.0035931945
0.0010041187 3.254629e-05 0.00045668363 0.0022792558 0.0058232965 0.003781732 0.0013639648 -0.00085748936
-0.00078957493 -0.004811791 -0.0038431694 -0.0010149825 -0.000603799 -2.7079222e-05 -0.0040969695 -0.0033864237
-0.0040268796 -0.0046615023 -0.005639558 -0.0026264768 -0.0011244612 -0.0013951295 -0.005218596 -0.0061015394
-0.0017739671 -0.0016757849 -0.0006152198 -0.0033084813 -0.0038324727 -0.0014994969 -0.001255831 -0.00016374032
-0.0023254568 -0.0027784426 0.0054061655 0.004480216 0.0015568497 -4.2440206e-05 0.00012134024 0.0035516857
0.0020188666 0.00090691715 0.0029534614 0.0015860714 0.0014536972 -0.0004555002 0.0025705008 0.003793184
0.0014474128 -0.0009824189 0.0009960963 0.0035047971 0.002941654 -0.00071796274 0.00048636657 0.0008319198
0.0022350873 -0.00075635716 -0.0015285927 0.000957363 0.0020639712 0.0017046501 -0.00087547564 -0.005174973
0.00023632764 0.0029513184 0.0038317458 -4.3170567e-05 -0.0046786405 -0.001152816 0.0002694106 0.0015605477
0.0012910367 -0.0022810677 -0.0029648896 -0.002863897 0.00027405287 0.0013263948 0.002041252 -0.004259353
-0.0037504812 0.00059448084 0.004042733 0.0036803766 0.001958062 -0.00068100635 0.0015286582 0.00031521494
0.00044913092 -0.002517964 -0.0043730596 -0.0025283836 -0.0036614274 -0.0028532287 -0.0019175145 -0.0022012305
-0.0016620189 -0.003304885 -0.0026842235 0.0020330285 -6.160412e-05 -0.0011571613 -0.0039152186 -0.0035901507
0.0030708197 0.0012535171 0.001480404 -0.0004877629 -0.0017244233 0.0028546944 0.0043572374 -0.001231345
-0.0056145876 -0.00485138 0.0043030926 0.005824184 0.0007616666 -0.0021869084 0.00043716692 0.0052040555
0.0048566624 -9.0452646e-05 0.0006667577 0.0041549145 0.0038085887 0.0028825873 -0.002783818 -0.0020593836
0.0018500374 0.0021987106 0.0012127056 -0.0035217055 -0.0031458526 -0.0008124554 0.0006485519 0.0010838126
0.0015012723 -0.0012862539 -0.003440175 0.0026930743 0.0028222809 0.0010349432 -0.0013639114 -0.0039681224
0.0031100633 0.0026844789 0.0005708968 -0.0008034166 -0.0033703581 0.003149415 0.0015799607 0.0003774461
-0.0012073147 -0.0015981346 0.0018570126 0.0007164164 0.0004228423 -0.00019369842 -0.00041545398 0.0012492168
0.0019040072 0.0022266076 -0.00057757535 -0.0029733148 0.00094589783 0.0021498192 0.0021083485 0.001016103
-0.0033069572 -0.00051261444 0.00023126764 0.002798156 0.0021502122 -0.0017509755 -0.00045425005 -0.00070384383
0.00040071027 0.0011562059 0.0015880264 -0.0007233621 -0.0016102475 -0.0013264461 0.0010893148 0.004440419
-0.0010458203 -0.0011910322 8.286517e-05 -9.820929e-05 0.00023627547 -0.0033328224 0.0009928151 0.0032686016
-0.00026779724 0.00044464515 -0.0015503339 0.0018420549 0.0034487313 0.00026531218 -0.00014471392 0.0014449107
0.001628756 0.0013036004 0.00016140475 0.0017425689 0.0027945112 0.0017402014 0.0013275186 0.0022107116
0.0058030616 0.0008291192 -0.0006147246 0.0001651339 0.0019047556 0.00017666393 0.00095779076 -0.00062883645
0.00082939543 0.0018368157 -0.00029690025 0.0013274868 0.0013553227 0.004299868 0.0047751763 0.0046640323
0.003280376 0.00432499 0.0076687615 0.010250343 0.0110384505 0.0038611377 0.0055868 0.008822708
0.01270854 0.014615613

exp_avg_sq f4 [10, 1, 5, 5]
00000000: 9104 2a3a bec2 ff39 6ddf 9439 9bca ab39
00000010: c952 fd39 8f60 3b3a 5497 e039 34ee 8839
00000020: bf52 b739 1336 323a a85f 5e3a 6078 2b3a
00000030: 2346 033a 7ebc 3a3a d444 8b3a c632 843a
00000040: cd35 883a c75b 9a3a 3722 be3a 78c0 ba3a
00000050: 69b1 9b3a 26b2 b13a 9a3f d13a b775 e93a
00000060: 2808 ba3a 45e4 5f39 c5c2 6939 93ac 6f39
00000070: 5f70 5239 192f 1439 eb0b 7639 b86d 6139
00000080: a579 4d39 c6c7 3439 46d6 1f39 4e1c 3139
00000090: 9c7d 1439 5494 1f39 96de 1d39 0d0a 2b39
000000a0: cf69 fd38 f29e 0339 df6f 1a39 6025 3a39
000000b0: 3f33 4339 d0d2 0b39 8577 2039 8b80 4039
000000c0: ffb3 5c39 a1d9 5839 0c1e d339 5dad 023a
000000d0: cc4b f639 ffb4 b039 2726 6d39 a058 f439
000000e0: f29b 083a 302f d139 8129 5c39 f596 1939
000000f0: a796 0a3a ab52 fb39 6402 5c39 4119 ca38
00000100: 9838 be38 fdd3 053a add4 ba39 8d71 0739
00000110: 591c 9238 e215 d138 8862 ee39 f9f1 9b39
00000120: ab61 1139 bca8 d438 f45a 2639 867b 9239
00000130: 04a4 9d39 b0f6 a439 0be1 d239 f995 e539
00000140: 366c 5a39 7192 7839 8146 9e39 945d d339
00000150: dc1a ca39 c0a0 1d39 29aa 5739 61ad a639
00000160: 3323 bd39 6924 a339 3c76 4b39 6261 9039
00000170: 4805 ac39 eb9f a239 d014 7a39 810e 8f39
00000180: 3546 a739 dcc6 a439 1b9d 8f39 67ab 6b39
00000190: d36b 8539 2783 0e39 8b8f 0d39 f477 0e39
000001a0: df38 1c39 4147 2139 4a33 0039 3905 2639
000001b0: 9b26 2a39 4c03 3439 b4ca 0039 978b d038
000001c0: 4308 1039 2209 2d39 fec5 3d39 ad4a 0339
000001d0: 3a04 eb38 afb4 1b39 41f5 3d39 6031 5139
000001e0: 5856 3839 ab00 4c39 2ebc 5339 f54a 4539
000001f0: c40d 5239 b445 6a3a 99fd 683a cd92 513a
00000200: 0a89 553a e542 623a 987a 613a 0b89 473a
00000210: edac 2b3a e33c 353a 3299 433a 4348 153a
00000220: f1ca df39 3b69 d539 db2c 0b3a 2401 1a3a
00000230: 88a3 9e39 58a7 5d39 382c 7a39 034e c339
00000240: 61ee ec39 4847 4739 06bd 2439 6c4c 6239
00000250: 6a88 9539 653d bc39 3ba3 a338 8c7c be38
00000260: 98ba 0639 428d 2039 8e89 3839 a9ed fb38
00000270: ec51 0e39 8aa7 2039 6a32 2639 d213 4239
00000280: 9d03 5339 f06d 5e39 a58f 4239 fc45 4939
00000290: deca 4f39 99c4 8239 eafd 7b39 9d61 5939
000002a0: d537 5139 f90e 4539 0063 6439 6d02 4739
000002b0: e415 2b39 38fd 2439 c733 0b39 91a8 c438
000002c0: bcd7 0239 d4b1 a339 1837 1a3a 4550 1c3a
000002d0: 4e26 8b38 d14f cb38 4caf b539 c77c 273a
000002e0: 9603 183a 403a 7338 cb83 d538 2d2c de39
000002f0: e52b 433a f84c 173a 0e7f 8a38 9f58 2a39
00000300: 578d 0c3a 81bf 4e3a 1476 1b3a cd03 ff38
00000310: 46bf af39 566f 243a 2697 463a b34c 1c3a
00000320: d66c 8739 af07 1239 8115 a338 ceeb 8438
00000330: 6550 0039 90c7 f938 3753 7438 9d24 3938
00000340: d4eb 6d38 9b27 1e39 ab67 6538 febc 3438
00000350: 4dea 4c38 f53f b338 df06 8539 5832 3d38
00000360: 9f46 5238 279f bf38 7683 7a39 0861 de39
00000370: b6f8 9a38 4f91 e038 856f 8d39 dfc7 ea39
00000380: 6311 073a 76df 9238 c550 5238 4926 8838
00000390: 8283 2439 40df 9139 07fd 5d38 f9f3 1b38
000003a0: 0f1b 9238 030c 4a39 8d9f b439 2a73 aa38
000003b0: 7c5d ba38 18bb 1d39 bead 9a39 d311 ed39
000003c0: de9c 1739 5779 4239 876b 9439 5c04 f939
000003d0: 7eba 083a 6662 5539 a424 8839 9311 d439
000003e0: b1ef 133a 2042 033a
0.0006485666 0.00048782484 0.00028395225 0.00032766614 0.000483176 0.0007147872 0.00042837358 0.00026117417
0.0003496613 0.0006798219 0.0008482882 0.00065410696 0.00050077046 0.00071234244 0.0010625371 0.0010085932
0.001039201 0.0011776619 0.0014506046 0.0014248034 0.0011878434 0.0013557121 0.0015964389 0.0017811571
0.0014193105 0.00021351974 0.00022293169 0.00022857105 0.00020069022 0.00014131925 0.00023464828 0.00021498546
0.0001959564 0.00017240559 0.00015243245 0.0001689058 0.00014161173 0.00015218678 0.00015055606 0.00016311575
0.000120836885 0.00012552345 0.0001472826 0.00017752266 0.0001861574 0.00013334607 0.00015303314 0.00018358433
0.00021047889 0.00020680438 0.00040267443 0.00049849396 0.0004697725 0.00033704189 0.00022616294 0.00046605337
0.0005211226 0.00039898744 0.00020996296 0.00014647453 0.0005286731 0.00047936043 0.00020981726 9.6368145e-05
9.0704474e-05 0.0005105136 0.0003563514 0.00012916904 6.967103e-05 9.9699726e-05 0.0004546831 0.00029744187
0.00013864662 0.00010140377 0.00015864876 0.00027939322 0.00030067575 0.00031464314 0.0004022199 0.00043790022
0.00020830412 0.00023705677 0.00030188638 0.00040314777 0.00038548454 0.00015032571 0.00020567387 0.00031791165
0.00036075115 0.0003111691 0.00019403634 0.00027538376 0.0003281033 0.00031018196 0.00023849611 0.00027285892
0.0003190503 0.0003142868 0.00027392138 0.00022475199 0.00025448072 0.00013591033 0.00013500282 0.00013586861
0.00014898505 0.000153807 0.00012226138 0.00015832939 0.00016226845 0.00017167366 0.00012282544 9.9442135e-05
0.00013735988 0.00016501968 0.00018098202 0.00012520952 0.000112064605 0.00014849262 0.00018115809 0.00019950187
0.00017579773 0.00019455205 0.0002019263 0.00018815308 0.00020032289 0.0008936778 0.00088878867 0.00079945923
0.00081457256 0.0008631184 0.0008601337 0.00076116686 0.00065489 0.0006913675 0.00074614875 0.0005694667
0.00042685078 0.0004070493 0.0005309113 0.0005874804 0.0003025795 0.00021138543 0.0002385833 0.00037251422
0.00045191034 0.00019004673 0.00015710676 0.00021581509 0.0002852113 0.00035903897 7.80285e-05 9.083105e-05
0.00012848747 0.00015311412 0.0001759885 0.0001201288 0.00013572694 0.00015321202 0.00015849774 0.00018508665
0.00020123874 0.00021212525 0.00018554793 0.00019194925 0.00019816632 0.0002494201 0.00024031816 0.00020731096
0.00019952592 0.00018792962 0.00021780655 0.00018979023 0.00016315986 0.0001573459 0.00013275362 9.377406e-05
0.00012478133 0.00031222275 0.00058828434 0.0005962889 6.635171e-05 9.694661e-05 0.00034653617 0.00063891377
0.0005798874 5.7989964e-05 0.0001018118 0.00042376053 0.00074452005 0.0005771662 6.6040186e-05 0.00016245477
0.00053616374 0.00078868127 0.0005930376 0.000121600555 0.0003352111 0.0006272694 0.00075756235 0.0005962357
0.00025830296 0.00013926507 7.776451e-05 6.3381725e-05 0.0001223698 0.00011910417 5.8251633e-05 4.4141536e-05
5.6724835e-05 0.00015082808 5.4694403e-05 4.3091357e-05 4.88556e-05 8.547298e-05 0.00025372856 4.5107998e-05
5.0133673e-05 9.137234e-05 0.00023890831 0.00042415434 7.389618e-05 0.00010708218 0.00026976704 0.00044780874
0.0005152432 7.003445e-05 5.0143124e-05 6.4921165e-05 0.00015689249 0.0002782289 5.2926156e-05 3.7182097e-05
6.9668626e-05 0.00019268696 0.0003445115 8.127683e-05 8.886584e-05 0.00015042385 0.00029502617 0.00045217443
0.0001445892 0.00018546484 0.00028308874 0.0004749623 0.0005215778 0.00020349919 0.0002596724 0.00040448885
0.0005643322 0.0005007107

max_exp_avg_sq f4 [10, 1, 5, 5]
00000000: a4e2 2a3a 8d9a 003a 8a81 9539 9a78 ac39
00000010: e4b7 003a c2d0 3b3a fef5 e039 4737 8939
00000020: 38f0 b839 4a60 353a f220 603a 1a2b 2c3a
00000030: 6ec3 033a 5f03 3e3a 85d0 8d3a 9f43 853a
00000040: 5171 893a 2381 9e3a 69e4 c33a aed3 bf3a
00000050: aae4 9c3a 314a b53a 278a d73a 4356 f13a
00000060: a9a0 be3a 4737 6239 f99c 6b39 a3f6 7239
00000070: fb93 5439 bd61 1539 209a 7939 f2c6 6139
00000080: 214a 4e39 6b1a 3539 64ef 2039 44bc 3439
00000090: 4ec7 1439 31d3 1f39 0a1d 1e39 9339 2b39
000000a0: 9ed1 0239 0730 0539 5af1 1c39 8e23 3b39
000000b0: 7cec 4339 8e8e 0d39 a2c6 2239 fa46 4539
000000c0: 37d8 5f39 f551 5a39 789f d439 5897 043a
000000d0: 27c0 f939 541c b339 be16 6e39 0ecf f539
000000e0: d7f7 0b3a cf99 d439 dee0 5d39 a18d 1b39
000000f0: 25a2 0c3a 3761 003a 6168 5d39 b8f1 cc38
00000100: fcd9 c438 2018 083a 081f bc39 b274 0839
00000110: 0faa 9338 1403 d338 7e79 f239 c2d2 9c39
00000120: 3100 1339 5a10 d638 cb20 2739 70b3 9239
00000130: 4ee6 9d39 991e a539 f703 d339 81d0 e539
00000140: d617 5b39 f1d6 7939 14d9 9e39 224d d539
00000150: c34c cb39 effa 1e39 9fc2 5839 55de a739
00000160: a4f0 be39 355f a339 647e 4d39 7c2e 9139
00000170: 6dba ac39 5459 a339 f05a 7a39 f61d 9039
00000180: e5c6 a739 90a5 a539 20cc 9039 c426 6c39
00000190: 1fe1 8539 373e 0f39 e113 0e39 aecb 0e39
000001a0: 7796 1c39 d8b7 2139 64e7 0039 ae56 2739
000001b0: eb74 2a39 0525 3439 33c9 0139 7d32 da38
000001c0: 8069 1139 16de 2d39 47ac 3e39 4ea6 0539
000001d0: 98f5 ef38 e3e7 1c39 f79b 3e39 f0d8 5239
000001e0: a836 3c39 dd7e 4f39 bc76 5739 9632 4739
000001f0: f0b9 5339 d55b 6b3a 9929 6c3a cee9 563a
00000200: 7b5a 5a3a 879e 673a db59 623a bdcd 483a
00000210: 7afc 2d3a 6174 373a a22a 463a ced2 153a
00000220: 00b3 e039 f046 d839 6907 0e3a 6898 1c3a
00000230: 3091 9f39 7719 6339 de94 8039 0dfc c839
00000240: be23 f239 7f78 4a39 b8b6 2f39 d59b 6e39
00000250: 0cb6 9839 2620 bf39 02fc aa38 0f44 c338
00000260: bbdb 0839 3e04 2239 54a8 3939 de46 0139
00000270: e53d 1139 a1b4 2139 3de4 2639 7b6a 4239
00000280: 7d74 5439 ebd8 6039 c23a 4339 fc45 4939
00000290: deca 4f39 9731 8339 4da0 8039 ee4d 5b39
000002a0: 7b04 5239 5f43 4539 2d07 6539 bad8 4839
000002b0: c6f9 2c39 3d8d 2539 538d 0b39 af49 c638
000002c0: e1ba 0339 284e a439 3bae 1b3a 371d 1d3a
000002d0: 034f 8c38 1485 cd38 1e24 b739 6ec2 2a3a
000002e0: 3ebb 193a d338 7b38 6f2d db38 4890 e339
000002f0: d0db 473a 0110 1a3a 62a8 8f38 e0c9 2e39
00000300: 8880 103a 0535 533a b1ad 1d3a f4ec 0539
00000310: ee3c b539 7b51 283a 81d7 493a 21a0 1c3a
00000320: 16ea 8839 b51a 1239 be41 a438 058e 8738
00000330: f4b5 0139 3236 fc38 e6a3 7538 9d24 3938
00000340: 9362 7038 9862 1f39 47ea 6738 fe29 3538
00000350: 4dea 4c38 e0d9 b438 c0e0 8539 50cd 3f38
00000360: 229d 5338 8110 c138 1962 7c39 e5db e039
00000370: 7a3a 9c38 82ae e238 4194 8e39 87f2 eb39
00000380: e757 083a 5aa1 9538 1d0e 5538 c420 8938
00000390: 88a0 2539 854d 9339 f91a 5f38 a2d2 1c38
000003a0: 5e39 9338 9995 4c39 5287 b839 0e7c ab38
000003b0: 8f3e bb38 3cbb 1e39 0054 9d39 8c6a f239
000003c0: 8484 1839 391a 4339 06a4 9539 9103 ff39
000003d0: eb9c 0b3a c9bc 5739 2561 8a39 6371 d939
000003e0: 4c24 183a 74ab 053a
0.00065187574 0.00049058424 0.0002851601 0.00032896252 0.00049102143 0.0007164591 0.00042907888 0.0002617186
0.00035274192 0.000691895 0.0008549831 0.0006567702 0.0005026375 0.0007248427 0.001081959 0.0010167247
0.0010486041 0.0012092929 0.0014945391 0.0014635229 0.0011970003 0.0013831315 0.0016444371 0.0018412549
0.001454373 0.00021573632 0.00022469823 0.00023170798 0.00020273023 0.00014246158 0.00023803907 0.00021531785
0.00019673306 0.00017271347 0.00015347969 0.00017236272 0.00014188627 0.00015242097 0.00015078872 0.00016329279
0.00012475855 0.0001270176 0.0001496723 0.00017846955 0.00018684746 0.00013499914 0.0001552352 0.00018813825
0.00021347484 0.00020820631 0.00040554604 0.00050579524 0.00047636146 0.00034162647 0.00022705921 0.0004688431
0.000533936 0.00040550387 0.00021159972 0.00014834713 0.00053647376 0.00048972986 0.00021115087 9.772502e-05
9.386611e-05 0.0005191583 0.00035881274 0.00013013443 7.041182e-05 0.000100618374 0.00046248356 0.00029911665
0.00014019084 0.00010207361 0.00015938577 0.0002798098 0.00030116964 0.0003149405 0.0004024801 0.0004383363
0.00020894347 0.00023826562 0.00030297844 0.00040683994 0.0003877637 0.00015161534 0.00020671867 0.00032018372
0.00036418915 0.00031160717 0.00019597408 0.0002769119 0.00032945295 0.00031156337 0.00023875735 0.00027488143
0.0003200091 0.00031594606 0.00027617905 0.00022521155 0.00025535465 0.0001366072 0.00013549581 0.00013618052
0.00014933372 0.00015422644 0.00012293231 0.00015958652 0.00016256019 0.00017179929 0.00012377351 0.00010404454
0.0001386758 0.00016581299 0.0001818399 0.00012745822 0.000114421535 0.00014963704 0.00018177913 0.00020107976
0.00017949438 0.00019788319 0.0002054823 0.00018996964 0.00020191795 0.00089782226 0.0009008884 0.0008198292
0.00083295227 0.0008835573 0.00086346053 0.0007660052 0.0006637048 0.0006998238 0.00075594534 0.0005715311
0.00042857975 0.00041251583 0.00054179743 0.0005973638 0.00030435016 0.00021657893 0.00024524977 0.00038334765
0.00046184467 0.0001930911 0.00016757369 0.000227555 0.00029127335 0.0003645431 8.153172e-05 9.3110015e-05
0.00013051827 0.00015451104 0.00017705682 0.00012328799 0.00013851335 0.00015421446 0.00015916019 0.00018540949
0.00020261291 0.00021443113 0.00018618538 0.00019194925 0.00019816632 0.00025023214 0.00024533496 0.00020914499
0.0002002883 0.00018812482 0.00021841815 0.00019154223 0.00016496246 0.00015788242 0.0001330872 9.4551004e-05
0.00012562751 0.00031338749 0.0005938743 0.0005993428 6.690437e-05 9.7999495e-05 0.0003493139 0.00065139576
0.0005864388 5.9895985e-05 0.000104511964 0.00043404312 0.0007624002 0.00058770186 6.850135e-05 0.00016669137
0.0005512317 0.0008056912 0.0006014957 0.0001277214 0.00034568406 0.0006420833 0.0007699654 0.0005974789
0.0002611435 0.00013933594 7.832375e-05 6.463755e-05 0.00012370182 0.00012026391 5.8565194e-05 4.4141536e-05
5.7312263e-05 0.0001520015 5.529288e-05 4.319287e-05 4.88556e-05 8.623651e-05 0.0002553519 4.572916e-05
5.045266e-05 9.206031e-05 0.00024069137 0.00042888444 7.449552e-05 0.000108090244 0.00027194808 0.0004500339
0.0005201087 7.134928e-05 5.07963e-05 6.538772e-05 0.00015795429 0.0002809578 5.3192463e-05 3.7389465e-05
7.020192e-05 0.00019510686 0.00035196036 8.1770224e-05 8.928507e-05 0.00015137804 0.00030007958 0.0004623722
0.00014545216 0.00018606418 0.00028541702 0.00048640047 0.0005325812 0.00020574326 0.0002639379 0.00041473945
0.00058037485 0.0005099096

exp_avg f4 [10]
00000000: e5c0 6dba ff9f a2ba 3b0a 223b c198 323a
00000010: 0ad5 cc3a e8bc 1abb 03c8 eab8 797c 7d3a
00000020: 43c1 0abb b156 753b
-0.0009069576 -0.0012407302 0.0024725336 0.0006812923 0.0015627455 -0.0023611132 -0.000111952446 0.0009669732
-0.0021172322 0.0037435705

exp_avg_sq f4 [10]
00000000: a653 1c3a 376d 6638 1abc f238 3ea9 b938
00000010: a4a2 8438 ab58 d139 ec87 6138 2867 7639
00000020: bc98 3939 1de4 a938
0.00059633923 5.4937987e-05 0.00011574496 8.853011e-05 6.324545e-05 0.0003992965 5.3770767e-05 0.00023498817
0.00017699873 8.1010374e-05

max_exp_avg_sq f4 [10]
00000000: fbd8 1f3a 5edd 6638 fc8c f438 0730 bb38
00000010: fdce 8538 7608 d339 a8d2 6138 371a 7939
00000020: 0207 3a39 896b ab38
0.0006097701 5.5042437e-05 0.00011661087 8.925801e-05 6.380489e-05 0.0004025136 5.384037e-05 0.00023756256
0.00017740953 8.1739454e-05
