src/saved/models/Mnist_LeNet/1014_083735/model_best.pth (torch_old, 355460 bytes, 32 tensors)

conv1.weight f4 [10, 1, 5, 5]
000000 90 d2 42 be 52 f3 0e be 22 c9 0f be a9 93 b8 3d
       -0.19025636 -0.13960007 -0.1404157 0.09012539
000010 27 d8 88 bd 57 51 31 3e 3e f6 cb be d8 31 27 bf
       -0.06681853 0.17316185 -0.39836305 -0.6531043
000020 4e 9e f7 be 22 ba 02 be b7 81 f9 3d d8 d4 5d 3e
       -0.48362964 -0.12766317 0.12182944 0.21663225
000030 17 29 3e be 6b 19 49 be 14 f8 fd bd 05 52 e9 3d
       -0.18570362 -0.19638602 -0.12400833 0.11392597
000040 b9 8c 0b 3e 8d 8c c8 3e 51 73 13 3e 25 58 36 3e
       0.136279 0.39169732 0.14399458 0.17807062
000050 46 ea 1a 3e d2 44 3b 3e dc 57 84 3e 5e da d3 3e
       0.1512843 0.18287972 0.2584828 0.41377538
000060 f8 01 95 3d dc 4b 8f 3d 5b bb 12 3c 5f 27 6c 3e
       0.07275766 0.06996891 0.008955802 0.23061894
000070 ed d0 f5 3d d8 a2 b1 be 0d 5e 3c 3e 90 e4 05 3e
       0.1200274 -0.34694552 0.18395253 0.13075471
000080 3c b0 04 3e e3 f9 2c 3e db 41 bb 3d 87 82 8c bd
       0.12957853 0.16892199 0.0914342 -0.068608336
000090 74 b0 23 be 3a 3a 9f 3c 6a 47 ac 3c ac 00 9d 3d
       -0.1598528 0.019436944 0.021030147 0.07666144
0000a0 94 44 ff bd b9 a4 0b bd 35 55 80 3b e7 a4 54 3e
       -0.12464252 -0.03409264 0.0039164075 0.2076603
0000b0 b8 33 2b 3d b9 02 8e ba 25 9f 21 3d 1b 56 cb 3b
       0.04179737 -0.0010834552 0.039458413 0.006205333
0000c0 af 7c 00 3e c1 e7 2b 3e c5 04 32 3e f4 97 21 3e
       0.12547563 0.16787626 0.17384632 0.15780622
0000d0 1f ee 07 3e 20 e1 53 3e e7 f7 ea bb 56 74 9a 3d
       0.1327443 0.20691347 -0.0071706655 0.075417206
0000e0 e3 71 94 3d 6e d8 7c 3e 15 df ba bd b1 de b2 be
       0.07248285 0.24691936 -0.09124581 -0.34935525
0000f0 33 b0 85 3e 08 bd ae 3e 73 77 f4 bd 7f 1a c1 be
       0.26110992 0.34128594 -0.11936846 -0.37715527
000100 48 95 75 be dc 02 4d 3e d5 9f 0a bd 1b bc 47 be
       -0.23982728 0.20020622 -0.033843834 -0.1950535
000110 5d dc ed be 38 4d 90 3d 56 c4 81 3e 3f aa c5 bb
       -0.46457186 0.07045978 0.25345105 -0.006032258
000120 c3 ec ac be 8f 37 84 be 96 23 f9 3d 68 7e 8d 3d
       -0.33774385 -0.25823638 0.121649906 0.06908876
000130 a6 bc d0 3d af a8 fb bd 82 0c c7 3d 6a 84 7d 3e
       0.10192232 -0.12288033 0.097191826 0.24757543
000140 2b 9d 07 bd 72 ef e1 bd cd b6 5f 3d ff 4a 2f 3e
       -0.03310887 -0.11031999 0.05461769 0.17118452
000150 2b ad 54 3d d1 04 a7 be ca 8a 33 be 40 38 86 3e
       0.05192296 -0.32620862 -0.17533413 0.2621479
000160 45 fe 82 3e a0 90 91 3d 07 85 9f be 56 34 81 3e
       0.25584617 0.07107663 -0.3115618 0.25235242
000170 74 b7 70 3e 0f 8c 80 3e 2b e6 1e be aa a6 20 3e
       0.23507482 0.25106856 -0.1551749 0.15688577
000180 51 cc 81 3e ed 54 78 3d c1 d1 21 3c 69 63 0d be
       0.25351194 0.060627867 0.009876669 -0.13807453
000190 c4 43 95 3e 25 55 1d be 19 d9 64 bd 2a 19 46 be
       0.29153264 -0.15364511 -0.055871103 -0.19345537
0001a0 a2 69 cc bd 57 dd 01 3c 1e 1c bf bd f5 05 39 3e
       -0.09981085 0.007926307 -0.09331535 0.18068679
0001b0 42 b2 1b 3e d0 22 b8 bd d5 60 e8 3d 62 97 b2 be
       0.15204719 -0.08991015 0.11346594 -0.3488112
0001c0 ab e0 49 3d 6a a5 52 3d 1b 5a 9c bd ba 0b b8 bd
       0.049286526 0.051427282 -0.07634374 -0.08986612
0001d0 67 1e 9f be 1b 20 99 bc 7e fb 06 3e c0 e2 85 3e
       -0.31077883 -0.018692067 0.13181874 0.2614956
0001e0 ff 6a ba bb 0e 95 52 3e 39 60 78 3e 2f ee 25 be
       -0.0056890245 0.20564672 0.24255456 -0.16204141
0001f0 b9 7d 33 3e 8c 1c 1e 3e bb 08 b2 3e 20 83 81 3e
       0.17528428 0.15440577 0.34772286 0.25295353
000200 c4 0b 5d 3e 2b 8b ae 3e dc f7 b4 3d 90 5c 55 3e
       0.2158652 0.34090552 0.08836338 0.20836091
000210 bd 0d ee 3d 7a 85 3d bd 19 ff 39 3d 13 1c 6f be
       0.11623714 -0.04626987 0.045409296 -0.23350553
000220 6a df 2a 3d 2f dc c7 3d 40 12 a1 3d 40 71 64 3d
       0.04171697 0.097587936 0.07864809 0.055772066
000230 c3 41 8c be 13 91 6d be 69 4d b1 bd 6c f7 00 3e
       -0.27393922 -0.23199873 -0.08657343 0.12594384
000240 1a 50 fa 3d 5f 96 81 be ff ac d6 be 4c 64 a0 be
       0.122223094 -0.25310037 -0.4192886 -0.3132652
000250 44 90 e2 be b3 4b 8b be cb 66 a6 be 0c ba 11 be
       -0.4425069 -0.2720619 -0.325003 -0.14231128
000260 51 39 6e bc f8 33 32 3d c5 b7 2f bd 74 69 e8 bd
       -0.0145400325 0.043506593 -0.042899866 -0.113482386
000270 ad 51 83 bd 75 19 69 3d e8 b1 88 be db 1d 88 3d
       -0.06412063 0.056909043 -0.26698232 0.066463195
000280 23 03 1f bc 5d 90 a2 3e f4 be 57 bd 3e ff 26 3e
       -0.009705338 0.31750765 -0.05267234 0.16308305
000290 62 22 6c 3e 31 7c 84 3e 05 eb 41 3e b9 73 68 3e
       0.23059991 0.25876 0.18937309 0.22700395
0002a0 b2 40 3e 3e 5e a2 51 3e 61 f4 6f bd 55 c6 3b be
       0.18579367 0.20472094 -0.058582667 -0.18337376
0002b0 28 94 46 be a9 4a 31 be 1f 40 ab be cc 8e 8d be
       -0.19392455 -0.17313637 -0.33447358 -0.27648008
0002c0 1b a7 86 be 09 cd 4b 3c ef c4 a0 3e b0 1c b7 3d
       -0.26299366 0.012439021 0.31400248 0.089410186
0002d0 f3 fc c8 be f8 12 45 be c5 96 80 3e 07 1b 45 3d
       -0.39255485 -0.19245517 0.25115028 0.04812148
0002e0 bb c3 32 bd b9 3e c8 be 82 bf 7d be 94 83 3e 3e
       -0.043643694 -0.39110354 -0.24780086 0.1860488
0002f0 c3 b5 a2 3e 55 b6 c0 bd a7 40 d1 be e9 71 8d be
       0.31779298 -0.09409777 -0.40869638 -0.2762597
000300 26 e1 dd 3d ab ae 9b 3e 4f d3 de 3c 30 18 c3 be
       0.10833959 0.304067 0.02720037 -0.3810439
000310 e2 62 b4 bd b3 33 23 be 8a 08 86 3e 94 02 76 3e
       -0.08807923 -0.1593769 0.2617839 0.24024421
000320 fe 7b b5 3c 03 80 cc 3d 31 0a b9 bc 16 71 c0 be
       0.02215385 0.09985354 -0.022587867 -0.37586278
000330 15 d7 1b bf d2 d2 cc 3d 5a 91 f1 bd 89 a7 fb be
       -0.60875064 0.10001148 -0.11795302 -0.49151257
000340 e4 bc 01 bf 41 14 c0 bd 10 ce 1e be 82 09 04 bf
       -0.5067885 -0.09378863 -0.15508294 -0.5157701
000350 7c 86 c4 be 80 08 88 be dd f3 82 3e a9 c0 d8 be
       -0.38383853 -0.26568985 0.25576678 -0.42334488
000360 d0 10 a9 be 69 49 2f be 80 3a 2c 3e 20 64 93 3e
       -0.3302064 -0.17117848 0.16819191 0.28787327
000370 81 a3 23 bf 6e 5d 14 be 42 f5 85 3e 2e e2 1a 3e
       -0.6392136 -0.14488766 0.2616368 0.15125343
000380 09 23 5a 3e 8a b4 50 be 2a 84 4f be 2b 64 c3 be
       0.21302427 -0.2038137 -0.2026526 -0.3816236
000390 28 94 ca bd 2a 36 12 3d 61 1d f1 bd 14 89 51 be
       -0.0989154 0.035696186 -0.11773182 -0.20462447
0003a0 f8 1f b5 be 7c 3e 49 bc 92 cc c4 3d 11 a3 87 be
       -0.35375953 -0.012282964 0.09609331 -0.26491597
0003b0 a2 86 98 bb a4 d7 c8 bb 7e 5a ba bd 58 1d 6a 3e
       -0.0046547214 -0.006129222 -0.09099291 0.22862756
0003c0 90 ac 17 bd 53 bd 2e 3c 23 23 f6 bc cf 9a ef 3d
       -0.037029803 0.010665256 -0.030046051 0.11699449
0003d0 9c 5e 9c 3e e5 7a 58 3c a2 fd bd bd a8 4a 98 3c
       0.3054093 0.013212894 -0.09276892 0.018590286
0003e0 da 3c 7c 3e 27 40 8f 3e
       0.24632588 0.27978632

conv1.bias f4 [10]
000000 b2 87 55 3e 27 97 1d be c3 0a 0a 3b 64 f7 9d be
       0.20852545 -0.15389691 0.0021063543 -0.30852807
000010 bf b3 dc 3c c5 70 27 3e 98 6a 95 3b 1c dd 9c be
       0.026941178 0.16351612 0.004559826 -0.30637443
000020 da 9f 8a 3d ba f0 b2 bd
       0.067687705 -0.08737321

conv2.weight f4 [20, 10, 5, 5]
000000 78 2b c1 3c 31 50 30 bb dd 0e 35 bd ff 1a 6a bd
       0.023580298 -0.0026903267 -0.044203628 -0.05715465
000010 2f a7 1b be 7c ec c6 3d 87 a7 1f 3e f0 a0 b7 3d
       -0.15200494 0.097130746 0.1559125 0.08966243
000020 9d 15 2b bc 9a 2c c8 bd 32 68 4f 3d e8 f3 f2 3d
       -0.010442165 -0.09774132 0.050636478 0.11862928
000030 3e d9 66 3d 91 4b 52 bd 7e a9 8d bd c6 f2 00 3c
       0.056359522 -0.051341597 -0.06917094 0.007870382
000040 12 af fe 3a 2c 4f 1d bd 32 e7 ac bd 30 34 33 be
       0.0019430837 -0.038405582 -0.084425345 -0.17500377
000050 7c ce 13 3e fe 08 04 be 88 8a b9 bc 90 46 a6 bd
       0.14434236 -0.12894055 -0.022649065 -0.081189275
000060 91 cd 1b be 67 ce 1f bd 17 af ed bc e2 48 97 bd
       -0.15215136 -0.0390152 -0.029014153 -0.07386948
000070 12 31 c5 bc 1b 3b 62 3c e5 b1 6d 3d 31 88 8c bc
       -0.02407125 0.013808037 0.05803098 -0.017154785
000080 95 10 01 3d d1 47 5c bc 5d 47 12 3c 8b 5e 78 3d
       0.031509954 -0.013444857 0.008928147 0.06063704
000090 0a 81 0b bb 5f 15 b5 3b c1 e9 39 3d c2 66 8e 3c
       -0.002128663 0.0055262293 0.04538894 0.017382983
0000a0 9c 09 eb bb 82 2d 43 3d f7 c8 c1 3c 7e fa 05 3d
       -0.0071727764 0.04765082 0.023655398 0.03270959
0000b0 12 59 cb bc c6 86 92 bd 48 28 3e bd 73 c2 8b bd
       -0.024822745 -0.07154612 -0.046425134 -0.068241976
0000c0 53 83 a9 bb d5 e0 8d bc f5 f2 97 bc 74 e7 e2 3d
       -0.005173126 -0.017319122 -0.018548468 0.110793024
0000d0 0b ad c3 bb 98 a1 ab 3c 9c d3 de bd ce 4a 88 bc
       -0.005971556 0.020951077 -0.10880205 -0.016637232
0000e0 18 11 40 be 14 f7 1d bd ae 70 8e 3d f5 f3 d1 bd
       -0.18756521 -0.03856571 0.06955086 -0.10251609
0000f0 46 2e 15 be 6b 1b e3 bd 75 41 57 3d 7d 6f 16 3b
       -0.14568433 -0.11089214 0.05255266 0.0022954636
000100 f6 f5 9b bd 3b 0b 52 3c 8c 28 a2 3c 40 ad 45 3d
       -0.07615273 0.01282006 0.019794725 0.048260927
000110 c4 3d dc bd 97 10 28 bc 73 0e c0 3d 31 93 1a bd
       -0.10753968 -0.010257862 0.09377756 -0.03773803
000120 bc 0a 0a 3c 4f 32 63 3d b6 a9 a9 3d 81 bf 4a 3d
       0.008425411 0.0554679 0.08284323 0.04949904
000130 2e 23 c7 bd 64 39 53 bd 95 05 f2 3d 84 00 c3 3d
       -0.09723507 -0.051568404 0.11817471 0.09521583
000140 51 38 13 bd d4 b8 8a 3d 69 76 88 bc 2b ea bc bc
       -0.03594238 0.067735344 -0.016658025 -0.023060879
000150 8b 76 a2 bc 31 e9 e3 3c 05 02 95 bc d2 7a 02 bd
       -0.019831916 0.027821155 -0.01818944 -0.03185541
000160 69 30 8a 3d 85 8c 0f 3d 80 14 34 3d 6f 83 a3 bb
       0.06747515 0.03504612 0.043964863 -0.0049900333
000170 ca 80 19 3d 01 43 1e bd d8 ff 5b bc 95 7b 56 3c
       0.03747634 -0.03863812 -0.013427697 0.013090988
000180 bc 40 6e bb 04 c8 85 3c 81 b8 c2 bc fe 0f b6 bd
       -0.0036354503 0.016330726 -0.023769619 -0.08889769
000190 e0 15 ed 3c fb 62 2b 3c 2b 55 08 bd 3f 0d fc 3c
       0.028941095 0.0104606105 -0.033284348 0.030768035
0001a0 de 80 42 3d 22 5a c4 3d a8 48 ce 3d 78 cf ac 3d
       0.04748618 0.09587504 0.10072452 0.08438009
0001b0 a6 df 50 3d 1d 49 03 bd 7e 9e de 3d 1a 84 d3 3c
       0.050994538 -0.032052148 0.10870074 0.025819827
0001c0 df c0 b9 3d 95 2c 7a 3d 17 9c 6f bd a5 ba 98 3c
       0.0906999 0.061077673 -0.05849847 0.018643687
0001d0 82 52 5d 3d 96 7e ad 3c e9 13 a8 bd fd 9a 06 be
       0.054033764 0.021178525 -0.082069226 -0.13145061
0001e0 36 aa 2a bc 77 19 fa 3c b5 7e ba 3c ed e0 60 bd
       -0.010416558 0.03052972 0.022765497 -0.054902006
0001f0 81 a1 86 be d3 6b 4d bd 7c 19 37 be 6a f1 64 be
       -0.26295093 -0.050151657 -0.17880815 -0.22357717
000200 02 d8 8c be da d3 78 be 64 a3 72 3d f2 5c 80 bd
       -0.2750855 -0.24299565 0.059237853 -0.06267728
000210 8a ad 46 be 51 5a c6 bd 5f 77 a7 3b 94 74 2c 3d
       -0.19402137 -0.09685195 0.0051106657 0.042103365
000220 eb a8 89 3d 09 a9 e9 3d 5e 70 2d bc 0c 42 83 bc
       0.06721672 0.11409194 -0.010585872 -0.016022705
000230 64 d3 04 3e 4a ab cb 3d fa 8f 80 3c 6a 7f e2 3d
       0.12971264 0.0994478 0.015693653 0.110594586
000240 e0 6d 64 3d 7e ed 90 bd b2 ec 61 3c 8b e9 7f bd
       0.055768847 -0.07076548 0.013789343 -0.062478583
000250 06 ac 9a 3c 90 90 01 3d 16 b3 15 3e 40 1b 84 3c
       0.018880855 0.031632006 0.14619097 0.016126275
000260 47 ff 78 bd 05 56 16 3d e2 40 73 bd bf 11 69 3c
       -0.060790326 0.03670313 -0.05938805 0.014225422
000270 f6 31 57 bc 53 30 51 3d 1b f8 b8 3a 10 39 3b 3d
       -0.01313447 0.051071476 0.0014112027 0.045708716
000280 7f f2 5f 3d c2 7e a4 3d c5 27 b6 3d cc 75 1c bc
       0.05467462 0.0803199 0.08894304 -0.009549569
000290 72 13 81 3c f1 b8 91 3c 20 ca fd 3d 1d 2c 0a 3e
       0.015756343 0.017788382 0.12392068 0.1349339
0002a0 ce df 57 3d 26 dc 84 3d 4b 99 94 bc e2 6c 42 bc
       0.05270367 0.064873025 -0.018139502 -0.01186678
0002b0 ce 20 c3 bc cf 45 81 bd 42 26 0d be c1 41 cb bd
       -0.023819353 -0.06312143 -0.13784125 -0.09924651
0002c0 77 ff 24 be 09 09 14 be 05 45 ac 3d c0 9d 5f 3d
       -0.16113077 -0.14456572 0.08411602 0.0545938
0002d0 3e ef 80 bd 9f 87 90 bd 4a b2 fb bd e8 fa c5 ba
       -0.06295632 -0.07057118 -0.12289865 -0.0015104683
0002e0 20 be a0 3d fe 0c c1 bd 5c fe 5c bd 6f fa fb bc
       0.078487635 -0.09426306 -0.053953514 -0.030759064
0002f0 8c 11 bc 3c ac 97 2e 3c 23 39 c4 bd e3 89 16 be
       0.022957586 0.010656279 -0.095812105 -0.14701037
000300 c9 35 0a 3b e5 0e d3 3d e0 19 99 bd 2a 43 dc bd
       0.0021089187 0.10305575 -0.074756384 -0.10754998
000310 63 f9 d8 bd 65 43 48 3a d8 af 0a bb 7c 09 e3 bd
       -0.10594442 0.0007639437 -0.002116194 -0.110857934
000320 1f 55 2d 3d 77 e8 cb bd 50 b3 86 bd 23 25 3d bd
       0.042317506 -0.099564485 -0.0657717 -0.046177994
000330 5a 4a dd 3d cd da 1f bd 5a 17 11 be e7 72 5f bc
       0.10805197 -0.039027024 -0.14169064 -0.013638235
000340 09 df 80 3b 05 c8 f7 3d 8b da ca bd db e9 2a be
       0.003932838 0.120986976 -0.09904965 -0.16690771
000350 af 3c b8 bd 89 5f d4 bd 18 a1 77 3c d6 0c dd bc
       -0.089959495 -0.103697844 0.015114091 -0.02698366
000360 b5 34 4a 3d 49 b3 2e bd 60 cf 65 bd b6 28 e5 3d
       0.04936667 -0.04265145 -0.05610597 0.111894056
000370 50 cd 20 3e 6f ed a7 3d ae 1a 5a 3d c0 89 eb 3d
       0.1570332 0.08199584 0.0532481 0.11500883
000380 f9 62 93 3d 9e 75 37 bd 60 fb 1c be b0 71 b6 bc
       0.07196612 -0.044789903 -0.15330267 -0.022271007
000390 63 d4 90 3d 84 19 95 3d 7f 6c 8f bd 92 b4 a7 bd
       0.070717596 0.07280257 -0.07003116 -0.08188738
0003a0 d3 91 89 3c 73 a0 b2 3d 79 b7 85 3d df 33 91 bb
       0.016793167 0.087220095 0.06529135 -0.0044312323
0003b0 27 38 1b 3c dc 99 4e 3c 15 fd de 3d 71 e0 c5 3d
       0.009473837 0.012609925 0.10888115 0.096619494
0003c0 b9 f0 c4 3c 58 55 3f 3d e0 a2 8f 3d bb c0 95 3d
       0.024040567 0.04671225 0.07013488 0.07312151
0003d0 54 bf 2d bd 69 90 33 bc 90 18 8d bd 03 b9 87 3d
       -0.042418793 -0.010959723 -0.068894506 0.06627085
0003e0 3c 9c 96 3d 02 06 ca bd 2a aa db bc 63 10 82 bd
       0.07354018 -0.09864427 -0.026814539 -0.06350782
0003f0 0d f5 c8 3c 49 64 5d bd 8f d1 e7 3b b9 c8 ad 3d
       0.024530912 -0.054050718 0.007074542 0.084855504

conv2.bias f4 [20]
000000 18 b2 50 3d 88 93 9f bd b7 69 88 bd 66 90 97 bc
       0.050951093 -0.07791811 -0.066607885 -0.018501472
000010 75 7c 41 3d 87 b4 97 3c bb 04 17 bd 0e 88 5f 3d
       0.047237832 0.0185187 -0.036869746 0.05457311
000020 8b 53 41 3d fe 40 da 3d 13 48 b4 bb 49 16 ab 3d
       0.047198813 0.106569275 -0.005501756 0.0835386
000030 ac fc c5 bd 71 5d 7c 3d 9a 36 6a 3d d3 52 a2 3c
       -0.09667334 0.06161255 0.05718098 0.019814884
000040 2a a5 7b bd b0 ff 97 bd 71 25 85 bb c1 75 73 3d
       -0.06143681 -0.074218154 -0.0040633013 0.05943847

fc1.weight f4 [50, 320]
000000 06 75 d1 3c 19 1f b9 3d 30 a1 03 3d e9 e5 a4 3d
       0.025568496 0.090391345 0.032136142 0.080516644
000010 2f ec 22 3e 50 d0 a6 3d 7c ee 8f bd 39 d4 81 bd
       0.1591041 0.08145201 -0.07027909 -0.063393064
000020 5b aa c4 3c 35 70 38 be 3f e3 0e be ba 8a e3 bd
       0.024007013 -0.18011554 -0.13953875 -0.11110444
000030 2a 1d f2 bc 96 df e8 bc 7d 57 10 3d 1d f0 8d bc
       -0.029554922 -0.028426927 0.035239685 -0.017326409
000040 3e 52 1c 3d 8d 88 ab bc 75 3d 44 3d d4 de ef 3d
       0.03816437 -0.020939136 0.047910172 0.11712423
000050 65 10 91 3c e4 99 3c bd 5a b5 5a 3c 00 c4 98 bc
       0.017708013 -0.0460452 0.013348902 -0.018648148
000060 0d 0d 09 bd 6f a2 21 bd a6 1d d5 3c d8 3a d3 3d
       -0.03345971 -0.03946155 0.026015114 0.10313958
000070 16 3f 41 bd ca f2 97 bd d0 99 cb bd a3 cc 19 bc
       -0.047179304 -0.07419355 -0.09941447 -0.009387168
000080 2a fd ed 3b 9e 17 e2 3c 0f 91 8d 3c 44 c6 80 bc
       0.0072628455 0.027599152 0.017281083 -0.01571954
000090 da f6 91 bd 8c 9d a9 bc 73 10 6b 3c 3f c7 c2 bd
       -0.07127161 -0.020705007 0.0143471835 -0.095106594
0000a0 e3 f4 e1 bd c4 78 11 3d 96 03 30 bd 15 18 ad bd
       -0.110330366 0.03551556 -0.04297217 -0.08451859
0000b0 b6 d6 ab bd d4 5b 22 3d fd 57 43 3c e5 66 09 3e
       -0.08390562 0.039638355 0.0119228335 0.13418157
0000c0 65 d4 1b bd af d3 c3 b9 2f 74 d5 bd b1 0d 32 be
       -0.038044352 -0.00037351015 -0.10422551 -0.17388035
0000d0 51 75 04 ba e2 ba 6b bd 8a 75 78 3d dd a9 c0 3d
       -0.0005052882 -0.057551272 0.06065897 0.09407399
0000e0 62 0f 6a ba 63 96 97 bd 5a 50 ef 3c e8 2e ab 3d
       -0.0008928684 -0.07401731 0.02921312 0.08358556
0000f0 ec 07 dc bc 80 fc 5f bb d4 f9 c6 3d 9c 5c 00 3e
       -0.026859246 -0.0034177601 0.0971562 0.12535328
000100 0a 03 ac bd 2a 61 d4 bd 48 0a ea bd 06 b1 96 bb
       -0.08399017 -0.10370095 -0.11427742 -0.0045987396
000110 df fb 78 3c 32 e2 0b be 1d 8a 7b 3d c0 8d ad 3d
       0.0151967695 -0.13660505 0.061411012 0.08474302
000120 1c 7c 9a 3d 51 32 97 3b c1 66 a4 bd 56 cf a2 bd
       0.07543203 0.0046141525 -0.08027411 -0.079497024
000130 08 5f 95 3d 4a 68 48 bc 87 92 dc bd 35 ac 56 bd
       0.072935164 -0.012231896 -0.107701354 -0.052410323
000140 9f 3d ef 3c 21 de 04 3d 4d f7 ce 3b 66 e8 1c 3d
       0.029204188 0.0324384 0.0063161016 0.03830757
000150 40 8e ab bc f1 f0 84 be bf 72 f5 bd 9b e6 71 bd
       -0.020941854 -0.25965074 -0.11984777 -0.059057813
000160 8e 28 17 be 78 46 80 3c b3 11 09 3d 9f 8b 8c 3c
       -0.14761564 0.015658602 0.033464145 0.01715642
000170 41 8c c4 3c 80 40 13 3d 9d c2 00 bd 7c 0a e5 bd
       0.02399266 0.035950184 -0.031435598 -0.1118364
000180 0c 57 0e bc 4f b4 c1 3d db ba 27 3e 5c ee 6a 3d
       -0.008687746 0.09458219 0.16379873 0.057356223
000190 c5 94 a6 bd bb 79 bf bd c0 90 b9 bb b4 8a c1 bd
       -0.08133844 -0.0934939 -0.0056630075 -0.09450284
0001a0 9c eb 78 bd b4 df ea bc eb 57 9a 3d 77 6f d1 bc
       -0.06077157 -0.028671123 0.075363 -0.025565846
0001b0 8a 87 56 3c fb f1 bc 3b 0e 41 32 3c 69 34 46 bd
       0.0130938385 0.005766151 0.010879768 -0.048389826
0001c0 45 c5 dd bc 43 9e b5 3c 41 ed 80 3d 62 68 fc 3c
       -0.027071605 0.022170192 0.062952526 0.030811492
0001d0 72 ee d4 3c 55 a5 45 3d c0 fd ed bb 97 0a 5c 3d
       0.025992606 0.048253376 -0.0072629154 0.053721037
0001e0 9e 69 21 ba 38 d9 bf 3d de 87 ba 3c c7 23 6e 3d
       -0.0006157401 0.09367603 0.022769865 0.05813959
0001f0 d6 14 73 3b 85 e0 e4 3b 28 9c 5d bc 4a 9a 1f 3c
       0.0037091277 0.0069847726 -0.013526 0.009741375
000200 d2 ce 40 3a 99 70 cb bd c8 6a 8a bc 32 4e 8b 3c
       0.00073550374 -0.09933586 -0.01689662 0.01700506
000210 e9 a7 2b bd f1 da 9a bd 5b 4e c9 3c 86 90 24 3e
       -0.04190818 -0.07561291 0.024573496 0.16070756
000220 ff 6d d6 bc ae 2a d3 3c 99 ce 52 bd 87 4a a9 bc
       -0.026175497 0.025777187 -0.051466558 -0.02066542
000230 4b 09 1f 3d a7 90 0d 3d b6 dd 11 3d a4 92 26 bd
       0.03882722 0.03456178 0.03561183 -0.04066719
000240 de 71 84 3d bd 41 47 bc 00 af 6f bb 3e 04 d7 3d
       0.06467031 -0.012161669 -0.0036572814 0.10498856
000250 06 27 99 3d 56 a3 b5 bd 98 df 1e 3d 07 e8 1a 3d
       0.07478146 -0.088690445 0.038787454 0.037818935
000260 39 c1 65 bd da e6 79 bd f0 16 c0 bd e4 17 cd bd
       -0.056092475 -0.061011173 -0.09379375 -0.100143224
000270 e1 e7 41 bd a0 c4 83 bd 24 9e 1d be ff f5 14 be
       -0.047340278 -0.064339876 -0.15392357 -0.14546965
000280 f8 39 bb bd a8 ad 3e bd 75 63 0f be e4 86 2c 3c
       -0.09141916 -0.04655233 -0.14002784 0.010530207
000290 44 b3 c1 3c 15 57 1e 3c e2 2c d6 bd 1c 45 03 3d
       0.02364505 0.009664317 -0.104577795 0.03204833
0002a0 14 32 26 3d e5 73 0a 3d c8 60 00 be 7d f8 96 bc
       0.040575102 0.033801932 -0.12536919 -0.018429035
0002b0 a7 02 80 3d e2 5f 78 3d ff b7 c9 bc cb 75 f3 bc
       0.06250506 0.060638316 -0.024623869 -0.029719254
0002c0 c1 a0 b9 3d da 80 70 3d 50 2e 9d 3c 31 18 7d 3d
       0.090638645 0.058716632 0.019187123 0.06179065
0002d0 19 68 4c be 53 38 0b be e0 cd 39 be 3f c6 e5 3c
       -0.19961585 -0.13595705 -0.18144941 0.028048633
0002e0 6c 04 e7 bd 8b 74 33 3c 34 24 c0 3c c3 97 20 be
       -0.1128014 0.010953079 0.023454763 -0.15682893
0002f0 65 bc a0 bd af a9 f4 3d ae 2d f4 bc fc d3 72 be
       -0.078484334 0.11946427 -0.029806938 -0.23713678
000300 1a 6e 58 bc df 32 eb bd a7 d7 87 bc 1d bf ad 3c
       -0.013209844 -0.11484312 -0.016582323 0.021209294
000310 cf c5 01 3c 02 91 ee 3c 3e 7f 0d ba a1 f9 c1 bb
       0.007920696 0.02912188 -0.00053976837 -0.0059196507
000320 87 46 06 3e a1 43 4e bc d4 7b 1a 3c 43 7c e1 3c
       0.13112842 -0.012589366 0.009428937 0.027525073
000330 c0 a0 8d 3c 25 7e 45 3d 0b 42 ec bc 48 86 da bc
       0.017288566 0.048216004 -0.028840085 -0.026675358
000340 a6 48 48 bd 99 a5 b8 bd c1 a4 4f bd 9e ea 1a bd
       -0.048897408 -0.0901596 -0.05069423 -0.037821405
000350 dd 4c e4 bc 92 02 13 3c 00 8e 3f 3b f0 fb 82 bd
       -0.027868683 0.008972781 0.0029228926 -0.063957095
000360 c2 9e ca 3d 4f f4 25 bc d6 b4 1f bd 63 ee 8c 3d
       0.09893562 -0.0101290485 -0.038990818 0.06881406
000370 4f 49 3a 3b c3 88 4b bd 33 2d 91 3d 60 6b cf 3c
       0.0028425043 -0.049690973 0.07088699 0.025319755
000380 f0 88 16 3d 68 3a 0b be d0 2c df bd 09 c7 64 bc
       0.036751688 -0.13596499 -0.10897219 -0.013963469
000390 a7 59 09 bd 83 4f 16 3d 4d 44 05 3e 65 c1 f3 3c
       -0.033532765 0.036696922 0.13014336 0.029755304
0003a0 3d c6 f2 3c 78 d9 04 3e 5f ba bd 3d 15 fd b8 b7
       0.029635543 0.12973583 0.09264063 -2.205236e-05
0003b0 b2 32 32 3d 8a 02 e9 3c 32 83 e6 3d c5 3d 67 3b
       0.043505378 0.028443594 0.11255492 0.003528462
0003c0 f2 e0 97 bd eb 93 4c 3d 04 18 6b bd b8 4b bc bd
       -0.07415952 0.049945753 -0.05739595 -0.0919413
0003d0 01 c9 99 3d 67 76 be 3b aa 8f cf 3d 99 ac 9a bc
       0.075090416 0.0058124545 0.101348236 -0.01888113
0003e0 81 9a 03 bb 40 48 22 3d a7 50 75 3c cc 27 54 bc
       -0.0020081105 0.039619684 0.014972842 -0.012948941
0003f0 eb bd 8e 3d 8e c2 b0 3d 22 38 a6 3c c0 90 c7 bd
       0.06969818 0.08630858 0.020290438 -0.09744406

fc1.bias f4 [50]
000000 7f 0e 0b 3e ce 91 07 3c ca e4 c4 3d a1 6c 1d 3e
       0.13579749 0.008274509 0.096139506 0.1537347
000010 85 ec 79 3d 00 91 1f 3e 7b f5 94 3d da b8 35 3e
       0.06101658 0.15582657 0.07273384 0.17746297
000020 29 89 75 3d cb 37 c1 bb c2 ca 27 3d b1 3b e5 3c
       0.05994526 -0.0058965436 0.04096485 0.027982565
000030 00 97 4c 3e 07 0d 6e 3e 87 d4 f4 3d 29 7b 29 3e
       0.19979477 0.23247157 0.11954599 0.16550888
000040 53 77 45 3d 33 c0 b1 3d c3 3b ec 3c 69 ba 33 3e
       0.0482095 0.08679237 0.02883709 0.17551579
000050 d0 be 0e 3e cc b4 9e 3d 58 8b 12 3c 3a 29 27 3d
       0.13939977 0.07749328 0.008944355 0.0408108
000060 c4 13 08 3e e4 a9 b4 bc 7e a9 da 3c a2 f4 4f 3d
       0.1328879 -0.022053666 0.026692148 0.05077041
000070 b6 8e 05 3e 63 50 ce 3d 50 86 ef 3d 30 4e 15 3e
       0.13042721 0.10073926 0.1169554 0.14580607
000080 65 78 08 3e 18 d8 fc 3d 2c a4 8e 3d 91 a6 80 3d
       0.13327177 0.12345904 0.06964907 0.0628177
000090 88 50 3f 3e a0 b4 d8 3d 73 d4 94 ba 45 a5 e3 3d
       0.18683064 0.105813265 -0.0011354819 0.11115507
0000a0 cf ef df 3d 9a 26 dc 3d 8d 6c 44 3c 06 fe 8a 3c
       0.10934412 0.1074955 0.011988771 0.016966831
0000b0 a7 36 02 3e 7a c7 49 bc 2f 4c 4f 3e f4 c7 8c 3d
       0.1271616 -0.012315625 0.20243905 0.068740755
0000c0 16 a8 33 3d 0c 7c 8b 3d
       0.04386147 0.068107694

fc2.weight f4 [10, 50]
000000 2f e3 4f 3e d1 11 9d be 59 cc f8 3d 61 d6 8b be
       0.20301507 -0.30677655 0.12148351 -0.27311996
000010 2f 8b 20 be 3d 3a 93 be 2a d0 6c 3d b5 57 36 be
       -0.15678094 -0.2875537 0.05781571 -0.17806895
000020 be 5e ca bd 54 27 be bd d2 6a 7b be 4d 44 c5 3d
       -0.09881352 -0.09284845 -0.24552467 0.09632168
000030 a9 fb 13 be b5 e7 31 be 1c 67 f5 3b ad 8c 72 be
       -0.1445147 -0.17373545 0.0074890982 -0.23686476
000040 4f ba 84 be 98 80 2a be 04 b9 0d 3e 16 9d d7 bd
       -0.25923392 -0.16650617 0.13840109 -0.10528009
000050 36 0d 20 3e 14 c9 0b bd a4 4e 00 be 51 a7 08 3e
       0.1563004 -0.03412731 -0.12529999 0.13345076
000060 a1 6c 86 be f7 f4 1d 3e 7f e6 29 be 7b 7b 01 be
       -0.26254752 0.15425478 -0.16591834 -0.1264476
000070 6b f5 6d be 7a 8b f6 3d c7 89 3d be c5 9f ce 3d
       -0.23238151 0.12038322 -0.18509589 0.10089067
000080 14 f4 07 3e fb e3 8a bd 3a 79 3a be ba 95 fe 3d
       0.13276702 -0.06781765 -0.18210307 0.12430902
000090 d3 4d 02 3e 04 c5 d6 3d 75 41 da 3d 68 95 3b 3e
       0.12725 0.104867965 0.10657016 0.18318713
0000a0 40 5e bb 3d 61 8e d2 3d 84 62 16 be 91 77 3c 3e
       0.09148836 0.10281063 -0.14686018 0.18404986
0000b0 a6 12 09 be 07 d9 a8 3d 68 4d 16 3e 2b 6c 7c bd
       -0.1338602 0.0824452 0.14677966 -0.061626595
0000c0 52 88 3d be 97 df 9b 3d 9d ba a4 3d 4a 96 0f be
       -0.18509033 0.07611006 0.08043406 -0.14022174
0000d0 c0 b4 80 be 06 77 15 3e cf 2a 08 3e 5a 3b b2 3d
       -0.251379 0.14596185 0.1329758 0.08702727
0000e0 14 f1 0a 3e ac a6 42 3e b4 c8 76 be f7 58 eb bd
       0.13568527 0.19008893 -0.241 -0.11491578
0000f0 0c 43 98 bd 34 c7 1e be 1f 1c e9 3d ab 17 bc 3d
       -0.07434663 -0.15505677 0.11382317 0.09184202
000100 0a 96 82 be 41 e1 15 3e 84 9b 1f be 66 02 e9 3d
       -0.25505096 0.14636709 -0.15586668 0.113774106
000110 5a 99 d5 3d d0 d0 cd 3d f9 18 1c be 17 ce 4f be
       0.1042964 0.100495934 -0.15243901 -0.20293461
000120 46 44 74 be a8 f4 10 3e a7 1c db 3d 61 4c 5e be
       -0.23854169 0.14155829 0.106988244 -0.21708824
000130 21 ed 2b be 8d 67 1a be 0b 10 e7 3d 68 20 70 bd
       -0.16789676 -0.15078564 0.11282357 -0.058624655
000140 b7 d7 b7 3d 13 1a 06 3e 80 c4 c8 3d 33 13 90 3d
       0.08976691 0.13095884 0.098031044 0.07034912
000150 e5 a6 da 3d e3 e1 0b be 91 25 8a be 09 53 38 bc
       0.10676364 -0.13660388 -0.26981786 -0.011250266
000160 07 5f 8f be 4d 6c 77 be 68 37 21 be 69 b2 4e be
       -0.28002188 -0.24162407 -0.15743792 -0.20185246
000170 20 24 39 be 96 71 c4 bd f2 42 5a 3d d5 95 85 be
       -0.18080187 -0.09591977 0.0532865 -0.26090875
000180 ed b9 15 3e 6b 32 af be a0 16 3f 3e 95 88 90 be
       0.14621706 -0.34218153 0.18660975 -0.28229204
000190 0b 30 6b bc 10 3e a9 bd 11 e0 55 be 8c f0 0d 3e
       -0.014354716 -0.082637906 -0.20886256 0.13861293
0001a0 29 98 1b be db 78 d8 be 04 38 28 3e b4 c5 10 be
       -0.15194763 -0.42279705 0.16427618 -0.14137918
0001b0 b3 42 56 be 53 b9 22 3e db df ed bc 27 10 4c 3d
       -0.20923881 0.15891008 -0.029037407 0.04982009
0001c0 da 35 0f be a8 e2 0e be bb a9 72 be 76 a6 6b 3d
       -0.13985386 -0.1395365 -0.2369756 0.057531796
0001d0 b1 37 71 bd 4f 7b 76 be fe ec 0f 3e 6b 6f eb 3d
       -0.058891002 -0.24070476 0.14055249 0.11495861
0001e0 53 8c 11 be d8 a3 eb 3c 32 53 f7 3c b5 ff 72 3d
       -0.14213686 0.02876465 0.030191038 0.059325892
0001f0 69 ce e9 3d 1b 2c 02 3e 14 9f cf 3d 29 47 34 be
       0.11416323 0.12712137 0.101377636 -0.1760527
000200 5e 23 ce 3d 2d fe fb 3d ca 15 ca 3d 16 a4 e9 3d
       0.100653395 0.123043396 0.09867437 0.1140825
000210 c3 ae df 3d db 10 66 3d e8 99 87 be ff b3 f9 bc
       0.10922005 0.05616842 -0.2648461 -0.030481337
000220 f7 e2 32 be 8c 41 c3 3d cf de 91 3d aa 5e df bd
       -0.17469393 0.095339864 0.071225755 -0.109067276
000230 21 45 0d bd 89 3d 86 3d c9 2b 13 3e ad 01 11 3e
       -0.034489755 0.06554706 0.14372171 0.14160796
000240 98 d4 c2 3d 0a 95 90 3d 65 2c 2b be 60 d5 f4 bc
       0.09513205 0.07059677 -0.16716154 -0.029886901
000250 9a a6 1d be 1d a8 f4 bc 1d 17 cb bd 16 6e 23 bd
       -0.15395585 -0.029865319 -0.09916518 -0.039899908
000260 61 0a 53 be c8 28 b7 bd f1 0e 13 be c7 55 94 bd
       -0.20609428 -0.08943325 -0.14361168 -0.07242923
000270 a5 b1 ed bd 16 b4 76 be 58 13 ad 3d 04 a2 19 3e
       -0.11606149 -0.24092135 0.08450955 0.1500321
000280 45 eb ff 3d e1 17 ea 3d 93 37 e8 3d a4 69 74 be
       0.12496046 0.11430336 0.11338725 -0.23868424
000290 ee 90 51 be 3a fe 04 3e 6d e7 2d 3d c1 06 f9 3d
       -0.20465443 0.12987605 0.042457033 0.12159491
0002a0 c4 9f 0d bd d3 0a ec 3d 74 54 21 be a3 ed 25 3e
       -0.034576192 0.11525502 -0.15754873 0.16203932
0002b0 b4 fb 44 be 15 47 61 be 8f b0 a9 bd f2 00 14 be
       -0.19236642 -0.21999772 -0.08285629 -0.14453486
0002c0 f2 5b bb bd ba d0 08 3e e8 af 06 3e cd 17 11 3e
       -0.091483966 0.13360873 0.1315304 0.14169236
0002d0 c2 9a c3 3d e3 8a db bb 7d b0 35 be 91 d2 e0 3c
       0.09551002 -0.006699906 -0.17743106 0.027444156
0002e0 bf 42 59 bd d6 1d dc bd b1 58 eb 3d 9f c0 12 3e
       -0.05304217 -0.10747878 0.11491526 0.14331292
0002f0 2e 52 68 3c 31 f7 fa bc 3a b8 12 3d 1b a1 8d 3a
       0.014179749 -0.030635448 0.035820223 0.001080546
000300 b1 bb ac 3c 83 ae 05 bd f5 49 a9 3d df 1d aa bd
       0.021085592 -0.03263713 0.08266059 -0.08306479
000310 5e e8 2b be 1e 5e 66 be 3e e5 09 be 97 08 9a 3d
       -0.1678786 -0.2249684 -0.13466355 0.0752117
000320 3a 7a 80 bc 5f fd d2 3d 63 4c 29 be 5e 2d e5 3d
       -0.015683282 0.10302233 -0.16533045 0.11190294
000330 1c b5 fa 3d a5 e5 03 3d 06 22 15 3e c9 59 2b 3e
       0.12241575 0.032201428 0.1456376 0.16733469
000340 a1 b2 0c 3b 70 14 10 3e 6b a0 c6 3d e1 88 88 be
       0.0021468776 0.14070296 0.09698566 -0.2666693
000350 97 52 07 bd 0a 61 9c 3d bf bc 9b 3d 42 16 ed 3d
       -0.03303775 0.07635696 0.0760436 0.11576511
000360 00 ae e9 3d ef 9b 01 bd d9 37 e8 3d 86 b0 69 be
       0.11410141 -0.03164285 0.11338777 -0.22821245
000370 8f e7 81 3c 29 a3 f9 bd 36 73 13 3e 54 8c 0e 3e
       0.015857486 -0.121893235 0.14399418 0.13920718
000380 ba 1d ac bc c8 4c 8c 3d 2b 7b 10 3e 05 6c 0f 3e
       -0.021010268 0.06850582 0.14109485 0.1400605
000390 29 6e b5 bc 51 55 1d be 02 8b 39 be af 2e 6e bd
       -0.022147255 -0.15364577 -0.18119434 -0.05814999
0003a0 1d ae 7e 3d 53 e5 1f be 92 f1 f2 3d b7 c2 e7 bd
       0.062177766 -0.15614824 0.11862482 -0.11316436
0003b0 d2 01 5e 3d 18 e5 33 be c0 7c f3 3d 8e 22 87 3d
       0.054200955 -0.17567861 0.118890285 0.06598388
0003c0 ab 20 27 be 46 af 16 be 7f c9 4f be 87 aa 15 bc
       -0.16321056 -0.14715299 -0.20291708 -0.009134895
0003d0 7c 70 5b be 69 cf a6 3d cb 1e d5 bd 34 ed 1f 3e
       -0.21429628 0.08145029 -0.10406264 0.1561783
0003e0 4a d2 3d 3e 5e f0 aa be 11 40 bf bd 9a df de 3d
       0.1853725 -0.3338651 -0.093383916 0.10882492
0003f0 36 f7 f3 3d b9 cf a8 3b e7 1d 18 3e 6c fa 21 3d
       0.11912386 0.0051517156 0.14855157 0.03954546

fc2.bias f4 [10]
000000 79 a3 26 be 2f a4 c2 3e 27 65 35 bc b6 42 21 3d
       -0.16273297 0.38015887 -0.01107148 0.03937026
000010 42 2a a3 be d6 55 09 3e c7 d6 6f 3c ef 61 47 bb
       -0.31868178 0.1341165 0.014638609 -0.0030423363
000020 c4 bc 2e 3e d2 38 c2 be
       0.17064196 -0.37933975

exp_avg f4 [10, 1, 5, 5]
000000 db 01 f1 bb d0 56 a5 bb a8 d1 55 bb c6 0f a1 3a
       -0.0073549575 -0.0050457492 -0.0032626186 0.0012288026
000010 50 3e 18 3a 2e 76 0a bc e2 2c 2f bb 45 e1 85 39
       0.0005807625 -0.008451028 -0.0026729633 0.00025535576
000020 c3 b2 0e 3b 42 9d 15 3b b9 51 3f bc eb f3 fa bb
       0.002177403 0.0022829329 -0.011677199 -0.007658472
000030 31 50 6a bb 6b f0 95 3a dc 03 5a 3b 6a 55 56 bc
       -0.0035753364 0.0011439448 0.003326646 -0.013081888
000040 55 ba 36 bc 5c 89 18 bc 03 f2 99 bb 34 fb 6c 3a
       -0.011152823 -0.009310093 -0.0046980395 0.0009040118
000050 58 d3 46 bc 7d c9 27 bc 80 15 25 bc 6d 63 89 bb
       -0.012135349 -0.01024091 -0.010075927 -0.0041927607
000060 c6 b7 74 b9 35 59 f3 3a cc b5 ae 3b 5b 84 d6 3b
       -0.00023338114 0.0018566014 0.0053317305 0.0065465397
000070 8f 36 46 3b 23 f6 18 39 b8 53 91 3b 2d be b1 3b
       0.0030244922 0.00014587543 0.004435029 0.005424282
000080 9b 05 c6 3b c5 49 21 3b e7 62 d0 ba 3e 9a 82 3b
       0.0060431487 0.002461062 -0.0015898616 0.0039856723
000090 8c 7c 57 3b e6 ad 30 3b c4 9e 0c b8 68 80 d1 ba
       0.0032880632 0.002695912 -3.3526463e-05 -0.0015983703
0000a0 11 8a 77 39 f0 9b cd 39 ad 8b 29 3a b4 22 70 b8
       0.0002360719 0.0003921683 0.00064676517 -5.725278e-05
0000b0 e7 2c a4 ba 8d 83 f5 ba cf 70 a4 b9 da 40 13 ba
       -0.0012525589 -0.0018731222 -0.00031364567 -0.00056172686
0000c0 fc 40 e5 ba d7 77 c8 ba c7 d8 8b bb c8 d4 c8 ba
       -0.001749068 -0.0015294504 -0.004267785 -0.0015322203
0000d0 f8 aa de 39 17 1c d6 ba 14 e6 cc ba a7 bf 5e bb
       0.0004247052 -0.0016335276 -0.0015632533 -0.0033988745
0000e0 45 86 69 bb ca 11 7f bb 30 ef 5c bb 19 ec 6d bb
       -0.003563301 -0.0038920515 -0.0033711903 -0.0036304055
0000f0 7e 97 33 bb 9d 67 29 bb 49 0f 34 bb 65 69 fa ba
       -0.0027403529 -0.0025849112 -0.002747493 -0.0019104896
000100 f1 a0 6e ba 64 d9 29 ba ac 7a b9 ba d3 43 d3 ba
       -0.00091029616 -0.0006479232 -0.0014150939 -0.0016118236
000110 28 8d 6b ba 0b 75 56 bb ff 79 ba 3a 5e 8f 76 ba
       -0.00089855725 -0.0032723572 0.0014227031 -0.00094055186
000120 d9 c3 d6 ba e7 ba 2f bb 85 1a d4 bb cf 76 9b 3b
       -0.0016385271 -0.0026814283 -0.006472888 0.0047443877
000130 fa 1c b0 3b 19 bb c7 3b 9b d9 94 3b 45 9c c3 3a
       0.005374548 0.006095302 0.004542542 0.0014923891
000140 1c d0 05 3b d6 96 cf 3a a1 81 8f 3b 5e e6 61 ba
       0.0020418232 0.0015837799 0.0043794666 -0.0008617396
000150 b4 ee a1 ba 41 88 ca 3a 2c a6 40 3b 27 2f 48 3b
       -0.0012354464 0.0015451984 0.002939592 0.0030545683
000160 04 c6 dd ba 45 b5 66 ba 3e 74 98 3a cc fc a2 3b
       -0.0016919975 -0.0008800815 0.0011631323 0.0049739834
000170 a7 b6 a6 3b ec 6f ee 3a 9f cd 03 3b ea ad 8e 3b
       0.005087692 0.0018191314 0.0020111573 0.0043542283
000180 99 bf e9 3b d5 c9 ef 3b 92 93 a9 3b dc 5c 16 3b
       0.007133436 0.0073177614 0.0051750625 0.0022943532
000190 89 b4 5f 39 b9 79 2a 3a f3 dc 05 3b d2 5c 3b 3b
       0.00021334192 0.00065031234 0.0020425885 0.002858926
0001a0 91 80 19 3b 38 4f 47 3a 6b 93 89 ba 9d e0 9d 39
       0.0023422579 0.0007603052 -0.0010496204 0.00030112723
0001b0 bc e1 74 3a 19 43 36 3a 14 61 98 3a ff 7f cb ba
       0.00093414984 0.00069527474 0.0011625611 -0.0015525817
0001c0 d3 fa 7d b9 49 ce d6 ba ac 33 3b 3a 7e 1b 65 ba
       -0.000242214 -0.0016388382 0.00071411836 -0.00087397534
0001d0 2c dc 6a ba 83 93 1d 38 7c 74 ad b9 7c ae f7 3a
       -0.00089592 3.7569098e-05 -0.0003308392 0.0018896605
0001e0 cc de 3e ba 7f 32 da ba f3 49 73 38 8e d5 35 3a
       -0.0007281124 -0.0016647129 5.8004585e-05 0.0006936424
0001f0 d3 e8 79 3b 76 c6 e2 b7 72 e3 38 3b 64 89 3e 3b
       0.0038133159 -2.7033715e-05 0.002821174 0.002907359
000200 b5 35 d1 3b 68 7f a8 3b 4f 3e 38 3a d4 27 99 3b
       0.006384576 0.005142141 0.00070283277 0.0046739373
000210 ce f6 ca 3b fa bb 14 3c 4b e3 c8 3b 72 b1 9d ba
       0.006193972 0.00907802 0.006130611 -0.0012031032
000220 fc fa 4e 3b 1c 53 e3 3b e4 41 18 3c 00 5f 74 3b
       0.0031582704 0.0069373976 0.009293053 0.003728807
000230 24 f5 0a bb 7d 15 b9 3a 38 f7 a9 3b 13 ab 00 3c
       -0.0021203244 0.0014120784 0.0051869415 0.007853287
000240 42 89 83 3b 44 b7 28 bb 27 52 c4 3a 20 3b 9f 3b
       0.004014165 -0.0025744 0.0014978097 0.004859343
000250 55 69 db 3b 72 83 7d 3b 5c 91 e7 ba ce 22 8d 3a
       0.006695906 0.0038683084 -0.0017667222 0.0010767819
000260 be 07 4c 3b 33 8f 72 3b 8f 62 89 3b ce a5 6e 3a
       0.0031132544 0.0037011623 0.0041926573 0.00091036863
000270 6c 13 7c 3b 66 e1 87 3b 54 0a 56 3b 72 d1 6f 3b
       0.0038463725 0.0041467426 0.0032659965 0.0036593345
000280 1c f7 98 b9 8e 0f 73 3b 69 9c 48 3b 64 2e 2b 3b
       -0.0002917581 0.0037088129 0.0030610806 0.002612018
000290 16 76 9c 3a 06 3d 09 bb da f9 56 3b 79 e9 6e 3b
       0.0011937048 -0.0020940914 0.0032802732 0.0036455079
0002a0 b2 e6 c0 39 08 97 79 ba a3 cb 99 3a fd a5 82 3b
       0.00036792975 -0.00095211016 0.0011733662 0.0039870725
0002b0 14 f7 7d 3b f4 fb 2f 3b 9a 54 94 3a dd 3a 44 3b
       0.0038752006 0.0026853057 0.0011316717 0.0029942312
0002c0 b0 a9 98 3b bd 52 58 3b 41 67 38 3a 31 8c 3d 3b
       0.0046589 0.00330083 0.0007034429 0.0028922672
0002d0 10 4b 8f 3a 25 e8 2d 3b 6f 2e f7 3a b4 cd 28 3a
       0.0010932405 0.0026536074 0.0018858443 0.00064393436
0002e0 bf e0 58 3b 21 f9 f5 b9 72 51 1b ba 19 e7 73 ba
       0.0033092943 -0.00046915657 -0.0005924917 -0.00093041506
0002f0 22 bd 48 3a 42 61 46 3b 63 79 e2 ba c3 49 e8 ba
       0.00076575775 0.0030270373 -0.0017278608 -0.0017722178
000300 43 c8 52 bb 3f a4 87 38 82 31 da 39 db f6 5a ba
       -0.0032162822 6.467895e-05 0.00041617086 -0.00083528244
000310 d6 c1 85 ba 22 2d d1 ba a9 b5 54 39 2a 0f 89 3a
       -0.0010204862 -0.0015958885 0.00020285569 0.001045679
000320 c7 a7 32 bb 36 67 0b bb f9 8b 0a bb 82 b6 d8 ba
       -0.0027260648 -0.0021271235 -0.002114056 -0.0016533884
000330 c4 5c 04 bb c0 2f 27 bb ce 1a 01 bb 53 74 b3 ba
       -0.0020196894 -0.002551064 -0.0019699815 -0.0013691284
000340 97 aa 1a ba f4 d6 8e bb 30 aa a3 ba 9e cc 9d ba
       -0.00059000537 -0.0043591205 -0.0012486633 -0.001203913
000350 e2 36 e8 ba b4 28 59 bb f5 44 07 bc 4d cd c7 ba
       -0.0017716552 -0.0033135833 -0.008256187 -0.001524368
000360 05 07 0d bb 3c 50 c9 bb ac 06 0e bc 08 b5 24 bc
       -0.0021519077 -0.006143598 -0.008668583 -0.010052927
000370 24 22 1a bb 91 72 7f bb 2d 06 c9 bb ca 8c 01 bc
       -0.0023518885 -0.00389782 -0.0061347694 -0.007907102
000380 69 de b8 bb c4 21 1c 3b 25 ef 1c 3b 89 50 35 3b
       -0.0056417477 0.0023823837 0.0023946252 0.002766641
000390 07 00 57 3b c9 58 b2 3a 51 35 a1 3a 68 1d 18 3a
       0.0032806413 0.0013606782 0.0012299215 0.0005802722
0003a0 f9 ba 8f 3a 5b 58 c8 3a 86 f5 19 3a 3a 7f c6 ba
       0.0010965756 0.0015285121 0.00058730727 -0.0015144118
0003b0 4c 81 a2 b9 37 73 b5 3a 60 20 71 b8 9a 10 d8 ba
       -0.00030995382 0.0013843541 -5.748903e-05 -0.001648444
0003c0 31 05 3f bb b0 ee 10 bb c1 b9 f0 ba 02 c3 ec ba
       -0.0029147381 -0.0022114925 -0.0018365906 -0.0018063488
0003d0 c7 a9 e7 ba 73 f8 07 3a 18 86 34 b9 b5 3b af 38
       -0.0017674499 0.0005186863 -0.00017216092 8.3557716e-05
0003e0 30 7d a7 ba ce 3b 81 ba
       -0.0012778398 -0.0009859742

exp_avg_sq f4 [10, 1, 5, 5]
000000 00 2d 82 3a da c4 35 3a 44 da c7 39 5f 9c dd 39
       0.0009931624 0.0006933935 0.00038118858 0.0004226891
000010 4e 56 2b 3a 01 49 93 3a 91 b2 24 3a 7c 9b b3 39
       0.0006535993 0.0011236967 0.0006282712 0.00034257385
000020 bb 7f ed 39 d2 d3 62 3a 6c 98 a6 3a 5b dc 74 3a
       0.0004529933 0.00086527795 0.001271022 0.0009340697
000030 3f fc 2c 3a 6f 17 6c 3a a1 74 ab 3a 8e 24 b5 3a
       0.0006598867 0.00090061774 0.0013081023 0.0013820098
000040 25 1e b6 3a 55 fc c4 3a da 22 e8 3a 47 28 e1 3a
       0.0013894482 0.0015028814 0.0017710582 0.0017178141
000050 2c ee c6 3a 56 be e1 3a f2 81 03 3b 29 b1 0e 3b
       0.0015177182 0.0017222862 0.0020066467 0.0021773076
000060 bb a9 e1 3a b6 e0 8e 39 1c 1e 9f 39 ed cd a6 39
       0.0017216721 0.00027251773 0.00030349276 0.00031815414
000070 1f e1 83 39 12 c6 32 39 50 43 a5 39 e3 53 9f 39
       0.00025153995 0.0001704919 0.00031521404 0.00030389344
000080 c6 73 93 39 1e 72 7a 39 95 fb 54 39 d2 cb 6d 39
       0.00028124283 0.0002388437 0.00020311617 0.0002267801
000090 d0 d8 57 39 14 83 61 39 fc 15 66 39 a7 3b 6e 39
       0.00020584767 0.00021506503 0.00021942699 0.00022719671
0000a0 03 9a 2d 39 3f d6 40 39 ff 7d 61 39 38 1e 8b 39
       0.0001655594 0.0001839036 0.0002150461 0.0002653466
0000b0 bd 7a 87 39 26 ce 37 39 3b 63 60 39 9b 5c 86 39
       0.00025840654 0.00017529036 0.00021399271 0.00025627468
0000c0 d2 17 97 39 7c 48 8f 39 97 7b 0c 3a d6 74 2a 3a
       0.00028818712 0.0002732909 0.00053589925 0.0006502395
0000d0 23 09 24 3a 32 6e e4 39 5b b3 9a 39 59 b6 20 3a
       0.0006257465 0.0004356965 0.000295068 0.00061306875
0000e0 b9 7a 2f 3a 7d 49 03 3a e6 0f 86 39 67 07 40 39
       0.00066940073 0.0005008204 0.00025570317 0.00018313304
0000f0 e2 98 2f 3a 86 64 18 3a 37 d4 7a 39 d1 0d e0 38
       0.00066985015 0.0005813319 0.00023920914 0.00010683726
000100 90 31 f0 38 d2 52 25 3a a0 fd d9 39 a8 0d 1f 39
       0.000114533235 0.00063065917 0.0004157843 0.00015168509
000110 44 93 a4 38 a0 1f 09 39 d2 a6 18 3a 26 c7 c1 39
       7.84756e-05 0.0001307712 0.0005823198 0.00036960206
000120 1f 14 2c 39 df 2c 02 39 16 e8 72 39 24 39 cf 39
       0.00016410694 0.00012414482 0.00023165377 0.0003952469
000130 51 10 d7 39 56 56 e9 39 33 cd 11 3a 8d 93 1f 3a
       0.00041020152 0.00044505548 0.0005561888 0.00060873554
000140 9c 6f 95 39 4f 7e a2 39 46 bd db 39 5d c8 15 3a
       0.0002850265 0.00030993155 0.00041911955 0.00057137554
000150 7d dc 14 3a b5 e1 56 39 c6 95 8e 39 69 8a e6 39
       0.0005678607 0.00020492713 0.0002719594 0.00043972142
000160 a1 2c 0c 3a 68 67 f1 39 8e 60 87 39 5c f4 c2 39
       0.00053472264 0.00046044146 0.00025821145 0.00037184625
000170 2b be f1 39 45 7a ec 39 21 44 af 39 c2 eb c4 39
       0.00046108788 0.00045104526 0.0003342936 0.00037559686
000180 88 72 ee 39 13 09 f9 39 90 99 d7 39 10 4b 9e 39
       0.0004548023 0.00047499742 0.0004112241 0.00030192034
000190 f1 f9 d4 39 71 5b 64 39 bf 22 43 39 3b fc 2d 39
       0.00040622012 0.00021777839 0.00018609593 0.00016592529
0001a0 36 da 2f 39 cb bd 8b 39 f8 b2 3c 39 21 fb 60 39
       0.0001677059 0.00026653553 0.00017995748 0.00021455857
0001b0 f4 63 61 39 02 29 4f 39 a6 6d 48 39 40 80 0b 39
       0.00021494908 0.00019756335 0.00019114334 0.0001330385
0001c0 a8 53 48 39 0b 51 6b 39 79 37 72 39 18 9c 3f 39
       0.0001910465 0.00022441537 0.00023099584 0.00018273329
0001d0 1c cf 1e 39 29 25 60 39 f0 1c 80 39 ac d2 88 39
       0.00015145208 0.00021376148 0.00024435623 0.00026096904
0001e0 2c 91 88 39 93 6f 97 39 aa 92 9c 39 fb cb 85 39
       0.00026048103 0.00028884094 0.00029863912 0.00025519714
0001f0 fb be 86 39 0a 88 9d 3a bf 6e 9a 3a bc 65 8d 3a
       0.00025700763 0.0012018692 0.0011782272 0.0010787765
000200 95 fc 8e 3a 82 10 9d 3a 1c 21 94 3a 7a 4e 7b 3a
       0.0010909016 0.0011983069 0.0011301371 0.0009586584
000210 95 ed 5a 3a bd 09 6f 3a 89 d2 87 3a ea 55 47 3a
       0.00083514425 0.00091185776 0.0010362427 0.000760405
000220 6e 7f 05 3a 37 b6 0c 3a d5 e9 3d 3a 5a be 5e 3a
       0.0005092536 0.00053677283 0.00072446215 0.00084969925
000230 41 68 ca 39 be 7d 81 39 61 20 ad 39 8a 5c 0a 3a
       0.00038606118 0.00024698483 0.00033021256 0.00052780716
000240 76 6c 34 3a 02 a3 71 39 71 30 49 39 96 78 93 39
       0.0006882617 0.00023044276 0.000191869 0.00028127868
000250 4a 17 ce 39 e4 29 0c 3a 1d 73 e1 38 49 89 19 39
       0.00039308734 0.00053468184 0.000107502776 0.0001464236
000260 b5 67 5a 39 aa 07 56 39 76 a8 5e 39 ea 74 34 39
       0.00020828734 0.00020411485 0.00021234326 0.00017209692
000270 ad 17 77 39 26 6b 87 39 f8 89 5d 39 cf c9 72 39
       0.00023564576 0.00025829038 0.000211276 0.00023154098
000280 3b 81 a3 39 02 36 c3 39 78 62 9c 39 bb 16 8f 39
       0.00031186067 0.00037233537 0.00029828004 0.0002729202
000290 ff e0 8d 39 c3 df d3 39 f0 b2 cd 39 1c 41 9a 39
       0.0002706125 0.00040411772 0.00039233966 0.0002942168
0002a0 5d 5b 86 39 9e b8 73 39 7d 4e bb 39 60 86 97 39
       0.00025626543 0.00023243061 0.00035725898 0.00028901082
0002b0 c5 02 5c 39 db 45 3c 39 7a c9 1f 39 e5 28 0b 39
       0.00020981867 0.000179551 0.00015238477 0.00013271307
0002c0 e9 2e 40 39 98 ef e0 39 50 fa 3f 3a ec c2 3f 3a
       0.00018328022 0.0004290312 0.0007323371 0.00073151174
0002d0 03 ae be 38 9f a8 03 39 83 6b e3 39 66 9a 4c 3a
       9.092318e-05 0.0001255595 0.00043376916 0.00078049896
0002e0 f8 cf 3b 3a c3 13 9b 38 56 32 f7 38 af 06 f9 39
       0.00071644736 7.394657e-05 0.000117872536 0.0004749796
0002f0 60 8b 66 3a a0 84 43 3a 9c 1b 99 38 cc 14 2b 39
       0.0008794572 0.00074584223 7.300751e-05 0.00016315578
000300 4f bf 14 3a aa fb 73 3a a5 3e 4d 3a 1d b3 02 39
       0.0005674259 0.0009307215 0.0007829464 0.00012464491
000310 bf c1 b1 39 61 db 33 3a 40 8a 72 3a a9 8c 52 3a
       0.00033904423 0.0006860998 0.0009252168 0.0008031824
000320 1c 95 cc 39 4b 50 68 39 f3 60 eb 38 0e 81 bb 38
       0.00039021007 0.00022155156 0.000112237314 8.940893e-05
000330 ec 6a 29 39 fa a4 56 39 65 3c ad 38 6a 1e 6a 38
       0.00016156927 0.00020470089 8.260532e-05 5.5818273e-05
000340 3a 98 94 38 cf c0 3c 39 b9 f1 b0 38 03 6c 75 38
       7.085544e-05 0.00018000904 8.437358e-05 5.8513146e-05
000350 47 95 82 38 8e 23 e8 38 86 41 a2 39 46 8c 89 38
       6.226688e-05 0.00011069245 0.00030947867 6.558797e-05
000360 b4 e7 9f 38 52 61 0a 39 19 b2 a2 39 81 dc 07 3a
       7.624869e-05 0.0001319696 0.0003103174 0.0005182699
000370 c7 75 dd 38 ce a6 23 39 89 f0 b7 39 5f 07 10 3a
       0.00010560039 0.00015607031 0.00035083693 0.00054942624
000380 db 9f 21 3a 41 10 cd 38 27 53 7f 38 b5 2c a8 38
       0.0006165483 9.778189e-05 6.087418e-05 8.0191916e-05
000390 7c 0c 55 39 7b 7d c7 39 05 99 9d 38 3c 43 5b 38
       0.00020317914 0.00038049728 7.5148455e-05 5.2276286e-05
0003a0 c9 93 c4 38 89 a9 88 39 11 96 fd 39 33 15 e4 38
       9.3735354e-05 0.00026066255 0.0004836773 0.00010875836
0003b0 5a eb 00 39 46 0f 52 39 50 d7 cf 39 b7 2a 24 3a
       0.00012294707 0.0002003285 0.00039642537 0.00062624685
0003c0 b0 ad 4d 39 6a aa 86 39 c8 67 c9 39 e2 5e 24 3a
       0.00019615027 0.0002568544 0.0003841503 0.0006270242
0003d0 99 0e 36 3a d6 c0 89 39 a3 65 b4 39 76 f2 09 3a
       0.0006944924 0.0002627435 0.00034408 0.0005262265
0003e0 af 4f 3b 3a 03 05 29 3a
       0.00071453577 0.0006447585
